…
I0511 09:59:55.105078 32361 caffe.cpp:241] GPU device name: GeForce GT 730
I0511 09:59:55.279057 32361 net.cpp:49] Initializing net from parameters: 
name: "deeplab_largeFOV"
state {
  phase: TEST
}
layer {
  name: "data"
  type: "ImageSegData"
  top: "data"
  top: "label"
  top: "data_dim"
  include {
    phase: TEST
  }
  transform_param {
    mirror: false
    crop_size: 321
    mean_value: 104.008
    mean_value: 116.669
    mean_value: 122.675
  }
  image_data_param {
    source: "nyu/list/val.txt"
    batch_size: 1
    root_folder: "/home/king/Documents/image/nyu"
    label_type: NONE
  }
}
layer {
  name: "conv1_1"
  type: "Convolution"
  bottom: "data"
  top: "conv1_1"
  convolution_param {
    num_output: 64
    pad: 1
    kernel_size: 3
  }
}
layer {
  name: "relu1_1"
  type: "ReLU"
  bottom: "conv1_1"
  top: "conv1_1"
}
layer {
  name: "conv1_2"
  type: "Convolution"
  bottom: "conv1_1"
  top: "conv1_2"
  convolution_param {
    num_output: 64
    pad: 1
    kernel_size: 3
  }
}
layer {
  name: "relu1_2"
  type: "ReLU"
  bottom: "conv1_2"
  top: "conv1_2"
}
layer {
  name: "pool1"
  type: "Pooling"
  bottom: "conv1_2"
  top: "pool1"
  pooling_param {
    pool: MAX
    kernel_size: 3
    stride: 2
    pad: 1
  }
}
layer {
  name: "conv2_1"
  type: "Convolution"
  bottom: "pool1"
  top: "conv2_1"
  convolution_param {
    num_output: 128
    pad: 1
    kernel_size: 3
  }
}
layer {
  name: "relu2_1"
  type: "ReLU"
  bottom: "conv2_1"
  top: "conv2_1"
}
layer {
  name: "conv2_2"
  type: "Convolution"
  bottom: "conv2_1"
  top: "conv2_2"
  convolution_param {
    num_output: 128
    pad: 1
    kernel_size: 3
  }
}
layer {
  name: "relu2_2"
  type: "ReLU"
  bottom: "conv2_2"
  top: "conv2_2"
}
layer {
  name: "pool2"
  type: "Pooling"
  bottom: "conv2_2"
  top: "pool2"
  pooling_param {
    pool: MAX
    kernel_size: 3
    stride: 2
    pad: 1
  }
}
layer {
  name: "conv3_1"
  type: "Convolution"
  bottom: "pool2"
  top: "conv3_1"
  convolution_param {
    num_output: 256
    pad: 1
    kernel_size: 3
  }
}
layer {
  name: "relu3_1"
  type: "ReLU"
  bottom: "conv3_1"
  top: "conv3_1"
}
layer {
  name: "conv3_2"
  type: "Convolution"
  bottom: "conv3_1"
  top: "conv3_2"
  convolution_param {
    num_output: 256
    pad: 1
    kernel_size: 3
  }
}
layer {
  name: "relu3_2"
  type: "ReLU"
  bottom: "conv3_2"
  top: "conv3_2"
}
layer {
  name: "conv3_3"
  type: "Convolution"
  bottom: "conv3_2"
  top: "conv3_3"
  convolution_param {
    num_output: 256
    pad: 1
    kernel_size: 3
  }
}
layer {
  name: "relu3_3"
  type: "ReLU"
  bottom: "conv3_3"
  top: "conv3_3"
}
layer {
  name: "pool3"
  type: "Pooling"
  bottom: "conv3_3"
  top: "pool3"
  pooling_param {
    pool: MAX
    kernel_size: 3
    stride: 2
    pad: 1
  }
}
layer {
  name: "conv4_1"
  type: "Convolution"
  bottom: "pool3"
  top: "conv4_1"
  convolution_param {
    num_output: 512
    pad: 1
    kernel_size: 3
  }
}
layer {
  name: "relu4_1"
  type: "ReLU"
  bottom: "conv4_1"
  top: "conv4_1"
}
layer {
  name: "conv4_2"
  type: "Convolution"
  bottom: "conv4_1"
  top: "conv4_2"
  convolution_param {
    num_output: 512
    pad: 1
    kernel_size: 3
  }
}
layer {
  name: "relu4_2"
  type: "ReLU"
  bottom: "conv4_2"
  top: "conv4_2"
}
layer {
  name: "conv4_3"
  type: "Convolution"
  bottom: "conv4_2"
  top: "conv4_3"
  convolution_param {
    num_output: 512
    pad: 1
    kernel_size: 3
  }
}
layer {
  name: "relu4_3"
  type: "ReLU"
  bottom: "conv4_3"
  top: "conv4_3"
}
layer {
  name: "pool4"
  type: "Pooling"
  bottom: "conv4_3"
  top: "pool4"
  pooling_param {
    pool: MAX
    kernel_size: 3
    stride: 1
    pad: 1
  }
}
layer {
  name: "conv5_1"
  type: "Convolution"
  bottom: "pool4"
  top: "conv5_1"
  convolution_param {
    num_output: 512
    pad: 2
    kernel_size: 3
    dilation: 2
  }
}
layer {
  name: "relu5_1"
  type: "ReLU"
  bottom: "conv5_1"
  top: "conv5_1"
}
layer {
  name: "conv5_2"
  type: "Convolution"
  bottom: "conv5_1"
  top: "conv5_2"
  convolution_param {
    num_output: 512
    pad: 2
    kernel_size: 3
    dilation: 2
  }
}
layer {
  name: "relu5_2"
  type: "ReLU"
  bottom: "conv5_2"
  top: "conv5_2"
}
layer {
  name: "conv5_3"
  type: "Convolution"
  bottom: "conv5_2"
  top: "conv5_3"
  convolution_param {
    num_output: 512
    pad: 2
    kernel_size: 3
    dilation: 2
  }
}
layer {
  name: "relu5_3"
  type: "ReLU"
  bottom: "conv5_3"
  top: "conv5_3"
}
layer {
  name: "pool5"
  type: "Pooling"
  bottom: "conv5_3"
  top: "pool5"
  pooling_param {
    pool: MAX
    kernel_size: 3
    stride: 1
    pad: 1
  }
}
layer {
  name: "fc6_1"
  type: "Convolution"
  bottom: "pool5"
  top: "fc6_1"
  convolution_param {
    num_output: 1024
    pad: 6
    kernel_size: 3
    dilation: 6
  }
}
layer {
  name: "relu6_1"
  type: "ReLU"
  bottom: "fc6_1"
  top: "fc6_1"
}
layer {
  name: "drop6_1"
  type: "Dropout"
  bottom: "fc6_1"
  top: "fc6_1"
  dropout_param {
    dropout_ratio: 0.5
  }
}
layer {
  name: "fc7_1"
  type: "Convolution"
  bottom: "fc6_1"
  top: "fc7_1"
  convolution_param {
    num_output: 1024
    kernel_size: 1
  }
}
layer {
  name: "relu7_1"
  type: "ReLU"
  bottom: "fc7_1"
  top: "fc7_1"
}
layer {
  name: "drop7_1"
  type: "Dropout"
  bottom: "fc7_1"
  top: "fc7_1"
  dropout_param {
    dropout_ratio: 0.5
  }
}
layer {
  name: "fc8_nyu_1"
  type: "Convolution"
  bottom: "fc7_1"
  top: "fc8_nyu_1"
  convolution_param {
    num_output: 459
    kernel_size: 1
  }
}
layer {
  name: "fc6_2"
  type: "Convolution"
  bottom: "pool5"
  top: "fc6_2"
  convolution_param {
    num_output: 1024
    pad: 12
    kernel_size: 3
    dilation: 12
  }
}
layer {
  name: "relu6_2"
  type: "ReLU"
  bottom: "fc6_2"
  top: "fc6_2"
}
layer {
  name: "drop6_2"
  type: "Dropout"
  bottom: "fc6_2"
  top: "fc6_2"
  dropout_param {
    dropout_ratio: 0.5
  }
}
layer {
  name: "fc7_2"
  type: "Convolution"
  bottom: "fc6_2"
  top: "fc7_2"
  convolution_param {
    num_output: 1024
    kernel_size: 1
  }
}
layer {
  name: "relu7_2"
  type: "ReLU"
  bottom: "fc7_2"
  top: "fc7_2"
}
layer {
  name: "drop7_2"
  type: "Dropout"
  bottom: "fc7_2"
  top: "fc7_2"
  dropout_param {
    dropout_ratio: 0.5
  }
}
layer {
  name: "fc8_nyu_2"
  type: "Convolution"
  bottom: "fc7_2"
  top: "fc8_nyu_2"
  convolution_param {
    num_output: 459
    kernel_size: 1
  }
}
layer {
  name: "fc6_3"
  type: "Convolution"
  bottom: "pool5"
  top: "fc6_3"
  convolution_param {
    num_output: 1024
    pad: 18
    kernel_size: 3
    dilation: 18
  }
}
layer {
  name: "relu6_3"
  type: "ReLU"
  bottom: "fc6_3"
  top: "fc6_3"
}
layer {
  name: "drop6_3"
  type: "Dropout"
  bottom: "fc6_3"
  top: "fc6_3"
  dropout_param {
    dropout_ratio: 0.5
  }
}
layer {
  name: "fc7_3"
  type: "Convolution"
  bottom: "fc6_3"
  top: "fc7_3"
  convolution_param {
    num_output: 1024
    kernel_size: 1
  }
}
layer {
  name: "relu7_3"
  type: "ReLU"
  bottom: "fc7_3"
  top: "fc7_3"
}
layer {
  name: "drop7_3"
  type: "Dropout"
  bottom: "fc7_3"
  top: "fc7_3"
  dropout_param {
    dropout_ratio: 0.5
  }
}
layer {
  name: "fc8_nyu_3"
  type: "Convolution"
  bottom: "fc7_3"
  top: "fc8_nyu_3"
  convolution_param {
    num_output: 459
    kernel_size: 1
  }
}
layer {
  name: "fc6_4"
  type: "Convolution"
  bottom: "pool5"
  top: "fc6_4"
  convolution_param {
    num_output: 1024
    pad: 24
    kernel_size: 3
    dilation: 24
  }
}
layer {
  name: "relu6_4"
  type: "ReLU"
  bottom: "fc6_4"
  top: "fc6_4"
}
layer {
  name: "drop6_4"
  type: "Dropout"
  bottom: "fc6_4"
  top: "fc6_4"
  dropout_param {
    dropout_ratio: 0.5
  }
}
layer {
  name: "fc7_4"
  type: "Convolution"
  bottom: "fc6_4"
  top: "fc7_4"
  convolution_param {
    num_output: 1024
    kernel_size: 1
  }
}
layer {
  name: "relu7_4"
  type: "ReLU"
  bottom: "fc7_4"
  top: "fc7_4"
}
layer {
  name: "drop7_4"
  type: "Dropout"
  bottom: "fc7_4"
  top: "fc7_4"
  dropout_param {
    dropout_ratio: 0.5
  }
}
layer {
  name: "fc8_nyu_4"
  type: "Convolution"
  bottom: "fc7_4"
  top: "fc8_nyu_4"
  convolution_param {
    num_output: 459
    kernel_size: 1
  }
}
layer {
  name: "fc8_nyu"
  type: "Eltwise"
  bottom: "fc8_nyu_1"
  bottom: "fc8_nyu_2"
  bottom: "fc8_nyu_3"
  bottom: "fc8_nyu_4"
  top: "fc8_nyu"
  eltwise_param {
    operation: SUM
  }
}
layer {
  name: "fc8_interp"
  type: "Interp"
  bottom: "fc8_nyu"
  top: "fc8_interp"
  interp_param {
    zoom_factor: 8
  }
}
layer {
  name: "fc8_mat"
  type: "MatWrite"
  bottom: "fc8_interp"
  include {
    phase: TEST
  }
  mat_write_param {
    prefix: "nyu/features/deeplab_largeFOV/val/fc8/"
    source: "nyu/list/val_id.txt"
    strip: 0
    period: 1
  }
}
layer {
  name: "silence"
  type: "Silence"
  bottom: "label"
  bottom: "data_dim"
}
I0511 09:59:55.279264 32361 layer_factory.hpp:77] Creating layer data
I0511 09:59:55.279299 32361 net.cpp:106] Creating Layer data
I0511 09:59:55.279304 32361 net.cpp:411] data -> data
I0511 09:59:55.279320 32361 net.cpp:411] data -> label
I0511 09:59:55.279325 32361 net.cpp:411] data -> data_dim
I0511 09:59:55.279335 32361 image_seg_data_layer.cpp:46] Opening file nyu/list/val.txt
I0511 09:59:55.279495 32361 image_seg_data_layer.cpp:68] A total of 154 images.
I0511 09:59:55.292352 32361 image_seg_data_layer.cpp:137] output data size: 1,3,321,321
I0511 09:59:55.292371 32361 image_seg_data_layer.cpp:141] output label size: 1,1,321,321
I0511 09:59:55.292373 32361 image_seg_data_layer.cpp:145] output data_dim size: 1,1,1,2
I0511 09:59:55.301578 32361 net.cpp:150] Setting up data
I0511 09:59:55.301597 32361 net.cpp:157] Top shape: 1 3 321 321 (309123)
I0511 09:59:55.301602 32361 net.cpp:157] Top shape: 1 1 321 321 (103041)
I0511 09:59:55.301620 32361 net.cpp:157] Top shape: 1 1 1 2 (2)
I0511 09:59:55.301622 32361 net.cpp:165] Memory required for data: 1648664
I0511 09:59:55.301628 32361 layer_factory.hpp:77] Creating layer conv1_1
I0511 09:59:55.301643 32361 net.cpp:106] Creating Layer conv1_1
I0511 09:59:55.301648 32361 net.cpp:454] conv1_1 <- data
I0511 09:59:55.301673 32361 net.cpp:411] conv1_1 -> conv1_1
I0511 09:59:55.302335 32361 net.cpp:150] Setting up conv1_1
I0511 09:59:55.302345 32361 net.cpp:157] Top shape: 1 64 321 321 (6594624)
I0511 09:59:55.302348 32361 net.cpp:165] Memory required for data: 28027160
I0511 09:59:55.302376 32361 layer_factory.hpp:77] Creating layer relu1_1
I0511 09:59:55.302381 32361 net.cpp:106] Creating Layer relu1_1
I0511 09:59:55.302384 32361 net.cpp:454] relu1_1 <- conv1_1
I0511 09:59:55.302388 32361 net.cpp:397] relu1_1 -> conv1_1 (in-place)
I0511 09:59:55.302408 32361 net.cpp:150] Setting up relu1_1
I0511 09:59:55.302413 32361 net.cpp:157] Top shape: 1 64 321 321 (6594624)
I0511 09:59:55.302415 32361 net.cpp:165] Memory required for data: 54405656
I0511 09:59:55.302417 32361 layer_factory.hpp:77] Creating layer conv1_2
I0511 09:59:55.302436 32361 net.cpp:106] Creating Layer conv1_2
I0511 09:59:55.302438 32361 net.cpp:454] conv1_2 <- conv1_1
I0511 09:59:55.302443 32361 net.cpp:411] conv1_2 -> conv1_2
I0511 09:59:55.303400 32361 net.cpp:150] Setting up conv1_2
I0511 09:59:55.303409 32361 net.cpp:157] Top shape: 1 64 321 321 (6594624)
I0511 09:59:55.303412 32361 net.cpp:165] Memory required for data: 80784152
I0511 09:59:55.303418 32361 layer_factory.hpp:77] Creating layer relu1_2
I0511 09:59:55.303437 32361 net.cpp:106] Creating Layer relu1_2
I0511 09:59:55.303442 32361 net.cpp:454] relu1_2 <- conv1_2
I0511 09:59:55.303444 32361 net.cpp:397] relu1_2 -> conv1_2 (in-place)
I0511 09:59:55.303449 32361 net.cpp:150] Setting up relu1_2
I0511 09:59:55.303452 32361 net.cpp:157] Top shape: 1 64 321 321 (6594624)
I0511 09:59:55.303454 32361 net.cpp:165] Memory required for data: 107162648
I0511 09:59:55.303457 32361 layer_factory.hpp:77] Creating layer pool1
I0511 09:59:55.303477 32361 net.cpp:106] Creating Layer pool1
I0511 09:59:55.303480 32361 net.cpp:454] pool1 <- conv1_2
I0511 09:59:55.303496 32361 net.cpp:411] pool1 -> pool1
I0511 09:59:55.304034 32361 net.cpp:150] Setting up pool1
I0511 09:59:55.304045 32361 net.cpp:157] Top shape: 1 64 161 161 (1658944)
I0511 09:59:55.304049 32361 net.cpp:165] Memory required for data: 113798424
I0511 09:59:55.304051 32361 layer_factory.hpp:77] Creating layer conv2_1
I0511 09:59:55.304071 32361 net.cpp:106] Creating Layer conv2_1
I0511 09:59:55.304100 32361 net.cpp:454] conv2_1 <- pool1
I0511 09:59:55.304103 32361 net.cpp:411] conv2_1 -> conv2_1
I0511 09:59:55.304322 32361 net.cpp:150] Setting up conv2_1
I0511 09:59:55.304327 32361 net.cpp:157] Top shape: 1 128 161 161 (3317888)
I0511 09:59:55.304329 32361 net.cpp:165] Memory required for data: 127069976
I0511 09:59:55.304335 32361 layer_factory.hpp:77] Creating layer relu2_1
I0511 09:59:55.304339 32361 net.cpp:106] Creating Layer relu2_1
I0511 09:59:55.304342 32361 net.cpp:454] relu2_1 <- conv2_1
I0511 09:59:55.304359 32361 net.cpp:397] relu2_1 -> conv2_1 (in-place)
I0511 09:59:55.304363 32361 net.cpp:150] Setting up relu2_1
I0511 09:59:55.304366 32361 net.cpp:157] Top shape: 1 128 161 161 (3317888)
I0511 09:59:55.304368 32361 net.cpp:165] Memory required for data: 140341528
I0511 09:59:55.304370 32361 layer_factory.hpp:77] Creating layer conv2_2
I0511 09:59:55.304375 32361 net.cpp:106] Creating Layer conv2_2
I0511 09:59:55.304378 32361 net.cpp:454] conv2_2 <- conv2_1
I0511 09:59:55.304381 32361 net.cpp:411] conv2_2 -> conv2_2
I0511 09:59:55.304996 32361 net.cpp:150] Setting up conv2_2
I0511 09:59:55.305004 32361 net.cpp:157] Top shape: 1 128 161 161 (3317888)
I0511 09:59:55.305007 32361 net.cpp:165] Memory required for data: 153613080
I0511 09:59:55.305012 32361 layer_factory.hpp:77] Creating layer relu2_2
I0511 09:59:55.305016 32361 net.cpp:106] Creating Layer relu2_2
I0511 09:59:55.305033 32361 net.cpp:454] relu2_2 <- conv2_2
I0511 09:59:55.305037 32361 net.cpp:397] relu2_2 -> conv2_2 (in-place)
I0511 09:59:55.305054 32361 net.cpp:150] Setting up relu2_2
I0511 09:59:55.305058 32361 net.cpp:157] Top shape: 1 128 161 161 (3317888)
I0511 09:59:55.305059 32361 net.cpp:165] Memory required for data: 166884632
I0511 09:59:55.305063 32361 layer_factory.hpp:77] Creating layer pool2
I0511 09:59:55.305080 32361 net.cpp:106] Creating Layer pool2
I0511 09:59:55.305083 32361 net.cpp:454] pool2 <- conv2_2
I0511 09:59:55.305085 32361 net.cpp:411] pool2 -> pool2
I0511 09:59:55.305124 32361 net.cpp:150] Setting up pool2
I0511 09:59:55.305128 32361 net.cpp:157] Top shape: 1 128 81 81 (839808)
I0511 09:59:55.305130 32361 net.cpp:165] Memory required for data: 170243864
I0511 09:59:55.305133 32361 layer_factory.hpp:77] Creating layer conv3_1
I0511 09:59:55.305137 32361 net.cpp:106] Creating Layer conv3_1
I0511 09:59:55.305140 32361 net.cpp:454] conv3_1 <- pool2
I0511 09:59:55.305142 32361 net.cpp:411] conv3_1 -> conv3_1
I0511 09:59:55.306273 32361 net.cpp:150] Setting up conv3_1
I0511 09:59:55.306289 32361 net.cpp:157] Top shape: 1 256 81 81 (1679616)
I0511 09:59:55.306291 32361 net.cpp:165] Memory required for data: 176962328
I0511 09:59:55.306315 32361 layer_factory.hpp:77] Creating layer relu3_1
I0511 09:59:55.306322 32361 net.cpp:106] Creating Layer relu3_1
I0511 09:59:55.306326 32361 net.cpp:454] relu3_1 <- conv3_1
I0511 09:59:55.306330 32361 net.cpp:397] relu3_1 -> conv3_1 (in-place)
I0511 09:59:55.306336 32361 net.cpp:150] Setting up relu3_1
I0511 09:59:55.306339 32361 net.cpp:157] Top shape: 1 256 81 81 (1679616)
I0511 09:59:55.306342 32361 net.cpp:165] Memory required for data: 183680792
I0511 09:59:55.306344 32361 layer_factory.hpp:77] Creating layer conv3_2
I0511 09:59:55.306349 32361 net.cpp:106] Creating Layer conv3_2
I0511 09:59:55.306351 32361 net.cpp:454] conv3_2 <- conv3_1
I0511 09:59:55.306355 32361 net.cpp:411] conv3_2 -> conv3_2
I0511 09:59:55.307876 32361 net.cpp:150] Setting up conv3_2
I0511 09:59:55.307901 32361 net.cpp:157] Top shape: 1 256 81 81 (1679616)
I0511 09:59:55.307904 32361 net.cpp:165] Memory required for data: 190399256
I0511 09:59:55.307929 32361 layer_factory.hpp:77] Creating layer relu3_2
I0511 09:59:55.307950 32361 net.cpp:106] Creating Layer relu3_2
I0511 09:59:55.307953 32361 net.cpp:454] relu3_2 <- conv3_2
I0511 09:59:55.307961 32361 net.cpp:397] relu3_2 -> conv3_2 (in-place)
I0511 09:59:55.307972 32361 net.cpp:150] Setting up relu3_2
I0511 09:59:55.307976 32361 net.cpp:157] Top shape: 1 256 81 81 (1679616)
I0511 09:59:55.307977 32361 net.cpp:165] Memory required for data: 197117720
I0511 09:59:55.307996 32361 layer_factory.hpp:77] Creating layer conv3_3
I0511 09:59:55.308002 32361 net.cpp:106] Creating Layer conv3_3
I0511 09:59:55.308006 32361 net.cpp:454] conv3_3 <- conv3_2
I0511 09:59:55.308009 32361 net.cpp:411] conv3_3 -> conv3_3
I0511 09:59:55.309425 32361 net.cpp:150] Setting up conv3_3
I0511 09:59:55.309456 32361 net.cpp:157] Top shape: 1 256 81 81 (1679616)
I0511 09:59:55.309459 32361 net.cpp:165] Memory required for data: 203836184
I0511 09:59:55.309478 32361 layer_factory.hpp:77] Creating layer relu3_3
I0511 09:59:55.309487 32361 net.cpp:106] Creating Layer relu3_3
I0511 09:59:55.309492 32361 net.cpp:454] relu3_3 <- conv3_3
I0511 09:59:55.309500 32361 net.cpp:397] relu3_3 -> conv3_3 (in-place)
I0511 09:59:55.309509 32361 net.cpp:150] Setting up relu3_3
I0511 09:59:55.309511 32361 net.cpp:157] Top shape: 1 256 81 81 (1679616)
I0511 09:59:55.309514 32361 net.cpp:165] Memory required for data: 210554648
I0511 09:59:55.309516 32361 layer_factory.hpp:77] Creating layer pool3
I0511 09:59:55.309521 32361 net.cpp:106] Creating Layer pool3
I0511 09:59:55.309537 32361 net.cpp:454] pool3 <- conv3_3
I0511 09:59:55.309542 32361 net.cpp:411] pool3 -> pool3
I0511 09:59:55.309607 32361 net.cpp:150] Setting up pool3
I0511 09:59:55.309633 32361 net.cpp:157] Top shape: 1 256 41 41 (430336)
I0511 09:59:55.309638 32361 net.cpp:165] Memory required for data: 212275992
I0511 09:59:55.309641 32361 layer_factory.hpp:77] Creating layer conv4_1
I0511 09:59:55.309648 32361 net.cpp:106] Creating Layer conv4_1
I0511 09:59:55.309650 32361 net.cpp:454] conv4_1 <- pool3
I0511 09:59:55.309653 32361 net.cpp:411] conv4_1 -> conv4_1
I0511 09:59:55.312999 32361 net.cpp:150] Setting up conv4_1
I0511 09:59:55.313024 32361 net.cpp:157] Top shape: 1 512 41 41 (860672)
I0511 09:59:55.313027 32361 net.cpp:165] Memory required for data: 215718680
I0511 09:59:55.313052 32361 layer_factory.hpp:77] Creating layer relu4_1
I0511 09:59:55.313061 32361 net.cpp:106] Creating Layer relu4_1
I0511 09:59:55.313066 32361 net.cpp:454] relu4_1 <- conv4_1
I0511 09:59:55.313071 32361 net.cpp:397] relu4_1 -> conv4_1 (in-place)
I0511 09:59:55.313094 32361 net.cpp:150] Setting up relu4_1
I0511 09:59:55.313097 32361 net.cpp:157] Top shape: 1 512 41 41 (860672)
I0511 09:59:55.313099 32361 net.cpp:165] Memory required for data: 219161368
I0511 09:59:55.313102 32361 layer_factory.hpp:77] Creating layer conv4_2
I0511 09:59:55.313107 32361 net.cpp:106] Creating Layer conv4_2
I0511 09:59:55.313127 32361 net.cpp:454] conv4_2 <- conv4_1
I0511 09:59:55.313143 32361 net.cpp:411] conv4_2 -> conv4_2
I0511 09:59:55.318116 32361 net.cpp:150] Setting up conv4_2
I0511 09:59:55.318169 32361 net.cpp:157] Top shape: 1 512 41 41 (860672)
I0511 09:59:55.318186 32361 net.cpp:165] Memory required for data: 222604056
I0511 09:59:55.318208 32361 layer_factory.hpp:77] Creating layer relu4_2
I0511 09:59:55.318222 32361 net.cpp:106] Creating Layer relu4_2
I0511 09:59:55.318228 32361 net.cpp:454] relu4_2 <- conv4_2
I0511 09:59:55.318238 32361 net.cpp:397] relu4_2 -> conv4_2 (in-place)
I0511 09:59:55.318262 32361 net.cpp:150] Setting up relu4_2
I0511 09:59:55.318280 32361 net.cpp:157] Top shape: 1 512 41 41 (860672)
I0511 09:59:55.318282 32361 net.cpp:165] Memory required for data: 226046744
I0511 09:59:55.318300 32361 layer_factory.hpp:77] Creating layer conv4_3
I0511 09:59:55.318307 32361 net.cpp:106] Creating Layer conv4_3
I0511 09:59:55.318315 32361 net.cpp:454] conv4_3 <- conv4_2
I0511 09:59:55.318320 32361 net.cpp:411] conv4_3 -> conv4_3
I0511 09:59:55.322908 32361 net.cpp:150] Setting up conv4_3
I0511 09:59:55.322929 32361 net.cpp:157] Top shape: 1 512 41 41 (860672)
I0511 09:59:55.322932 32361 net.cpp:165] Memory required for data: 229489432
I0511 09:59:55.322940 32361 layer_factory.hpp:77] Creating layer relu4_3
I0511 09:59:55.322947 32361 net.cpp:106] Creating Layer relu4_3
I0511 09:59:55.322950 32361 net.cpp:454] relu4_3 <- conv4_3
I0511 09:59:55.322971 32361 net.cpp:397] relu4_3 -> conv4_3 (in-place)
I0511 09:59:55.322980 32361 net.cpp:150] Setting up relu4_3
I0511 09:59:55.323038 32361 net.cpp:157] Top shape: 1 512 41 41 (860672)
I0511 09:59:55.323041 32361 net.cpp:165] Memory required for data: 232932120
I0511 09:59:55.323043 32361 layer_factory.hpp:77] Creating layer pool4
I0511 09:59:55.323048 32361 net.cpp:106] Creating Layer pool4
I0511 09:59:55.323051 32361 net.cpp:454] pool4 <- conv4_3
I0511 09:59:55.323055 32361 net.cpp:411] pool4 -> pool4
I0511 09:59:55.323119 32361 net.cpp:150] Setting up pool4
I0511 09:59:55.323124 32361 net.cpp:157] Top shape: 1 512 41 41 (860672)
I0511 09:59:55.323127 32361 net.cpp:165] Memory required for data: 236374808
I0511 09:59:55.323129 32361 layer_factory.hpp:77] Creating layer conv5_1
I0511 09:59:55.323134 32361 net.cpp:106] Creating Layer conv5_1
I0511 09:59:55.323137 32361 net.cpp:454] conv5_1 <- pool4
I0511 09:59:55.323140 32361 net.cpp:411] conv5_1 -> conv5_1
I0511 09:59:55.328702 32361 net.cpp:150] Setting up conv5_1
I0511 09:59:55.328724 32361 net.cpp:157] Top shape: 1 512 41 41 (860672)
I0511 09:59:55.328727 32361 net.cpp:165] Memory required for data: 239817496
I0511 09:59:55.328734 32361 layer_factory.hpp:77] Creating layer relu5_1
I0511 09:59:55.328758 32361 net.cpp:106] Creating Layer relu5_1
I0511 09:59:55.328763 32361 net.cpp:454] relu5_1 <- conv5_1
I0511 09:59:55.328771 32361 net.cpp:397] relu5_1 -> conv5_1 (in-place)
I0511 09:59:55.328780 32361 net.cpp:150] Setting up relu5_1
I0511 09:59:55.328784 32361 net.cpp:157] Top shape: 1 512 41 41 (860672)
I0511 09:59:55.328786 32361 net.cpp:165] Memory required for data: 243260184
I0511 09:59:55.328788 32361 layer_factory.hpp:77] Creating layer conv5_2
I0511 09:59:55.328809 32361 net.cpp:106] Creating Layer conv5_2
I0511 09:59:55.328811 32361 net.cpp:454] conv5_2 <- conv5_1
I0511 09:59:55.328829 32361 net.cpp:411] conv5_2 -> conv5_2
I0511 09:59:55.334517 32361 net.cpp:150] Setting up conv5_2
I0511 09:59:55.334538 32361 net.cpp:157] Top shape: 1 512 41 41 (860672)
I0511 09:59:55.334542 32361 net.cpp:165] Memory required for data: 246702872
I0511 09:59:55.334564 32361 layer_factory.hpp:77] Creating layer relu5_2
I0511 09:59:55.334576 32361 net.cpp:106] Creating Layer relu5_2
I0511 09:59:55.334581 32361 net.cpp:454] relu5_2 <- conv5_2
I0511 09:59:55.334590 32361 net.cpp:397] relu5_2 -> conv5_2 (in-place)
I0511 09:59:55.334612 32361 net.cpp:150] Setting up relu5_2
I0511 09:59:55.334615 32361 net.cpp:157] Top shape: 1 512 41 41 (860672)
I0511 09:59:55.334619 32361 net.cpp:165] Memory required for data: 250145560
I0511 09:59:55.334635 32361 layer_factory.hpp:77] Creating layer conv5_3
I0511 09:59:55.334645 32361 net.cpp:106] Creating Layer conv5_3
I0511 09:59:55.334647 32361 net.cpp:454] conv5_3 <- conv5_2
I0511 09:59:55.334652 32361 net.cpp:411] conv5_3 -> conv5_3
I0511 09:59:55.341403 32361 net.cpp:150] Setting up conv5_3
I0511 09:59:55.341430 32361 net.cpp:157] Top shape: 1 512 41 41 (860672)
I0511 09:59:55.341434 32361 net.cpp:165] Memory required for data: 253588248
I0511 09:59:55.341457 32361 layer_factory.hpp:77] Creating layer relu5_3
I0511 09:59:55.341482 32361 net.cpp:106] Creating Layer relu5_3
I0511 09:59:55.341486 32361 net.cpp:454] relu5_3 <- conv5_3
I0511 09:59:55.341492 32361 net.cpp:397] relu5_3 -> conv5_3 (in-place)
I0511 09:59:55.341501 32361 net.cpp:150] Setting up relu5_3
I0511 09:59:55.341504 32361 net.cpp:157] Top shape: 1 512 41 41 (860672)
I0511 09:59:55.341506 32361 net.cpp:165] Memory required for data: 257030936
I0511 09:59:55.341508 32361 layer_factory.hpp:77] Creating layer pool5
I0511 09:59:55.341514 32361 net.cpp:106] Creating Layer pool5
I0511 09:59:55.341516 32361 net.cpp:454] pool5 <- conv5_3
I0511 09:59:55.341519 32361 net.cpp:411] pool5 -> pool5
I0511 09:59:55.341557 32361 net.cpp:150] Setting up pool5
I0511 09:59:55.341583 32361 net.cpp:157] Top shape: 1 512 41 41 (860672)
I0511 09:59:55.341604 32361 net.cpp:165] Memory required for data: 260473624
I0511 09:59:55.341615 32361 layer_factory.hpp:77] Creating layer pool5_pool5_0_split
I0511 09:59:55.341632 32361 net.cpp:106] Creating Layer pool5_pool5_0_split
I0511 09:59:55.341639 32361 net.cpp:454] pool5_pool5_0_split <- pool5
I0511 09:59:55.341652 32361 net.cpp:411] pool5_pool5_0_split -> pool5_pool5_0_split_0
I0511 09:59:55.341657 32361 net.cpp:411] pool5_pool5_0_split -> pool5_pool5_0_split_1
I0511 09:59:55.341661 32361 net.cpp:411] pool5_pool5_0_split -> pool5_pool5_0_split_2
I0511 09:59:55.341666 32361 net.cpp:411] pool5_pool5_0_split -> pool5_pool5_0_split_3
I0511 09:59:55.341704 32361 net.cpp:150] Setting up pool5_pool5_0_split
I0511 09:59:55.341709 32361 net.cpp:157] Top shape: 1 512 41 41 (860672)
I0511 09:59:55.341712 32361 net.cpp:157] Top shape: 1 512 41 41 (860672)
I0511 09:59:55.341715 32361 net.cpp:157] Top shape: 1 512 41 41 (860672)
I0511 09:59:55.341718 32361 net.cpp:157] Top shape: 1 512 41 41 (860672)
I0511 09:59:55.341720 32361 net.cpp:165] Memory required for data: 274244376
I0511 09:59:55.341722 32361 layer_factory.hpp:77] Creating layer fc6_1
I0511 09:59:55.341728 32361 net.cpp:106] Creating Layer fc6_1
I0511 09:59:55.341730 32361 net.cpp:454] fc6_1 <- pool5_pool5_0_split_0
I0511 09:59:55.341734 32361 net.cpp:411] fc6_1 -> fc6_1
I0511 09:59:55.349701 32361 net.cpp:150] Setting up fc6_1
I0511 09:59:55.349730 32361 net.cpp:157] Top shape: 1 1024 41 41 (1721344)
I0511 09:59:55.349733 32361 net.cpp:165] Memory required for data: 281129752
I0511 09:59:55.349740 32361 layer_factory.hpp:77] Creating layer relu6_1
I0511 09:59:55.349747 32361 net.cpp:106] Creating Layer relu6_1
I0511 09:59:55.349751 32361 net.cpp:454] relu6_1 <- fc6_1
I0511 09:59:55.349757 32361 net.cpp:397] relu6_1 -> fc6_1 (in-place)
I0511 09:59:55.349766 32361 net.cpp:150] Setting up relu6_1
I0511 09:59:55.349769 32361 net.cpp:157] Top shape: 1 1024 41 41 (1721344)
I0511 09:59:55.349771 32361 net.cpp:165] Memory required for data: 288015128
I0511 09:59:55.349774 32361 layer_factory.hpp:77] Creating layer drop6_1
I0511 09:59:55.349783 32361 net.cpp:106] Creating Layer drop6_1
I0511 09:59:55.349800 32361 net.cpp:454] drop6_1 <- fc6_1
I0511 09:59:55.349803 32361 net.cpp:397] drop6_1 -> fc6_1 (in-place)
I0511 09:59:55.349848 32361 net.cpp:150] Setting up drop6_1
I0511 09:59:55.349865 32361 net.cpp:157] Top shape: 1 1024 41 41 (1721344)
I0511 09:59:55.349869 32361 net.cpp:165] Memory required for data: 294900504
I0511 09:59:55.349884 32361 layer_factory.hpp:77] Creating layer fc7_1
I0511 09:59:55.349889 32361 net.cpp:106] Creating Layer fc7_1
I0511 09:59:55.349907 32361 net.cpp:454] fc7_1 <- fc6_1
I0511 09:59:55.349911 32361 net.cpp:411] fc7_1 -> fc7_1
I0511 09:59:55.351514 32361 net.cpp:150] Setting up fc7_1
I0511 09:59:55.351531 32361 net.cpp:157] Top shape: 1 1024 41 41 (1721344)
I0511 09:59:55.351533 32361 net.cpp:165] Memory required for data: 301785880
I0511 09:59:55.351539 32361 layer_factory.hpp:77] Creating layer relu7_1
I0511 09:59:55.351544 32361 net.cpp:106] Creating Layer relu7_1
I0511 09:59:55.351547 32361 net.cpp:454] relu7_1 <- fc7_1
I0511 09:59:55.351552 32361 net.cpp:397] relu7_1 -> fc7_1 (in-place)
I0511 09:59:55.351557 32361 net.cpp:150] Setting up relu7_1
I0511 09:59:55.351560 32361 net.cpp:157] Top shape: 1 1024 41 41 (1721344)
I0511 09:59:55.351562 32361 net.cpp:165] Memory required for data: 308671256
I0511 09:59:55.351564 32361 layer_factory.hpp:77] Creating layer drop7_1
I0511 09:59:55.351568 32361 net.cpp:106] Creating Layer drop7_1
I0511 09:59:55.351572 32361 net.cpp:454] drop7_1 <- fc7_1
I0511 09:59:55.351573 32361 net.cpp:397] drop7_1 -> fc7_1 (in-place)
I0511 09:59:55.351619 32361 net.cpp:150] Setting up drop7_1
I0511 09:59:55.351624 32361 net.cpp:157] Top shape: 1 1024 41 41 (1721344)
I0511 09:59:55.351627 32361 net.cpp:165] Memory required for data: 315556632
I0511 09:59:55.351629 32361 layer_factory.hpp:77] Creating layer fc8_nyu_1
I0511 09:59:55.351634 32361 net.cpp:106] Creating Layer fc8_nyu_1
I0511 09:59:55.351637 32361 net.cpp:454] fc8_nyu_1 <- fc7_1
I0511 09:59:55.351644 32361 net.cpp:411] fc8_nyu_1 -> fc8_nyu_1
I0511 09:59:55.352556 32361 net.cpp:150] Setting up fc8_nyu_1
I0511 09:59:55.352569 32361 net.cpp:157] Top shape: 1 459 41 41 (771579)
I0511 09:59:55.352571 32361 net.cpp:165] Memory required for data: 318642948
I0511 09:59:55.352604 32361 layer_factory.hpp:77] Creating layer fc6_2
I0511 09:59:55.352612 32361 net.cpp:106] Creating Layer fc6_2
I0511 09:59:55.352615 32361 net.cpp:454] fc6_2 <- pool5_pool5_0_split_1
I0511 09:59:55.352620 32361 net.cpp:411] fc6_2 -> fc6_2
I0511 09:59:55.360355 32361 net.cpp:150] Setting up fc6_2
I0511 09:59:55.360379 32361 net.cpp:157] Top shape: 1 1024 41 41 (1721344)
I0511 09:59:55.360383 32361 net.cpp:165] Memory required for data: 325528324
I0511 09:59:55.360394 32361 layer_factory.hpp:77] Creating layer relu6_2
I0511 09:59:55.360401 32361 net.cpp:106] Creating Layer relu6_2
I0511 09:59:55.360404 32361 net.cpp:454] relu6_2 <- fc6_2
I0511 09:59:55.360409 32361 net.cpp:397] relu6_2 -> fc6_2 (in-place)
I0511 09:59:55.360417 32361 net.cpp:150] Setting up relu6_2
I0511 09:59:55.360420 32361 net.cpp:157] Top shape: 1 1024 41 41 (1721344)
I0511 09:59:55.360424 32361 net.cpp:165] Memory required for data: 332413700
I0511 09:59:55.360425 32361 layer_factory.hpp:77] Creating layer drop6_2
I0511 09:59:55.360430 32361 net.cpp:106] Creating Layer drop6_2
I0511 09:59:55.360447 32361 net.cpp:454] drop6_2 <- fc6_2
I0511 09:59:55.360450 32361 net.cpp:397] drop6_2 -> fc6_2 (in-place)
I0511 09:59:55.360486 32361 net.cpp:150] Setting up drop6_2
I0511 09:59:55.360491 32361 net.cpp:157] Top shape: 1 1024 41 41 (1721344)
I0511 09:59:55.360505 32361 net.cpp:165] Memory required for data: 339299076
I0511 09:59:55.360508 32361 layer_factory.hpp:77] Creating layer fc7_2
I0511 09:59:55.360513 32361 net.cpp:106] Creating Layer fc7_2
I0511 09:59:55.360528 32361 net.cpp:454] fc7_2 <- fc6_2
I0511 09:59:55.360532 32361 net.cpp:411] fc7_2 -> fc7_2
I0511 09:59:55.362155 32361 net.cpp:150] Setting up fc7_2
I0511 09:59:55.362174 32361 net.cpp:157] Top shape: 1 1024 41 41 (1721344)
I0511 09:59:55.362176 32361 net.cpp:165] Memory required for data: 346184452
I0511 09:59:55.362182 32361 layer_factory.hpp:77] Creating layer relu7_2
I0511 09:59:55.362188 32361 net.cpp:106] Creating Layer relu7_2
I0511 09:59:55.362190 32361 net.cpp:454] relu7_2 <- fc7_2
I0511 09:59:55.362195 32361 net.cpp:397] relu7_2 -> fc7_2 (in-place)
I0511 09:59:55.362200 32361 net.cpp:150] Setting up relu7_2
I0511 09:59:55.362205 32361 net.cpp:157] Top shape: 1 1024 41 41 (1721344)
I0511 09:59:55.362206 32361 net.cpp:165] Memory required for data: 353069828
I0511 09:59:55.362208 32361 layer_factory.hpp:77] Creating layer drop7_2
I0511 09:59:55.362212 32361 net.cpp:106] Creating Layer drop7_2
I0511 09:59:55.362215 32361 net.cpp:454] drop7_2 <- fc7_2
I0511 09:59:55.362216 32361 net.cpp:397] drop7_2 -> fc7_2 (in-place)
I0511 09:59:55.362249 32361 net.cpp:150] Setting up drop7_2
I0511 09:59:55.362268 32361 net.cpp:157] Top shape: 1 1024 41 41 (1721344)
I0511 09:59:55.362272 32361 net.cpp:165] Memory required for data: 359955204
I0511 09:59:55.362273 32361 layer_factory.hpp:77] Creating layer fc8_nyu_2
I0511 09:59:55.362290 32361 net.cpp:106] Creating Layer fc8_nyu_2
I0511 09:59:55.362293 32361 net.cpp:454] fc8_nyu_2 <- fc7_2
I0511 09:59:55.362298 32361 net.cpp:411] fc8_nyu_2 -> fc8_nyu_2
I0511 09:59:55.363234 32361 net.cpp:150] Setting up fc8_nyu_2
I0511 09:59:55.363245 32361 net.cpp:157] Top shape: 1 459 41 41 (771579)
I0511 09:59:55.363247 32361 net.cpp:165] Memory required for data: 363041520
I0511 09:59:55.363252 32361 layer_factory.hpp:77] Creating layer fc6_3
I0511 09:59:55.363258 32361 net.cpp:106] Creating Layer fc6_3
I0511 09:59:55.363261 32361 net.cpp:454] fc6_3 <- pool5_pool5_0_split_2
I0511 09:59:55.363265 32361 net.cpp:411] fc6_3 -> fc6_3
I0511 09:59:55.372020 32361 net.cpp:150] Setting up fc6_3
I0511 09:59:55.372042 32361 net.cpp:157] Top shape: 1 1024 41 41 (1721344)
I0511 09:59:55.372045 32361 net.cpp:165] Memory required for data: 369926896
I0511 09:59:55.372052 32361 layer_factory.hpp:77] Creating layer relu6_3
I0511 09:59:55.372058 32361 net.cpp:106] Creating Layer relu6_3
I0511 09:59:55.372062 32361 net.cpp:454] relu6_3 <- fc6_3
I0511 09:59:55.372066 32361 net.cpp:397] relu6_3 -> fc6_3 (in-place)
I0511 09:59:55.372074 32361 net.cpp:150] Setting up relu6_3
I0511 09:59:55.372090 32361 net.cpp:157] Top shape: 1 1024 41 41 (1721344)
I0511 09:59:55.372092 32361 net.cpp:165] Memory required for data: 376812272
I0511 09:59:55.372109 32361 layer_factory.hpp:77] Creating layer drop6_3
I0511 09:59:55.372114 32361 net.cpp:106] Creating Layer drop6_3
I0511 09:59:55.372117 32361 net.cpp:454] drop6_3 <- fc6_3
I0511 09:59:55.372120 32361 net.cpp:397] drop6_3 -> fc6_3 (in-place)
I0511 09:59:55.372169 32361 net.cpp:150] Setting up drop6_3
I0511 09:59:55.372174 32361 net.cpp:157] Top shape: 1 1024 41 41 (1721344)
I0511 09:59:55.372175 32361 net.cpp:165] Memory required for data: 383697648
I0511 09:59:55.372177 32361 layer_factory.hpp:77] Creating layer fc7_3
I0511 09:59:55.372184 32361 net.cpp:106] Creating Layer fc7_3
I0511 09:59:55.372185 32361 net.cpp:454] fc7_3 <- fc6_3
I0511 09:59:55.372203 32361 net.cpp:411] fc7_3 -> fc7_3
I0511 09:59:55.374394 32361 net.cpp:150] Setting up fc7_3
I0511 09:59:55.374418 32361 net.cpp:157] Top shape: 1 1024 41 41 (1721344)
I0511 09:59:55.374420 32361 net.cpp:165] Memory required for data: 390583024
I0511 09:59:55.374428 32361 layer_factory.hpp:77] Creating layer relu7_3
I0511 09:59:55.374433 32361 net.cpp:106] Creating Layer relu7_3
I0511 09:59:55.374436 32361 net.cpp:454] relu7_3 <- fc7_3
I0511 09:59:55.374441 32361 net.cpp:397] relu7_3 -> fc7_3 (in-place)
I0511 09:59:55.374449 32361 net.cpp:150] Setting up relu7_3
I0511 09:59:55.374451 32361 net.cpp:157] Top shape: 1 1024 41 41 (1721344)
I0511 09:59:55.374454 32361 net.cpp:165] Memory required for data: 397468400
I0511 09:59:55.374455 32361 layer_factory.hpp:77] Creating layer drop7_3
I0511 09:59:55.374459 32361 net.cpp:106] Creating Layer drop7_3
I0511 09:59:55.374461 32361 net.cpp:454] drop7_3 <- fc7_3
I0511 09:59:55.374464 32361 net.cpp:397] drop7_3 -> fc7_3 (in-place)
I0511 09:59:55.374514 32361 net.cpp:150] Setting up drop7_3
I0511 09:59:55.374521 32361 net.cpp:157] Top shape: 1 1024 41 41 (1721344)
I0511 09:59:55.374536 32361 net.cpp:165] Memory required for data: 404353776
I0511 09:59:55.374538 32361 layer_factory.hpp:77] Creating layer fc8_nyu_3
I0511 09:59:55.374544 32361 net.cpp:106] Creating Layer fc8_nyu_3
I0511 09:59:55.374562 32361 net.cpp:454] fc8_nyu_3 <- fc7_3
I0511 09:59:55.374565 32361 net.cpp:411] fc8_nyu_3 -> fc8_nyu_3
I0511 09:59:55.375530 32361 net.cpp:150] Setting up fc8_nyu_3
I0511 09:59:55.375540 32361 net.cpp:157] Top shape: 1 459 41 41 (771579)
I0511 09:59:55.375542 32361 net.cpp:165] Memory required for data: 407440092
I0511 09:59:55.375547 32361 layer_factory.hpp:77] Creating layer fc6_4
I0511 09:59:55.375553 32361 net.cpp:106] Creating Layer fc6_4
I0511 09:59:55.375557 32361 net.cpp:454] fc6_4 <- pool5_pool5_0_split_3
I0511 09:59:55.375561 32361 net.cpp:411] fc6_4 -> fc6_4
I0511 09:59:55.383090 32361 net.cpp:150] Setting up fc6_4
I0511 09:59:55.383118 32361 net.cpp:157] Top shape: 1 1024 41 41 (1721344)
I0511 09:59:55.383122 32361 net.cpp:165] Memory required for data: 414325468
I0511 09:59:55.383129 32361 layer_factory.hpp:77] Creating layer relu6_4
I0511 09:59:55.383137 32361 net.cpp:106] Creating Layer relu6_4
I0511 09:59:55.383141 32361 net.cpp:454] relu6_4 <- fc6_4
I0511 09:59:55.383148 32361 net.cpp:397] relu6_4 -> fc6_4 (in-place)
I0511 09:59:55.383155 32361 net.cpp:150] Setting up relu6_4
I0511 09:59:55.383158 32361 net.cpp:157] Top shape: 1 1024 41 41 (1721344)
I0511 09:59:55.383160 32361 net.cpp:165] Memory required for data: 421210844
I0511 09:59:55.383163 32361 layer_factory.hpp:77] Creating layer drop6_4
I0511 09:59:55.383168 32361 net.cpp:106] Creating Layer drop6_4
I0511 09:59:55.383170 32361 net.cpp:454] drop6_4 <- fc6_4
I0511 09:59:55.383173 32361 net.cpp:397] drop6_4 -> fc6_4 (in-place)
I0511 09:59:55.383218 32361 net.cpp:150] Setting up drop6_4
I0511 09:59:55.383239 32361 net.cpp:157] Top shape: 1 1024 41 41 (1721344)
I0511 09:59:55.383240 32361 net.cpp:165] Memory required for data: 428096220
I0511 09:59:55.383242 32361 layer_factory.hpp:77] Creating layer fc7_4
I0511 09:59:55.383250 32361 net.cpp:106] Creating Layer fc7_4
I0511 09:59:55.383285 32361 net.cpp:454] fc7_4 <- fc6_4
I0511 09:59:55.383291 32361 net.cpp:411] fc7_4 -> fc7_4
I0511 09:59:55.384922 32361 net.cpp:150] Setting up fc7_4
I0511 09:59:55.384939 32361 net.cpp:157] Top shape: 1 1024 41 41 (1721344)
I0511 09:59:55.384943 32361 net.cpp:165] Memory required for data: 434981596
I0511 09:59:55.384948 32361 layer_factory.hpp:77] Creating layer relu7_4
I0511 09:59:55.384953 32361 net.cpp:106] Creating Layer relu7_4
I0511 09:59:55.384955 32361 net.cpp:454] relu7_4 <- fc7_4
I0511 09:59:55.384959 32361 net.cpp:397] relu7_4 -> fc7_4 (in-place)
I0511 09:59:55.384965 32361 net.cpp:150] Setting up relu7_4
I0511 09:59:55.384968 32361 net.cpp:157] Top shape: 1 1024 41 41 (1721344)
I0511 09:59:55.384970 32361 net.cpp:165] Memory required for data: 441866972
I0511 09:59:55.384973 32361 layer_factory.hpp:77] Creating layer drop7_4
I0511 09:59:55.384977 32361 net.cpp:106] Creating Layer drop7_4
I0511 09:59:55.384979 32361 net.cpp:454] drop7_4 <- fc7_4
I0511 09:59:55.384984 32361 net.cpp:397] drop7_4 -> fc7_4 (in-place)
I0511 09:59:55.385031 32361 net.cpp:150] Setting up drop7_4
I0511 09:59:55.385036 32361 net.cpp:157] Top shape: 1 1024 41 41 (1721344)
I0511 09:59:55.385051 32361 net.cpp:165] Memory required for data: 448752348
I0511 09:59:55.385053 32361 layer_factory.hpp:77] Creating layer fc8_nyu_4
I0511 09:59:55.385058 32361 net.cpp:106] Creating Layer fc8_nyu_4
I0511 09:59:55.385061 32361 net.cpp:454] fc8_nyu_4 <- fc7_4
I0511 09:59:55.385064 32361 net.cpp:411] fc8_nyu_4 -> fc8_nyu_4
I0511 09:59:55.385973 32361 net.cpp:150] Setting up fc8_nyu_4
I0511 09:59:55.385985 32361 net.cpp:157] Top shape: 1 459 41 41 (771579)
I0511 09:59:55.385988 32361 net.cpp:165] Memory required for data: 451838664
I0511 09:59:55.385993 32361 layer_factory.hpp:77] Creating layer fc8_nyu
I0511 09:59:55.386000 32361 net.cpp:106] Creating Layer fc8_nyu
I0511 09:59:55.386003 32361 net.cpp:454] fc8_nyu <- fc8_nyu_1
I0511 09:59:55.386006 32361 net.cpp:454] fc8_nyu <- fc8_nyu_2
I0511 09:59:55.386008 32361 net.cpp:454] fc8_nyu <- fc8_nyu_3
I0511 09:59:55.386011 32361 net.cpp:454] fc8_nyu <- fc8_nyu_4
I0511 09:59:55.386018 32361 net.cpp:411] fc8_nyu -> fc8_nyu
I0511 09:59:55.386056 32361 net.cpp:150] Setting up fc8_nyu
I0511 09:59:55.386060 32361 net.cpp:157] Top shape: 1 459 41 41 (771579)
I0511 09:59:55.386063 32361 net.cpp:165] Memory required for data: 454924980
I0511 09:59:55.386065 32361 layer_factory.hpp:77] Creating layer fc8_interp
I0511 09:59:55.386073 32361 net.cpp:106] Creating Layer fc8_interp
I0511 09:59:55.386090 32361 net.cpp:454] fc8_interp <- fc8_nyu
I0511 09:59:55.386095 32361 net.cpp:411] fc8_interp -> fc8_interp
I0511 09:59:55.386126 32361 net.cpp:150] Setting up fc8_interp
I0511 09:59:55.386145 32361 net.cpp:157] Top shape: 1 459 321 321 (47295819)
I0511 09:59:55.386147 32361 net.cpp:165] Memory required for data: 644108256
I0511 09:59:55.386150 32361 layer_factory.hpp:77] Creating layer fc8_mat
I0511 09:59:55.386168 32361 net.cpp:106] Creating Layer fc8_mat
I0511 09:59:55.386171 32361 net.cpp:454] fc8_mat <- fc8_interp
I0511 09:59:55.386770 32361 mat_write_layer.cpp:30] MatWrite will save a maximum of 1449 files.
I0511 09:59:55.386778 32361 net.cpp:150] Setting up fc8_mat
…
