…
I0507 11:18:08.680830  5117 caffe.cpp:241] GPU device name: GeForce GT 730
I0507 11:18:08.842697  5117 net.cpp:49] Initializing net from parameters: 
name: "deeplab_largeFOV"
state {
  phase: TEST
}
layer {
  name: "data"
  type: "ImageSegData"
  top: "data"
  top: "label"
  top: "data_dim"
  include {
    phase: TEST
  }
  transform_param {
    mirror: false
    crop_size: 10
    mean_value: 104.008
    mean_value: 116.669
    mean_value: 122.675
  }
  image_data_param {
    source: "../voc12/list/val.txt"
    batch_size: 1
    root_folder: "/home/king/Documents/image/VOC_aug/dataset/"
    label_type: NONE
  }
}
layer {
  name: "conv1_1"
  type: "Convolution"
  bottom: "data"
  top: "conv1_1"
  convolution_param {
    num_output: 64
    pad: 1
    kernel_size: 3
  }
}
layer {
  name: "relu1_1"
  type: "ReLU"
  bottom: "conv1_1"
  top: "conv1_1"
}
layer {
  name: "conv1_2"
  type: "Convolution"
  bottom: "conv1_1"
  top: "conv1_2"
  convolution_param {
    num_output: 64
    pad: 1
    kernel_size: 3
  }
}
layer {
  name: "relu1_2"
  type: "ReLU"
  bottom: "conv1_2"
  top: "conv1_2"
}
layer {
  name: "pool1"
  type: "Pooling"
  bottom: "conv1_2"
  top: "pool1"
  pooling_param {
    pool: MAX
    kernel_size: 3
    stride: 2
    pad: 1
  }
}
layer {
  name: "conv2_1"
  type: "Convolution"
  bottom: "pool1"
  top: "conv2_1"
  convolution_param {
    num_output: 128
    pad: 1
    kernel_size: 3
  }
}
layer {
  name: "relu2_1"
  type: "ReLU"
  bottom: "conv2_1"
  top: "conv2_1"
}
layer {
  name: "conv2_2"
  type: "Convolution"
  bottom: "conv2_1"
  top: "conv2_2"
  convolution_param {
    num_output: 128
    pad: 1
    kernel_size: 3
  }
}
layer {
  name: "relu2_2"
  type: "ReLU"
  bottom: "conv2_2"
  top: "conv2_2"
}
layer {
  name: "pool2"
  type: "Pooling"
  bottom: "conv2_2"
  top: "pool2"
  pooling_param {
    pool: MAX
    kernel_size: 3
    stride: 2
    pad: 1
  }
}
layer {
  name: "conv3_1"
  type: "Convolution"
  bottom: "pool2"
  top: "conv3_1"
  convolution_param {
    num_output: 256
    pad: 1
    kernel_size: 3
  }
}
layer {
  name: "relu3_1"
  type: "ReLU"
  bottom: "conv3_1"
  top: "conv3_1"
}
layer {
  name: "conv3_2"
  type: "Convolution"
  bottom: "conv3_1"
  top: "conv3_2"
  convolution_param {
    num_output: 256
    pad: 1
    kernel_size: 3
  }
}
layer {
  name: "relu3_2"
  type: "ReLU"
  bottom: "conv3_2"
  top: "conv3_2"
}
layer {
  name: "conv3_3"
  type: "Convolution"
  bottom: "conv3_2"
  top: "conv3_3"
  convolution_param {
    num_output: 256
    pad: 1
    kernel_size: 3
  }
}
layer {
  name: "relu3_3"
  type: "ReLU"
  bottom: "conv3_3"
  top: "conv3_3"
}
layer {
  name: "pool3"
  type: "Pooling"
  bottom: "conv3_3"
  top: "pool3"
  pooling_param {
    pool: MAX
    kernel_size: 3
    stride: 2
    pad: 1
  }
}
layer {
  name: "conv4_1"
  type: "Convolution"
  bottom: "pool3"
  top: "conv4_1"
  convolution_param {
    num_output: 512
    pad: 1
    kernel_size: 3
  }
}
layer {
  name: "relu4_1"
  type: "ReLU"
  bottom: "conv4_1"
  top: "conv4_1"
}
layer {
  name: "conv4_2"
  type: "Convolution"
  bottom: "conv4_1"
  top: "conv4_2"
  convolution_param {
    num_output: 512
    pad: 1
    kernel_size: 3
  }
}
layer {
  name: "relu4_2"
  type: "ReLU"
  bottom: "conv4_2"
  top: "conv4_2"
}
layer {
  name: "conv4_3"
  type: "Convolution"
  bottom: "conv4_2"
  top: "conv4_3"
  convolution_param {
    num_output: 512
    pad: 1
    kernel_size: 3
  }
}
layer {
  name: "relu4_3"
  type: "ReLU"
  bottom: "conv4_3"
  top: "conv4_3"
}
layer {
  name: "pool4"
  type: "Pooling"
  bottom: "conv4_3"
  top: "pool4"
  pooling_param {
    pool: MAX
    kernel_size: 3
    stride: 1
    pad: 1
  }
}
layer {
  name: "conv5_1"
  type: "Convolution"
  bottom: "pool4"
  top: "conv5_1"
  convolution_param {
    num_output: 512
    pad: 2
    kernel_size: 3
    dilation: 2
  }
}
layer {
  name: "relu5_1"
  type: "ReLU"
  bottom: "conv5_1"
  top: "conv5_1"
}
layer {
  name: "conv5_2"
  type: "Convolution"
  bottom: "conv5_1"
  top: "conv5_2"
  convolution_param {
    num_output: 512
    pad: 2
    kernel_size: 3
    dilation: 2
  }
}
layer {
  name: "relu5_2"
  type: "ReLU"
  bottom: "conv5_2"
  top: "conv5_2"
}
layer {
  name: "conv5_3"
  type: "Convolution"
  bottom: "conv5_2"
  top: "conv5_3"
  convolution_param {
    num_output: 512
    pad: 2
    kernel_size: 3
    dilation: 2
  }
}
layer {
  name: "relu5_3"
  type: "ReLU"
  bottom: "conv5_3"
  top: "conv5_3"
}
layer {
  name: "pool5"
  type: "Pooling"
  bottom: "conv5_3"
  top: "pool5"
  pooling_param {
    pool: MAX
    kernel_size: 3
    stride: 1
    pad: 1
  }
}
layer {
  name: "fc6_1"
  type: "Convolution"
  bottom: "pool5"
  top: "fc6_1"
  convolution_param {
    num_output: 1024
    pad: 6
    kernel_size: 3
    dilation: 6
  }
}
layer {
  name: "relu6_1"
  type: "ReLU"
  bottom: "fc6_1"
  top: "fc6_1"
}
layer {
  name: "drop6_1"
  type: "Dropout"
  bottom: "fc6_1"
  top: "fc6_1"
  dropout_param {
    dropout_ratio: 0.5
  }
}
layer {
  name: "fc7_1"
  type: "Convolution"
  bottom: "fc6_1"
  top: "fc7_1"
  convolution_param {
    num_output: 1024
    kernel_size: 1
  }
}
layer {
  name: "relu7_1"
  type: "ReLU"
  bottom: "fc7_1"
  top: "fc7_1"
}
layer {
  name: "drop7_1"
  type: "Dropout"
  bottom: "fc7_1"
  top: "fc7_1"
  dropout_param {
    dropout_ratio: 0.5
  }
}
layer {
  name: "fc8_voc12_1"
  type: "Convolution"
  bottom: "fc7_1"
  top: "fc8_voc12_1"
  convolution_param {
    num_output: 21
    kernel_size: 1
  }
}
layer {
  name: "fc6_2"
  type: "Convolution"
  bottom: "pool5"
  top: "fc6_2"
  convolution_param {
    num_output: 1024
    pad: 12
    kernel_size: 3
    dilation: 12
  }
}
layer {
  name: "relu6_2"
  type: "ReLU"
  bottom: "fc6_2"
  top: "fc6_2"
}
layer {
  name: "drop6_2"
  type: "Dropout"
  bottom: "fc6_2"
  top: "fc6_2"
  dropout_param {
    dropout_ratio: 0.5
  }
}
layer {
  name: "fc7_2"
  type: "Convolution"
  bottom: "fc6_2"
  top: "fc7_2"
  convolution_param {
    num_output: 1024
    kernel_size: 1
  }
}
layer {
  name: "relu7_2"
  type: "ReLU"
  bottom: "fc7_2"
  top: "fc7_2"
}
layer {
  name: "drop7_2"
  type: "Dropout"
  bottom: "fc7_2"
  top: "fc7_2"
  dropout_param {
    dropout_ratio: 0.5
  }
}
layer {
  name: "fc8_voc12_2"
  type: "Convolution"
  bottom: "fc7_2"
  top: "fc8_voc12_2"
  convolution_param {
    num_output: 21
    kernel_size: 1
  }
}
layer {
  name: "fc6_3"
  type: "Convolution"
  bottom: "pool5"
  top: "fc6_3"
  convolution_param {
    num_output: 1024
    pad: 18
    kernel_size: 3
    dilation: 18
  }
}
layer {
  name: "relu6_3"
  type: "ReLU"
  bottom: "fc6_3"
  top: "fc6_3"
}
layer {
  name: "drop6_3"
  type: "Dropout"
  bottom: "fc6_3"
  top: "fc6_3"
  dropout_param {
    dropout_ratio: 0.5
  }
}
layer {
  name: "fc7_3"
  type: "Convolution"
  bottom: "fc6_3"
  top: "fc7_3"
  convolution_param {
    num_output: 1024
    kernel_size: 1
  }
}
layer {
  name: "relu7_3"
  type: "ReLU"
  bottom: "fc7_3"
  top: "fc7_3"
}
layer {
  name: "drop7_3"
  type: "Dropout"
  bottom: "fc7_3"
  top: "fc7_3"
  dropout_param {
    dropout_ratio: 0.5
  }
}
layer {
  name: "fc8_voc12_3"
  type: "Convolution"
  bottom: "fc7_3"
  top: "fc8_voc12_3"
  convolution_param {
    num_output: 21
    kernel_size: 1
  }
}
layer {
  name: "fc6_4"
  type: "Convolution"
  bottom: "pool5"
  top: "fc6_4"
  convolution_param {
    num_output: 1024
    pad: 24
    kernel_size: 3
    dilation: 24
  }
}
layer {
  name: "relu6_4"
  type: "ReLU"
  bottom: "fc6_4"
  top: "fc6_4"
}
layer {
  name: "drop6_4"
  type: "Dropout"
  bottom: "fc6_4"
  top: "fc6_4"
  dropout_param {
    dropout_ratio: 0.5
  }
}
layer {
  name: "fc7_4"
  type: "Convolution"
  bottom: "fc6_4"
  top: "fc7_4"
  convolution_param {
    num_output: 1024
    kernel_size: 1
  }
}
layer {
  name: "relu7_4"
  type: "ReLU"
  bottom: "fc7_4"
  top: "fc7_4"
}
layer {
  name: "drop7_4"
  type: "Dropout"
  bottom: "fc7_4"
  top: "fc7_4"
  dropout_param {
    dropout_ratio: 0.5
  }
}
layer {
  name: "fc8_voc12_4"
  type: "Convolution"
  bottom: "fc7_4"
  top: "fc8_voc12_4"
  convolution_param {
    num_output: 21
    kernel_size: 1
  }
}
layer {
  name: "fc8_voc12"
  type: "Eltwise"
  bottom: "fc8_voc12_1"
  bottom: "fc8_voc12_2"
  bottom: "fc8_voc12_3"
  bottom: "fc8_voc12_4"
  top: "fc8_voc12"
  eltwise_param {
    operation: SUM
  }
}
layer {
  name: "fc8_interp"
  type: "Interp"
  bottom: "fc8_voc12"
  top: "fc8_interp"
  interp_param {
    zoom_factor: 8
  }
}
layer {
  name: "fc8_mat"
  type: "MatWrite"
  bottom: "fc8_interp"
  include {
    phase: TEST
  }
  mat_write_param {
    prefix: "./features/deeplab_largeFOV/val/fc8/"
    source: "../voc12/list/val_id.txt"
    strip: 0
    period: 1
  }
}
layer {
  name: "silence"
  type: "Silence"
  bottom: "label"
  bottom: "data_dim"
}
I0507 11:18:08.842911  5117 layer_factory.hpp:77] Creating layer data
I0507 11:18:08.842936  5117 net.cpp:106] Creating Layer data
I0507 11:18:08.842943  5117 net.cpp:411] data -> data
I0507 11:18:08.842972  5117 net.cpp:411] data -> label
I0507 11:18:08.842978  5117 net.cpp:411] data -> data_dim
I0507 11:18:08.842985  5117 image_seg_data_layer.cpp:46] Opening file ../voc12/list/val.txt
I0507 11:18:08.844044  5117 image_seg_data_layer.cpp:68] A total of 1449 images.
I0507 11:18:08.855715  5117 image_seg_data_layer.cpp:137] output data size: 1,3,10,10
I0507 11:18:08.855731  5117 image_seg_data_layer.cpp:141] output label size: 1,1,10,10
I0507 11:18:08.855733  5117 image_seg_data_layer.cpp:145] output data_dim size: 1,1,1,2
I0507 11:18:08.857324  5117 net.cpp:150] Setting up data
I0507 11:18:08.857340  5117 net.cpp:157] Top shape: 1 3 10 10 (300)
I0507 11:18:08.857344  5117 net.cpp:157] Top shape: 1 1 10 10 (100)
I0507 11:18:08.857347  5117 net.cpp:157] Top shape: 1 1 1 2 (2)
I0507 11:18:08.857349  5117 net.cpp:165] Memory required for data: 1608
I0507 11:18:08.857372  5117 layer_factory.hpp:77] Creating layer conv1_1
I0507 11:18:08.857403  5117 net.cpp:106] Creating Layer conv1_1
I0507 11:18:08.857409  5117 net.cpp:454] conv1_1 <- data
I0507 11:18:08.857436  5117 net.cpp:411] conv1_1 -> conv1_1
I0507 11:18:09.183624  5117 net.cpp:150] Setting up conv1_1
I0507 11:18:09.183650  5117 net.cpp:157] Top shape: 1 64 10 10 (6400)
I0507 11:18:09.183652  5117 net.cpp:165] Memory required for data: 27208
I0507 11:18:09.183667  5117 layer_factory.hpp:77] Creating layer relu1_1
I0507 11:18:09.183678  5117 net.cpp:106] Creating Layer relu1_1
I0507 11:18:09.183681  5117 net.cpp:454] relu1_1 <- conv1_1
I0507 11:18:09.183686  5117 net.cpp:397] relu1_1 -> conv1_1 (in-place)
I0507 11:18:09.183979  5117 net.cpp:150] Setting up relu1_1
I0507 11:18:09.183986  5117 net.cpp:157] Top shape: 1 64 10 10 (6400)
I0507 11:18:09.183989  5117 net.cpp:165] Memory required for data: 52808
I0507 11:18:09.183991  5117 layer_factory.hpp:77] Creating layer conv1_2
I0507 11:18:09.184000  5117 net.cpp:106] Creating Layer conv1_2
I0507 11:18:09.184002  5117 net.cpp:454] conv1_2 <- conv1_1
I0507 11:18:09.184007  5117 net.cpp:411] conv1_2 -> conv1_2
I0507 11:18:09.185793  5117 net.cpp:150] Setting up conv1_2
I0507 11:18:09.185803  5117 net.cpp:157] Top shape: 1 64 10 10 (6400)
I0507 11:18:09.185806  5117 net.cpp:165] Memory required for data: 78408
I0507 11:18:09.185812  5117 layer_factory.hpp:77] Creating layer relu1_2
I0507 11:18:09.185818  5117 net.cpp:106] Creating Layer relu1_2
I0507 11:18:09.185822  5117 net.cpp:454] relu1_2 <- conv1_2
I0507 11:18:09.185825  5117 net.cpp:397] relu1_2 -> conv1_2 (in-place)
I0507 11:18:09.186239  5117 net.cpp:150] Setting up relu1_2
I0507 11:18:09.186247  5117 net.cpp:157] Top shape: 1 64 10 10 (6400)
I0507 11:18:09.186249  5117 net.cpp:165] Memory required for data: 104008
I0507 11:18:09.186252  5117 layer_factory.hpp:77] Creating layer pool1
I0507 11:18:09.186257  5117 net.cpp:106] Creating Layer pool1
I0507 11:18:09.186260  5117 net.cpp:454] pool1 <- conv1_2
I0507 11:18:09.186264  5117 net.cpp:411] pool1 -> pool1
I0507 11:18:09.186311  5117 net.cpp:150] Setting up pool1
I0507 11:18:09.186317  5117 net.cpp:157] Top shape: 1 64 6 6 (2304)
I0507 11:18:09.186332  5117 net.cpp:165] Memory required for data: 113224
I0507 11:18:09.186334  5117 layer_factory.hpp:77] Creating layer conv2_1
I0507 11:18:09.186355  5117 net.cpp:106] Creating Layer conv2_1
I0507 11:18:09.186383  5117 net.cpp:454] conv2_1 <- pool1
I0507 11:18:09.186388  5117 net.cpp:411] conv2_1 -> conv2_1
I0507 11:18:09.188032  5117 net.cpp:150] Setting up conv2_1
I0507 11:18:09.188043  5117 net.cpp:157] Top shape: 1 128 6 6 (4608)
I0507 11:18:09.188046  5117 net.cpp:165] Memory required for data: 131656
I0507 11:18:09.188053  5117 layer_factory.hpp:77] Creating layer relu2_1
I0507 11:18:09.188057  5117 net.cpp:106] Creating Layer relu2_1
I0507 11:18:09.188060  5117 net.cpp:454] relu2_1 <- conv2_1
I0507 11:18:09.188066  5117 net.cpp:397] relu2_1 -> conv2_1 (in-place)
I0507 11:18:09.188477  5117 net.cpp:150] Setting up relu2_1
I0507 11:18:09.188484  5117 net.cpp:157] Top shape: 1 128 6 6 (4608)
I0507 11:18:09.188488  5117 net.cpp:165] Memory required for data: 150088
I0507 11:18:09.188489  5117 layer_factory.hpp:77] Creating layer conv2_2
I0507 11:18:09.188495  5117 net.cpp:106] Creating Layer conv2_2
I0507 11:18:09.188498  5117 net.cpp:454] conv2_2 <- conv2_1
I0507 11:18:09.188503  5117 net.cpp:411] conv2_2 -> conv2_2
I0507 11:18:09.190001  5117 net.cpp:150] Setting up conv2_2
I0507 11:18:09.190011  5117 net.cpp:157] Top shape: 1 128 6 6 (4608)
I0507 11:18:09.190013  5117 net.cpp:165] Memory required for data: 168520
I0507 11:18:09.190018  5117 layer_factory.hpp:77] Creating layer relu2_2
I0507 11:18:09.190022  5117 net.cpp:106] Creating Layer relu2_2
I0507 11:18:09.190024  5117 net.cpp:454] relu2_2 <- conv2_2
I0507 11:18:09.190028  5117 net.cpp:397] relu2_2 -> conv2_2 (in-place)
I0507 11:18:09.190444  5117 net.cpp:150] Setting up relu2_2
I0507 11:18:09.190454  5117 net.cpp:157] Top shape: 1 128 6 6 (4608)
I0507 11:18:09.190455  5117 net.cpp:165] Memory required for data: 186952
I0507 11:18:09.190459  5117 layer_factory.hpp:77] Creating layer pool2
I0507 11:18:09.190462  5117 net.cpp:106] Creating Layer pool2
I0507 11:18:09.190465  5117 net.cpp:454] pool2 <- conv2_2
I0507 11:18:09.190469  5117 net.cpp:411] pool2 -> pool2
I0507 11:18:09.190516  5117 net.cpp:150] Setting up pool2
I0507 11:18:09.190536  5117 net.cpp:157] Top shape: 1 128 4 4 (2048)
I0507 11:18:09.190537  5117 net.cpp:165] Memory required for data: 195144
I0507 11:18:09.190541  5117 layer_factory.hpp:77] Creating layer conv3_1
I0507 11:18:09.190559  5117 net.cpp:106] Creating Layer conv3_1
I0507 11:18:09.190562  5117 net.cpp:454] conv3_1 <- pool2
I0507 11:18:09.190567  5117 net.cpp:411] conv3_1 -> conv3_1
I0507 11:18:09.192363  5117 net.cpp:150] Setting up conv3_1
I0507 11:18:09.192374  5117 net.cpp:157] Top shape: 1 256 4 4 (4096)
I0507 11:18:09.192378  5117 net.cpp:165] Memory required for data: 211528
I0507 11:18:09.192384  5117 layer_factory.hpp:77] Creating layer relu3_1
I0507 11:18:09.192389  5117 net.cpp:106] Creating Layer relu3_1
I0507 11:18:09.192391  5117 net.cpp:454] relu3_1 <- conv3_1
I0507 11:18:09.192396  5117 net.cpp:397] relu3_1 -> conv3_1 (in-place)
I0507 11:18:09.192802  5117 net.cpp:150] Setting up relu3_1
I0507 11:18:09.192811  5117 net.cpp:157] Top shape: 1 256 4 4 (4096)
I0507 11:18:09.192813  5117 net.cpp:165] Memory required for data: 227912
I0507 11:18:09.192816  5117 layer_factory.hpp:77] Creating layer conv3_2
I0507 11:18:09.192821  5117 net.cpp:106] Creating Layer conv3_2
I0507 11:18:09.192824  5117 net.cpp:454] conv3_2 <- conv3_1
I0507 11:18:09.192829  5117 net.cpp:411] conv3_2 -> conv3_2
I0507 11:18:09.194970  5117 net.cpp:150] Setting up conv3_2
I0507 11:18:09.194985  5117 net.cpp:157] Top shape: 1 256 4 4 (4096)
I0507 11:18:09.194988  5117 net.cpp:165] Memory required for data: 244296
I0507 11:18:09.194993  5117 layer_factory.hpp:77] Creating layer relu3_2
I0507 11:18:09.195014  5117 net.cpp:106] Creating Layer relu3_2
I0507 11:18:09.195017  5117 net.cpp:454] relu3_2 <- conv3_2
I0507 11:18:09.195022  5117 net.cpp:397] relu3_2 -> conv3_2 (in-place)
I0507 11:18:09.195299  5117 net.cpp:150] Setting up relu3_2
I0507 11:18:09.195307  5117 net.cpp:157] Top shape: 1 256 4 4 (4096)
I0507 11:18:09.195310  5117 net.cpp:165] Memory required for data: 260680
I0507 11:18:09.195312  5117 layer_factory.hpp:77] Creating layer conv3_3
I0507 11:18:09.195340  5117 net.cpp:106] Creating Layer conv3_3
I0507 11:18:09.195358  5117 net.cpp:454] conv3_3 <- conv3_2
I0507 11:18:09.195363  5117 net.cpp:411] conv3_3 -> conv3_3
I0507 11:18:09.198236  5117 net.cpp:150] Setting up conv3_3
I0507 11:18:09.198258  5117 net.cpp:157] Top shape: 1 256 4 4 (4096)
I0507 11:18:09.198261  5117 net.cpp:165] Memory required for data: 277064
I0507 11:18:09.198283  5117 layer_factory.hpp:77] Creating layer relu3_3
I0507 11:18:09.198294  5117 net.cpp:106] Creating Layer relu3_3
I0507 11:18:09.198298  5117 net.cpp:454] relu3_3 <- conv3_3
I0507 11:18:09.198305  5117 net.cpp:397] relu3_3 -> conv3_3 (in-place)
I0507 11:18:09.198849  5117 net.cpp:150] Setting up relu3_3
I0507 11:18:09.198860  5117 net.cpp:157] Top shape: 1 256 4 4 (4096)
I0507 11:18:09.198863  5117 net.cpp:165] Memory required for data: 293448
I0507 11:18:09.198866  5117 layer_factory.hpp:77] Creating layer pool3
I0507 11:18:09.198909  5117 net.cpp:106] Creating Layer pool3
I0507 11:18:09.198913  5117 net.cpp:454] pool3 <- conv3_3
I0507 11:18:09.198918  5117 net.cpp:411] pool3 -> pool3
I0507 11:18:09.198972  5117 net.cpp:150] Setting up pool3
I0507 11:18:09.198977  5117 net.cpp:157] Top shape: 1 256 3 3 (2304)
I0507 11:18:09.198979  5117 net.cpp:165] Memory required for data: 302664
I0507 11:18:09.198982  5117 layer_factory.hpp:77] Creating layer conv4_1
I0507 11:18:09.198992  5117 net.cpp:106] Creating Layer conv4_1
I0507 11:18:09.198993  5117 net.cpp:454] conv4_1 <- pool3
I0507 11:18:09.198998  5117 net.cpp:411] conv4_1 -> conv4_1
I0507 11:18:09.202201  5117 net.cpp:150] Setting up conv4_1
I0507 11:18:09.202226  5117 net.cpp:157] Top shape: 1 512 3 3 (4608)
I0507 11:18:09.202229  5117 net.cpp:165] Memory required for data: 321096
I0507 11:18:09.202239  5117 layer_factory.hpp:77] Creating layer relu4_1
I0507 11:18:09.202265  5117 net.cpp:106] Creating Layer relu4_1
I0507 11:18:09.202270  5117 net.cpp:454] relu4_1 <- conv4_1
I0507 11:18:09.202276  5117 net.cpp:397] relu4_1 -> conv4_1 (in-place)
I0507 11:18:09.202687  5117 net.cpp:150] Setting up relu4_1
I0507 11:18:09.202697  5117 net.cpp:157] Top shape: 1 512 3 3 (4608)
I0507 11:18:09.202700  5117 net.cpp:165] Memory required for data: 339528
I0507 11:18:09.202703  5117 layer_factory.hpp:77] Creating layer conv4_2
I0507 11:18:09.202709  5117 net.cpp:106] Creating Layer conv4_2
I0507 11:18:09.202728  5117 net.cpp:454] conv4_2 <- conv4_1
I0507 11:18:09.202733  5117 net.cpp:411] conv4_2 -> conv4_2
I0507 11:18:09.207900  5117 net.cpp:150] Setting up conv4_2
I0507 11:18:09.207926  5117 net.cpp:157] Top shape: 1 512 3 3 (4608)
I0507 11:18:09.207928  5117 net.cpp:165] Memory required for data: 357960
I0507 11:18:09.207957  5117 layer_factory.hpp:77] Creating layer relu4_2
I0507 11:18:09.207979  5117 net.cpp:106] Creating Layer relu4_2
I0507 11:18:09.207983  5117 net.cpp:454] relu4_2 <- conv4_2
I0507 11:18:09.207989  5117 net.cpp:397] relu4_2 -> conv4_2 (in-place)
I0507 11:18:09.208480  5117 net.cpp:150] Setting up relu4_2
I0507 11:18:09.208489  5117 net.cpp:157] Top shape: 1 512 3 3 (4608)
I0507 11:18:09.208492  5117 net.cpp:165] Memory required for data: 376392
I0507 11:18:09.208494  5117 layer_factory.hpp:77] Creating layer conv4_3
I0507 11:18:09.208518  5117 net.cpp:106] Creating Layer conv4_3
I0507 11:18:09.208519  5117 net.cpp:454] conv4_3 <- conv4_2
I0507 11:18:09.208525  5117 net.cpp:411] conv4_3 -> conv4_3
I0507 11:18:09.214362  5117 net.cpp:150] Setting up conv4_3
I0507 11:18:09.214386  5117 net.cpp:157] Top shape: 1 512 3 3 (4608)
I0507 11:18:09.214390  5117 net.cpp:165] Memory required for data: 394824
I0507 11:18:09.214411  5117 layer_factory.hpp:77] Creating layer relu4_3
I0507 11:18:09.214433  5117 net.cpp:106] Creating Layer relu4_3
I0507 11:18:09.214438  5117 net.cpp:454] relu4_3 <- conv4_3
I0507 11:18:09.214447  5117 net.cpp:397] relu4_3 -> conv4_3 (in-place)
I0507 11:18:09.215113  5117 net.cpp:150] Setting up relu4_3
I0507 11:18:09.215126  5117 net.cpp:157] Top shape: 1 512 3 3 (4608)
I0507 11:18:09.215129  5117 net.cpp:165] Memory required for data: 413256
I0507 11:18:09.215157  5117 layer_factory.hpp:77] Creating layer pool4
I0507 11:18:09.215164  5117 net.cpp:106] Creating Layer pool4
I0507 11:18:09.215167  5117 net.cpp:454] pool4 <- conv4_3
I0507 11:18:09.215173  5117 net.cpp:411] pool4 -> pool4
I0507 11:18:09.215257  5117 net.cpp:150] Setting up pool4
I0507 11:18:09.215262  5117 net.cpp:157] Top shape: 1 512 3 3 (4608)
I0507 11:18:09.215265  5117 net.cpp:165] Memory required for data: 431688
I0507 11:18:09.215267  5117 layer_factory.hpp:77] Creating layer conv5_1
I0507 11:18:09.215273  5117 net.cpp:106] Creating Layer conv5_1
I0507 11:18:09.215288  5117 net.cpp:454] conv5_1 <- pool4
I0507 11:18:09.215293  5117 net.cpp:411] conv5_1 -> conv5_1
I0507 11:18:09.219135  5117 net.cpp:150] Setting up conv5_1
I0507 11:18:09.219164  5117 net.cpp:157] Top shape: 1 512 3 3 (4608)
I0507 11:18:09.219167  5117 net.cpp:165] Memory required for data: 450120
I0507 11:18:09.219174  5117 layer_factory.hpp:77] Creating layer relu5_1
I0507 11:18:09.219182  5117 net.cpp:106] Creating Layer relu5_1
I0507 11:18:09.219184  5117 net.cpp:454] relu5_1 <- conv5_1
I0507 11:18:09.219192  5117 net.cpp:397] relu5_1 -> conv5_1 (in-place)
I0507 11:18:09.219763  5117 net.cpp:150] Setting up relu5_1
I0507 11:18:09.219772  5117 net.cpp:157] Top shape: 1 512 3 3 (4608)
I0507 11:18:09.219775  5117 net.cpp:165] Memory required for data: 468552
I0507 11:18:09.219777  5117 layer_factory.hpp:77] Creating layer conv5_2
I0507 11:18:09.219784  5117 net.cpp:106] Creating Layer conv5_2
I0507 11:18:09.219787  5117 net.cpp:454] conv5_2 <- conv5_1
I0507 11:18:09.219791  5117 net.cpp:411] conv5_2 -> conv5_2
I0507 11:18:09.223454  5117 net.cpp:150] Setting up conv5_2
I0507 11:18:09.223482  5117 net.cpp:157] Top shape: 1 512 3 3 (4608)
I0507 11:18:09.223485  5117 net.cpp:165] Memory required for data: 486984
I0507 11:18:09.223492  5117 layer_factory.hpp:77] Creating layer relu5_2
I0507 11:18:09.223500  5117 net.cpp:106] Creating Layer relu5_2
I0507 11:18:09.223502  5117 net.cpp:454] relu5_2 <- conv5_2
I0507 11:18:09.223510  5117 net.cpp:397] relu5_2 -> conv5_2 (in-place)
I0507 11:18:09.224082  5117 net.cpp:150] Setting up relu5_2
I0507 11:18:09.224092  5117 net.cpp:157] Top shape: 1 512 3 3 (4608)
I0507 11:18:09.224094  5117 net.cpp:165] Memory required for data: 505416
I0507 11:18:09.224097  5117 layer_factory.hpp:77] Creating layer conv5_3
I0507 11:18:09.224104  5117 net.cpp:106] Creating Layer conv5_3
I0507 11:18:09.224107  5117 net.cpp:454] conv5_3 <- conv5_2
I0507 11:18:09.224112  5117 net.cpp:411] conv5_3 -> conv5_3
I0507 11:18:09.227890  5117 net.cpp:150] Setting up conv5_3
I0507 11:18:09.227917  5117 net.cpp:157] Top shape: 1 512 3 3 (4608)
I0507 11:18:09.227921  5117 net.cpp:165] Memory required for data: 523848
I0507 11:18:09.227927  5117 layer_factory.hpp:77] Creating layer relu5_3
I0507 11:18:09.227934  5117 net.cpp:106] Creating Layer relu5_3
I0507 11:18:09.227937  5117 net.cpp:454] relu5_3 <- conv5_3
I0507 11:18:09.227946  5117 net.cpp:397] relu5_3 -> conv5_3 (in-place)
I0507 11:18:09.228323  5117 net.cpp:150] Setting up relu5_3
I0507 11:18:09.228332  5117 net.cpp:157] Top shape: 1 512 3 3 (4608)
I0507 11:18:09.228333  5117 net.cpp:165] Memory required for data: 542280
I0507 11:18:09.228335  5117 layer_factory.hpp:77] Creating layer pool5
I0507 11:18:09.228340  5117 net.cpp:106] Creating Layer pool5
I0507 11:18:09.228343  5117 net.cpp:454] pool5 <- conv5_3
I0507 11:18:09.228348  5117 net.cpp:411] pool5 -> pool5
I0507 11:18:09.228399  5117 net.cpp:150] Setting up pool5
I0507 11:18:09.228416  5117 net.cpp:157] Top shape: 1 512 3 3 (4608)
I0507 11:18:09.228420  5117 net.cpp:165] Memory required for data: 560712
I0507 11:18:09.228421  5117 layer_factory.hpp:77] Creating layer pool5_pool5_0_split
I0507 11:18:09.228446  5117 net.cpp:106] Creating Layer pool5_pool5_0_split
I0507 11:18:09.228449  5117 net.cpp:454] pool5_pool5_0_split <- pool5
I0507 11:18:09.228466  5117 net.cpp:411] pool5_pool5_0_split -> pool5_pool5_0_split_0
I0507 11:18:09.228471  5117 net.cpp:411] pool5_pool5_0_split -> pool5_pool5_0_split_1
I0507 11:18:09.228504  5117 net.cpp:411] pool5_pool5_0_split -> pool5_pool5_0_split_2
I0507 11:18:09.228520  5117 net.cpp:411] pool5_pool5_0_split -> pool5_pool5_0_split_3
I0507 11:18:09.228596  5117 net.cpp:150] Setting up pool5_pool5_0_split
I0507 11:18:09.228615  5117 net.cpp:157] Top shape: 1 512 3 3 (4608)
I0507 11:18:09.228617  5117 net.cpp:157] Top shape: 1 512 3 3 (4608)
I0507 11:18:09.228621  5117 net.cpp:157] Top shape: 1 512 3 3 (4608)
I0507 11:18:09.228622  5117 net.cpp:157] Top shape: 1 512 3 3 (4608)
I0507 11:18:09.228626  5117 net.cpp:165] Memory required for data: 634440
I0507 11:18:09.228627  5117 layer_factory.hpp:77] Creating layer fc6_1
I0507 11:18:09.228633  5117 net.cpp:106] Creating Layer fc6_1
I0507 11:18:09.228636  5117 net.cpp:454] fc6_1 <- pool5_pool5_0_split_0
I0507 11:18:09.228641  5117 net.cpp:411] fc6_1 -> fc6_1
I0507 11:18:09.236003  5117 net.cpp:150] Setting up fc6_1
I0507 11:18:09.236032  5117 net.cpp:157] Top shape: 1 1024 3 3 (9216)
I0507 11:18:09.236035  5117 net.cpp:165] Memory required for data: 671304
I0507 11:18:09.236043  5117 layer_factory.hpp:77] Creating layer relu6_1
I0507 11:18:09.236049  5117 net.cpp:106] Creating Layer relu6_1
I0507 11:18:09.236053  5117 net.cpp:454] relu6_1 <- fc6_1
I0507 11:18:09.236060  5117 net.cpp:397] relu6_1 -> fc6_1 (in-place)
I0507 11:18:09.236677  5117 net.cpp:150] Setting up relu6_1
I0507 11:18:09.236686  5117 net.cpp:157] Top shape: 1 1024 3 3 (9216)
I0507 11:18:09.236688  5117 net.cpp:165] Memory required for data: 708168
I0507 11:18:09.236691  5117 layer_factory.hpp:77] Creating layer drop6_1
I0507 11:18:09.236698  5117 net.cpp:106] Creating Layer drop6_1
I0507 11:18:09.236701  5117 net.cpp:454] drop6_1 <- fc6_1
I0507 11:18:09.236706  5117 net.cpp:397] drop6_1 -> fc6_1 (in-place)
I0507 11:18:09.236730  5117 net.cpp:150] Setting up drop6_1
I0507 11:18:09.236750  5117 net.cpp:157] Top shape: 1 1024 3 3 (9216)
I0507 11:18:09.236752  5117 net.cpp:165] Memory required for data: 745032
I0507 11:18:09.236754  5117 layer_factory.hpp:77] Creating layer fc7_1
I0507 11:18:09.236774  5117 net.cpp:106] Creating Layer fc7_1
I0507 11:18:09.236778  5117 net.cpp:454] fc7_1 <- fc6_1
I0507 11:18:09.236781  5117 net.cpp:411] fc7_1 -> fc7_1
I0507 11:18:09.239579  5117 net.cpp:150] Setting up fc7_1
I0507 11:18:09.239603  5117 net.cpp:157] Top shape: 1 1024 3 3 (9216)
I0507 11:18:09.239608  5117 net.cpp:165] Memory required for data: 781896
I0507 11:18:09.239614  5117 layer_factory.hpp:77] Creating layer relu7_1
I0507 11:18:09.239620  5117 net.cpp:106] Creating Layer relu7_1
I0507 11:18:09.239624  5117 net.cpp:454] relu7_1 <- fc7_1
I0507 11:18:09.239629  5117 net.cpp:397] relu7_1 -> fc7_1 (in-place)
I0507 11:18:09.240041  5117 net.cpp:150] Setting up relu7_1
I0507 11:18:09.240049  5117 net.cpp:157] Top shape: 1 1024 3 3 (9216)
I0507 11:18:09.240052  5117 net.cpp:165] Memory required for data: 818760
I0507 11:18:09.240056  5117 layer_factory.hpp:77] Creating layer drop7_1
I0507 11:18:09.240061  5117 net.cpp:106] Creating Layer drop7_1
I0507 11:18:09.240063  5117 net.cpp:454] drop7_1 <- fc7_1
I0507 11:18:09.240067  5117 net.cpp:397] drop7_1 -> fc7_1 (in-place)
I0507 11:18:09.240088  5117 net.cpp:150] Setting up drop7_1
I0507 11:18:09.240093  5117 net.cpp:157] Top shape: 1 1024 3 3 (9216)
I0507 11:18:09.240095  5117 net.cpp:165] Memory required for data: 855624
I0507 11:18:09.240113  5117 layer_factory.hpp:77] Creating layer fc8_voc12_1
I0507 11:18:09.240119  5117 net.cpp:106] Creating Layer fc8_voc12_1
I0507 11:18:09.240123  5117 net.cpp:454] fc8_voc12_1 <- fc7_1
I0507 11:18:09.240126  5117 net.cpp:411] fc8_voc12_1 -> fc8_voc12_1
I0507 11:18:09.241417  5117 net.cpp:150] Setting up fc8_voc12_1
I0507 11:18:09.241427  5117 net.cpp:157] Top shape: 1 21 3 3 (189)
I0507 11:18:09.241430  5117 net.cpp:165] Memory required for data: 856380
I0507 11:18:09.241434  5117 layer_factory.hpp:77] Creating layer fc6_2
I0507 11:18:09.241439  5117 net.cpp:106] Creating Layer fc6_2
I0507 11:18:09.241442  5117 net.cpp:454] fc6_2 <- pool5_pool5_0_split_1
I0507 11:18:09.241447  5117 net.cpp:411] fc6_2 -> fc6_2
I0507 11:18:09.251432  5117 net.cpp:150] Setting up fc6_2
I0507 11:18:09.251457  5117 net.cpp:157] Top shape: 1 1024 3 3 (9216)
I0507 11:18:09.251461  5117 net.cpp:165] Memory required for data: 893244
I0507 11:18:09.251474  5117 layer_factory.hpp:77] Creating layer relu6_2
I0507 11:18:09.251482  5117 net.cpp:106] Creating Layer relu6_2
I0507 11:18:09.251487  5117 net.cpp:454] relu6_2 <- fc6_2
I0507 11:18:09.251493  5117 net.cpp:397] relu6_2 -> fc6_2 (in-place)
I0507 11:18:09.252061  5117 net.cpp:150] Setting up relu6_2
I0507 11:18:09.252070  5117 net.cpp:157] Top shape: 1 1024 3 3 (9216)
I0507 11:18:09.252073  5117 net.cpp:165] Memory required for data: 930108
I0507 11:18:09.252075  5117 layer_factory.hpp:77] Creating layer drop6_2
I0507 11:18:09.252080  5117 net.cpp:106] Creating Layer drop6_2
I0507 11:18:09.252082  5117 net.cpp:454] drop6_2 <- fc6_2
I0507 11:18:09.252087  5117 net.cpp:397] drop6_2 -> fc6_2 (in-place)
I0507 11:18:09.252108  5117 net.cpp:150] Setting up drop6_2
I0507 11:18:09.252113  5117 net.cpp:157] Top shape: 1 1024 3 3 (9216)
I0507 11:18:09.252115  5117 net.cpp:165] Memory required for data: 966972
I0507 11:18:09.252132  5117 layer_factory.hpp:77] Creating layer fc7_2
I0507 11:18:09.252140  5117 net.cpp:106] Creating Layer fc7_2
I0507 11:18:09.252146  5117 net.cpp:454] fc7_2 <- fc6_2
I0507 11:18:09.252149  5117 net.cpp:411] fc7_2 -> fc7_2
I0507 11:18:09.254950  5117 net.cpp:150] Setting up fc7_2
I0507 11:18:09.254972  5117 net.cpp:157] Top shape: 1 1024 3 3 (9216)
I0507 11:18:09.254976  5117 net.cpp:165] Memory required for data: 1003836
I0507 11:18:09.254982  5117 layer_factory.hpp:77] Creating layer relu7_2
I0507 11:18:09.254990  5117 net.cpp:106] Creating Layer relu7_2
I0507 11:18:09.254994  5117 net.cpp:454] relu7_2 <- fc7_2
I0507 11:18:09.255000  5117 net.cpp:397] relu7_2 -> fc7_2 (in-place)
I0507 11:18:09.255300  5117 net.cpp:150] Setting up relu7_2
I0507 11:18:09.255306  5117 net.cpp:157] Top shape: 1 1024 3 3 (9216)
I0507 11:18:09.255309  5117 net.cpp:165] Memory required for data: 1040700
I0507 11:18:09.255312  5117 layer_factory.hpp:77] Creating layer drop7_2
I0507 11:18:09.255316  5117 net.cpp:106] Creating Layer drop7_2
I0507 11:18:09.255319  5117 net.cpp:454] drop7_2 <- fc7_2
I0507 11:18:09.255322  5117 net.cpp:397] drop7_2 -> fc7_2 (in-place)
I0507 11:18:09.255344  5117 net.cpp:150] Setting up drop7_2
I0507 11:18:09.255349  5117 net.cpp:157] Top shape: 1 1024 3 3 (9216)
I0507 11:18:09.255352  5117 net.cpp:165] Memory required for data: 1077564
I0507 11:18:09.255368  5117 layer_factory.hpp:77] Creating layer fc8_voc12_2
I0507 11:18:09.255375  5117 net.cpp:106] Creating Layer fc8_voc12_2
I0507 11:18:09.255378  5117 net.cpp:454] fc8_voc12_2 <- fc7_2
I0507 11:18:09.255383  5117 net.cpp:411] fc8_voc12_2 -> fc8_voc12_2
I0507 11:18:09.256906  5117 net.cpp:150] Setting up fc8_voc12_2
I0507 11:18:09.256916  5117 net.cpp:157] Top shape: 1 21 3 3 (189)
I0507 11:18:09.256918  5117 net.cpp:165] Memory required for data: 1078320
I0507 11:18:09.256922  5117 layer_factory.hpp:77] Creating layer fc6_3
I0507 11:18:09.256928  5117 net.cpp:106] Creating Layer fc6_3
I0507 11:18:09.256932  5117 net.cpp:454] fc6_3 <- pool5_pool5_0_split_2
I0507 11:18:09.256937  5117 net.cpp:411] fc6_3 -> fc6_3
I0507 11:18:09.264561  5117 net.cpp:150] Setting up fc6_3
I0507 11:18:09.264591  5117 net.cpp:157] Top shape: 1 1024 3 3 (9216)
I0507 11:18:09.264595  5117 net.cpp:165] Memory required for data: 1115184
I0507 11:18:09.264602  5117 layer_factory.hpp:77] Creating layer relu6_3
I0507 11:18:09.264608  5117 net.cpp:106] Creating Layer relu6_3
I0507 11:18:09.264612  5117 net.cpp:454] relu6_3 <- fc6_3
I0507 11:18:09.264619  5117 net.cpp:397] relu6_3 -> fc6_3 (in-place)
I0507 11:18:09.265204  5117 net.cpp:150] Setting up relu6_3
I0507 11:18:09.265215  5117 net.cpp:157] Top shape: 1 1024 3 3 (9216)
I0507 11:18:09.265218  5117 net.cpp:165] Memory required for data: 1152048
I0507 11:18:09.265220  5117 layer_factory.hpp:77] Creating layer drop6_3
I0507 11:18:09.265225  5117 net.cpp:106] Creating Layer drop6_3
I0507 11:18:09.265239  5117 net.cpp:454] drop6_3 <- fc6_3
I0507 11:18:09.265244  5117 net.cpp:397] drop6_3 -> fc6_3 (in-place)
I0507 11:18:09.265285  5117 net.cpp:150] Setting up drop6_3
I0507 11:18:09.265302  5117 net.cpp:157] Top shape: 1 1024 3 3 (9216)
I0507 11:18:09.265305  5117 net.cpp:165] Memory required for data: 1188912
I0507 11:18:09.265306  5117 layer_factory.hpp:77] Creating layer fc7_3
I0507 11:18:09.265313  5117 net.cpp:106] Creating Layer fc7_3
I0507 11:18:09.265316  5117 net.cpp:454] fc7_3 <- fc6_3
I0507 11:18:09.265319  5117 net.cpp:411] fc7_3 -> fc7_3
I0507 11:18:09.268007  5117 net.cpp:150] Setting up fc7_3
I0507 11:18:09.268030  5117 net.cpp:157] Top shape: 1 1024 3 3 (9216)
I0507 11:18:09.268033  5117 net.cpp:165] Memory required for data: 1225776
I0507 11:18:09.268040  5117 layer_factory.hpp:77] Creating layer relu7_3
I0507 11:18:09.268046  5117 net.cpp:106] Creating Layer relu7_3
I0507 11:18:09.268049  5117 net.cpp:454] relu7_3 <- fc7_3
I0507 11:18:09.268056  5117 net.cpp:397] relu7_3 -> fc7_3 (in-place)
I0507 11:18:09.268489  5117 net.cpp:150] Setting up relu7_3
I0507 11:18:09.268498  5117 net.cpp:157] Top shape: 1 1024 3 3 (9216)
I0507 11:18:09.268501  5117 net.cpp:165] Memory required for data: 1262640
I0507 11:18:09.268503  5117 layer_factory.hpp:77] Creating layer drop7_3
I0507 11:18:09.268507  5117 net.cpp:106] Creating Layer drop7_3
I0507 11:18:09.268510  5117 net.cpp:454] drop7_3 <- fc7_3
I0507 11:18:09.268515  5117 net.cpp:397] drop7_3 -> fc7_3 (in-place)
I0507 11:18:09.268537  5117 net.cpp:150] Setting up drop7_3
I0507 11:18:09.268543  5117 net.cpp:157] Top shape: 1 1024 3 3 (9216)
I0507 11:18:09.268559  5117 net.cpp:165] Memory required for data: 1299504
I0507 11:18:09.268563  5117 layer_factory.hpp:77] Creating layer fc8_voc12_3
I0507 11:18:09.268568  5117 net.cpp:106] Creating Layer fc8_voc12_3
I0507 11:18:09.268570  5117 net.cpp:454] fc8_voc12_3 <- fc7_3
I0507 11:18:09.268574  5117 net.cpp:411] fc8_voc12_3 -> fc8_voc12_3
I0507 11:18:09.270077  5117 net.cpp:150] Setting up fc8_voc12_3
I0507 11:18:09.270087  5117 net.cpp:157] Top shape: 1 21 3 3 (189)
I0507 11:18:09.270088  5117 net.cpp:165] Memory required for data: 1300260
I0507 11:18:09.270093  5117 layer_factory.hpp:77] Creating layer fc6_4
I0507 11:18:09.270099  5117 net.cpp:106] Creating Layer fc6_4
I0507 11:18:09.270102  5117 net.cpp:454] fc6_4 <- pool5_pool5_0_split_3
I0507 11:18:09.270107  5117 net.cpp:411] fc6_4 -> fc6_4
I0507 11:18:09.279614  5117 net.cpp:150] Setting up fc6_4
I0507 11:18:09.279637  5117 net.cpp:157] Top shape: 1 1024 3 3 (9216)
I0507 11:18:09.279640  5117 net.cpp:165] Memory required for data: 1337124
I0507 11:18:09.279647  5117 layer_factory.hpp:77] Creating layer relu6_4
I0507 11:18:09.279655  5117 net.cpp:106] Creating Layer relu6_4
I0507 11:18:09.279659  5117 net.cpp:454] relu6_4 <- fc6_4
I0507 11:18:09.279664  5117 net.cpp:397] relu6_4 -> fc6_4 (in-place)
I0507 11:18:09.280210  5117 net.cpp:150] Setting up relu6_4
I0507 11:18:09.280220  5117 net.cpp:157] Top shape: 1 1024 3 3 (9216)
I0507 11:18:09.280222  5117 net.cpp:165] Memory required for data: 1373988
I0507 11:18:09.280225  5117 layer_factory.hpp:77] Creating layer drop6_4
I0507 11:18:09.280230  5117 net.cpp:106] Creating Layer drop6_4
I0507 11:18:09.280231  5117 net.cpp:454] drop6_4 <- fc6_4
I0507 11:18:09.280236  5117 net.cpp:397] drop6_4 -> fc6_4 (in-place)
I0507 11:18:09.280258  5117 net.cpp:150] Setting up drop6_4
I0507 11:18:09.280263  5117 net.cpp:157] Top shape: 1 1024 3 3 (9216)
I0507 11:18:09.280279  5117 net.cpp:165] Memory required for data: 1410852
I0507 11:18:09.280282  5117 layer_factory.hpp:77] Creating layer fc7_4
I0507 11:18:09.280302  5117 net.cpp:106] Creating Layer fc7_4
I0507 11:18:09.280303  5117 net.cpp:454] fc7_4 <- fc6_4
I0507 11:18:09.280308  5117 net.cpp:411] fc7_4 -> fc7_4
I0507 11:18:09.283109  5117 net.cpp:150] Setting up fc7_4
I0507 11:18:09.283135  5117 net.cpp:157] Top shape: 1 1024 3 3 (9216)
I0507 11:18:09.283138  5117 net.cpp:165] Memory required for data: 1447716
I0507 11:18:09.283160  5117 layer_factory.hpp:77] Creating layer relu7_4
I0507 11:18:09.283205  5117 net.cpp:106] Creating Layer relu7_4
I0507 11:18:09.283210  5117 net.cpp:454] relu7_4 <- fc7_4
I0507 11:18:09.283231  5117 net.cpp:397] relu7_4 -> fc7_4 (in-place)
I0507 11:18:09.283685  5117 net.cpp:150] Setting up relu7_4
I0507 11:18:09.283694  5117 net.cpp:157] Top shape: 1 1024 3 3 (9216)
I0507 11:18:09.283696  5117 net.cpp:165] Memory required for data: 1484580
I0507 11:18:09.283699  5117 layer_factory.hpp:77] Creating layer drop7_4
I0507 11:18:09.283704  5117 net.cpp:106] Creating Layer drop7_4
I0507 11:18:09.283706  5117 net.cpp:454] drop7_4 <- fc7_4
I0507 11:18:09.283711  5117 net.cpp:397] drop7_4 -> fc7_4 (in-place)
I0507 11:18:09.283733  5117 net.cpp:150] Setting up drop7_4
I0507 11:18:09.283738  5117 net.cpp:157] Top shape: 1 1024 3 3 (9216)
I0507 11:18:09.283754  5117 net.cpp:165] Memory required for data: 1521444
I0507 11:18:09.283757  5117 layer_factory.hpp:77] Creating layer fc8_voc12_4
I0507 11:18:09.283762  5117 net.cpp:106] Creating Layer fc8_voc12_4
I0507 11:18:09.283777  5117 net.cpp:454] fc8_voc12_4 <- fc7_4
I0507 11:18:09.283782  5117 net.cpp:411] fc8_voc12_4 -> fc8_voc12_4
I0507 11:18:09.285254  5117 net.cpp:150] Setting up fc8_voc12_4
I0507 11:18:09.285262  5117 net.cpp:157] Top shape: 1 21 3 3 (189)
I0507 11:18:09.285264  5117 net.cpp:165] Memory required for data: 1522200
I0507 11:18:09.285269  5117 layer_factory.hpp:77] Creating layer fc8_voc12
I0507 11:18:09.285275  5117 net.cpp:106] Creating Layer fc8_voc12
I0507 11:18:09.285279  5117 net.cpp:454] fc8_voc12 <- fc8_voc12_1
I0507 11:18:09.285282  5117 net.cpp:454] fc8_voc12 <- fc8_voc12_2
I0507 11:18:09.285284  5117 net.cpp:454] fc8_voc12 <- fc8_voc12_3
I0507 11:18:09.285287  5117 net.cpp:454] fc8_voc12 <- fc8_voc12_4
I0507 11:18:09.285291  5117 net.cpp:411] fc8_voc12 -> fc8_voc12
I0507 11:18:09.285334  5117 net.cpp:150] Setting up fc8_voc12
I0507 11:18:09.285339  5117 net.cpp:157] Top shape: 1 21 3 3 (189)
I0507 11:18:09.285342  5117 net.cpp:165] Memory required for data: 1522956
I0507 11:18:09.285344  5117 layer_factory.hpp:77] Creating layer fc8_interp
I0507 11:18:09.285363  5117 net.cpp:106] Creating Layer fc8_interp
I0507 11:18:09.285367  5117 net.cpp:454] fc8_interp <- fc8_voc12
I0507 11:18:09.285382  5117 net.cpp:411] fc8_interp -> fc8_interp
I0507 11:18:09.285418  5117 net.cpp:150] Setting up fc8_interp
I0507 11:18:09.285423  5117 net.cpp:157] Top shape: 1 21 17 17 (6069)
I0507 11:18:09.285424  5117 net.cpp:165] Memory required for data: 1547232
I0507 11:18:09.285428  5117 layer_factory.hpp:77] Creating layer fc8_mat
I0507 11:18:09.285447  5117 net.cpp:106] Creating Layer fc8_mat
I0507 11:18:09.285450  5117 net.cpp:454] fc8_mat <- fc8_interp
I0507 11:18:09.285989  5117 mat_write_layer.cpp:30] MatWrite will save a maximum of 1449 files.
I0507 11:18:09.286000  5117 net.cpp:150] Setting up fc8_mat
…
