…
I0507 10:39:25.336539  3798 caffe.cpp:241] GPU device name: GeForce GT 730
I0507 10:39:26.469687  3798 net.cpp:49] Initializing net from parameters: 
name: "deeplab_largeFOV"
state {
  phase: TEST
}
layer {
  name: "data"
  type: "ImageSegData"
  top: "data"
  top: "label"
  top: "data_dim"
  include {
    phase: TEST
  }
  transform_param {
    mirror: false
    crop_size: 10
    mean_value: 104.008
    mean_value: 116.669
    mean_value: 122.675
  }
  image_data_param {
    source: "./list/val.txt"
    batch_size: 1
    root_folder: "/home/king/Documents/image/VOC_aug/dataset/"
    label_type: NONE
  }
}
layer {
  name: "conv1_1"
  type: "Convolution"
  bottom: "data"
  top: "conv1_1"
  convolution_param {
    num_output: 64
    pad: 1
    kernel_size: 3
  }
}
layer {
  name: "relu1_1"
  type: "ReLU"
  bottom: "conv1_1"
  top: "conv1_1"
}
layer {
  name: "conv1_2"
  type: "Convolution"
  bottom: "conv1_1"
  top: "conv1_2"
  convolution_param {
    num_output: 64
    pad: 1
    kernel_size: 3
  }
}
layer {
  name: "relu1_2"
  type: "ReLU"
  bottom: "conv1_2"
  top: "conv1_2"
}
layer {
  name: "pool1"
  type: "Pooling"
  bottom: "conv1_2"
  top: "pool1"
  pooling_param {
    pool: MAX
    kernel_size: 3
    stride: 2
    pad: 1
  }
}
layer {
  name: "conv2_1"
  type: "Convolution"
  bottom: "pool1"
  top: "conv2_1"
  convolution_param {
    num_output: 128
    pad: 1
    kernel_size: 3
  }
}
layer {
  name: "relu2_1"
  type: "ReLU"
  bottom: "conv2_1"
  top: "conv2_1"
}
layer {
  name: "conv2_2"
  type: "Convolution"
  bottom: "conv2_1"
  top: "conv2_2"
  convolution_param {
    num_output: 128
    pad: 1
    kernel_size: 3
  }
}
layer {
  name: "relu2_2"
  type: "ReLU"
  bottom: "conv2_2"
  top: "conv2_2"
}
layer {
  name: "pool2"
  type: "Pooling"
  bottom: "conv2_2"
  top: "pool2"
  pooling_param {
    pool: MAX
    kernel_size: 3
    stride: 2
    pad: 1
  }
}
layer {
  name: "conv3_1"
  type: "Convolution"
  bottom: "pool2"
  top: "conv3_1"
  convolution_param {
    num_output: 256
    pad: 1
    kernel_size: 3
  }
}
layer {
  name: "relu3_1"
  type: "ReLU"
  bottom: "conv3_1"
  top: "conv3_1"
}
layer {
  name: "conv3_2"
  type: "Convolution"
  bottom: "conv3_1"
  top: "conv3_2"
  convolution_param {
    num_output: 256
    pad: 1
    kernel_size: 3
  }
}
layer {
  name: "relu3_2"
  type: "ReLU"
  bottom: "conv3_2"
  top: "conv3_2"
}
layer {
  name: "conv3_3"
  type: "Convolution"
  bottom: "conv3_2"
  top: "conv3_3"
  convolution_param {
    num_output: 256
    pad: 1
    kernel_size: 3
  }
}
layer {
  name: "relu3_3"
  type: "ReLU"
  bottom: "conv3_3"
  top: "conv3_3"
}
layer {
  name: "pool3"
  type: "Pooling"
  bottom: "conv3_3"
  top: "pool3"
  pooling_param {
    pool: MAX
    kernel_size: 3
    stride: 2
    pad: 1
  }
}
layer {
  name: "conv4_1"
  type: "Convolution"
  bottom: "pool3"
  top: "conv4_1"
  convolution_param {
    num_output: 512
    pad: 1
    kernel_size: 3
  }
}
layer {
  name: "relu4_1"
  type: "ReLU"
  bottom: "conv4_1"
  top: "conv4_1"
}
layer {
  name: "conv4_2"
  type: "Convolution"
  bottom: "conv4_1"
  top: "conv4_2"
  convolution_param {
    num_output: 512
    pad: 1
    kernel_size: 3
  }
}
layer {
  name: "relu4_2"
  type: "ReLU"
  bottom: "conv4_2"
  top: "conv4_2"
}
layer {
  name: "conv4_3"
  type: "Convolution"
  bottom: "conv4_2"
  top: "conv4_3"
  convolution_param {
    num_output: 512
    pad: 1
    kernel_size: 3
  }
}
layer {
  name: "relu4_3"
  type: "ReLU"
  bottom: "conv4_3"
  top: "conv4_3"
}
layer {
  name: "pool4"
  type: "Pooling"
  bottom: "conv4_3"
  top: "pool4"
  pooling_param {
    pool: MAX
    kernel_size: 3
    stride: 1
    pad: 1
  }
}
layer {
  name: "conv5_1"
  type: "Convolution"
  bottom: "pool4"
  top: "conv5_1"
  convolution_param {
    num_output: 512
    pad: 2
    kernel_size: 3
    dilation: 2
  }
}
layer {
  name: "relu5_1"
  type: "ReLU"
  bottom: "conv5_1"
  top: "conv5_1"
}
layer {
  name: "conv5_2"
  type: "Convolution"
  bottom: "conv5_1"
  top: "conv5_2"
  convolution_param {
    num_output: 512
    pad: 2
    kernel_size: 3
    dilation: 2
  }
}
layer {
  name: "relu5_2"
  type: "ReLU"
  bottom: "conv5_2"
  top: "conv5_2"
}
layer {
  name: "conv5_3"
  type: "Convolution"
  bottom: "conv5_2"
  top: "conv5_3"
  convolution_param {
    num_output: 512
    pad: 2
    kernel_size: 3
    dilation: 2
  }
}
layer {
  name: "relu5_3"
  type: "ReLU"
  bottom: "conv5_3"
  top: "conv5_3"
}
layer {
  name: "pool5"
  type: "Pooling"
  bottom: "conv5_3"
  top: "pool5"
  pooling_param {
    pool: MAX
    kernel_size: 3
    stride: 1
    pad: 1
  }
}
layer {
  name: "fc6_1"
  type: "Convolution"
  bottom: "pool5"
  top: "fc6_1"
  convolution_param {
    num_output: 1024
    pad: 6
    kernel_size: 3
    dilation: 6
  }
}
layer {
  name: "relu6_1"
  type: "ReLU"
  bottom: "fc6_1"
  top: "fc6_1"
}
layer {
  name: "drop6_1"
  type: "Dropout"
  bottom: "fc6_1"
  top: "fc6_1"
  dropout_param {
    dropout_ratio: 0.5
  }
}
layer {
  name: "fc7_1"
  type: "Convolution"
  bottom: "fc6_1"
  top: "fc7_1"
  convolution_param {
    num_output: 1024
    kernel_size: 1
  }
}
layer {
  name: "relu7_1"
  type: "ReLU"
  bottom: "fc7_1"
  top: "fc7_1"
}
layer {
  name: "drop7_1"
  type: "Dropout"
  bottom: "fc7_1"
  top: "fc7_1"
  dropout_param {
    dropout_ratio: 0.5
  }
}
layer {
  name: "fc8_._1"
  type: "Convolution"
  bottom: "fc7_1"
  top: "fc8_._1"
  convolution_param {
    num_output: 21
    kernel_size: 1
  }
}
layer {
  name: "fc6_2"
  type: "Convolution"
  bottom: "pool5"
  top: "fc6_2"
  convolution_param {
    num_output: 1024
    pad: 12
    kernel_size: 3
    dilation: 12
  }
}
layer {
  name: "relu6_2"
  type: "ReLU"
  bottom: "fc6_2"
  top: "fc6_2"
}
layer {
  name: "drop6_2"
  type: "Dropout"
  bottom: "fc6_2"
  top: "fc6_2"
  dropout_param {
    dropout_ratio: 0.5
  }
}
layer {
  name: "fc7_2"
  type: "Convolution"
  bottom: "fc6_2"
  top: "fc7_2"
  convolution_param {
    num_output: 1024
    kernel_size: 1
  }
}
layer {
  name: "relu7_2"
  type: "ReLU"
  bottom: "fc7_2"
  top: "fc7_2"
}
layer {
  name: "drop7_2"
  type: "Dropout"
  bottom: "fc7_2"
  top: "fc7_2"
  dropout_param {
    dropout_ratio: 0.5
  }
}
layer {
  name: "fc8_._2"
  type: "Convolution"
  bottom: "fc7_2"
  top: "fc8_._2"
  convolution_param {
    num_output: 21
    kernel_size: 1
  }
}
layer {
  name: "fc6_3"
  type: "Convolution"
  bottom: "pool5"
  top: "fc6_3"
  convolution_param {
    num_output: 1024
    pad: 18
    kernel_size: 3
    dilation: 18
  }
}
layer {
  name: "relu6_3"
  type: "ReLU"
  bottom: "fc6_3"
  top: "fc6_3"
}
layer {
  name: "drop6_3"
  type: "Dropout"
  bottom: "fc6_3"
  top: "fc6_3"
  dropout_param {
    dropout_ratio: 0.5
  }
}
layer {
  name: "fc7_3"
  type: "Convolution"
  bottom: "fc6_3"
  top: "fc7_3"
  convolution_param {
    num_output: 1024
    kernel_size: 1
  }
}
layer {
  name: "relu7_3"
  type: "ReLU"
  bottom: "fc7_3"
  top: "fc7_3"
}
layer {
  name: "drop7_3"
  type: "Dropout"
  bottom: "fc7_3"
  top: "fc7_3"
  dropout_param {
    dropout_ratio: 0.5
  }
}
layer {
  name: "fc8_._3"
  type: "Convolution"
  bottom: "fc7_3"
  top: "fc8_._3"
  convolution_param {
    num_output: 21
    kernel_size: 1
  }
}
layer {
  name: "fc6_4"
  type: "Convolution"
  bottom: "pool5"
  top: "fc6_4"
  convolution_param {
    num_output: 1024
    pad: 24
    kernel_size: 3
    dilation: 24
  }
}
layer {
  name: "relu6_4"
  type: "ReLU"
  bottom: "fc6_4"
  top: "fc6_4"
}
layer {
  name: "drop6_4"
  type: "Dropout"
  bottom: "fc6_4"
  top: "fc6_4"
  dropout_param {
    dropout_ratio: 0.5
  }
}
layer {
  name: "fc7_4"
  type: "Convolution"
  bottom: "fc6_4"
  top: "fc7_4"
  convolution_param {
    num_output: 1024
    kernel_size: 1
  }
}
layer {
  name: "relu7_4"
  type: "ReLU"
  bottom: "fc7_4"
  top: "fc7_4"
}
layer {
  name: "drop7_4"
  type: "Dropout"
  bottom: "fc7_4"
  top: "fc7_4"
  dropout_param {
    dropout_ratio: 0.5
  }
}
layer {
  name: "fc8_._4"
  type: "Convolution"
  bottom: "fc7_4"
  top: "fc8_._4"
  convolution_param {
    num_output: 21
    kernel_size: 1
  }
}
layer {
  name: "fc8_."
  type: "Eltwise"
  bottom: "fc8_._1"
  bottom: "fc8_._2"
  bottom: "fc8_._3"
  bottom: "fc8_._4"
  top: "fc8_."
  eltwise_param {
    operation: SUM
  }
}
layer {
  name: "fc8_interp"
  type: "Interp"
  bottom: "fc8_."
  top: "fc8_interp"
  interp_param {
    zoom_factor: 8
  }
}
layer {
  name: "fc8_mat"
  type: "MatWrite"
  bottom: "fc8_interp"
  include {
    phase: TEST
  }
  mat_write_param {
    prefix: "./features/deeplab_largeFOV/val/fc8/"
    source: "./list/val_id.txt"
    strip: 0
    period: 1
  }
}
layer {
  name: "silence"
  type: "Silence"
  bottom: "label"
  bottom: "data_dim"
}
I0507 10:39:26.470263  3798 layer_factory.hpp:77] Creating layer data
I0507 10:39:26.470404  3798 net.cpp:106] Creating Layer data
I0507 10:39:26.470429  3798 net.cpp:411] data -> data
I0507 10:39:26.470479  3798 net.cpp:411] data -> label
I0507 10:39:26.470499  3798 net.cpp:411] data -> data_dim
I0507 10:39:26.470536  3798 image_seg_data_layer.cpp:46] Opening file ./list/val.txt
I0507 10:39:26.474684  3798 image_seg_data_layer.cpp:68] A total of 1449 images.
I0507 10:39:26.728845  3798 image_seg_data_layer.cpp:137] output data size: 1,3,10,10
I0507 10:39:26.728888  3798 image_seg_data_layer.cpp:141] output label size: 1,1,10,10
I0507 10:39:26.728900  3798 image_seg_data_layer.cpp:145] output data_dim size: 1,1,1,2
I0507 10:39:26.733175  3798 net.cpp:150] Setting up data
I0507 10:39:26.733222  3798 net.cpp:157] Top shape: 1 3 10 10 (300)
I0507 10:39:26.733242  3798 net.cpp:157] Top shape: 1 1 10 10 (100)
I0507 10:39:26.733253  3798 net.cpp:157] Top shape: 1 1 1 2 (2)
I0507 10:39:26.733263  3798 net.cpp:165] Memory required for data: 1608
I0507 10:39:26.733278  3798 layer_factory.hpp:77] Creating layer conv1_1
I0507 10:39:26.733322  3798 net.cpp:106] Creating Layer conv1_1
I0507 10:39:26.733343  3798 net.cpp:454] conv1_1 <- data
I0507 10:39:26.733369  3798 net.cpp:411] conv1_1 -> conv1_1
I0507 10:39:29.961643  3798 net.cpp:150] Setting up conv1_1
I0507 10:39:29.961705  3798 net.cpp:157] Top shape: 1 64 10 10 (6400)
I0507 10:39:29.961719  3798 net.cpp:165] Memory required for data: 27208
I0507 10:39:29.961767  3798 layer_factory.hpp:77] Creating layer relu1_1
I0507 10:39:29.961792  3798 net.cpp:106] Creating Layer relu1_1
I0507 10:39:29.961807  3798 net.cpp:454] relu1_1 <- conv1_1
I0507 10:39:29.961823  3798 net.cpp:397] relu1_1 -> conv1_1 (in-place)
I0507 10:39:29.962962  3798 net.cpp:150] Setting up relu1_1
I0507 10:39:29.962996  3798 net.cpp:157] Top shape: 1 64 10 10 (6400)
I0507 10:39:29.963008  3798 net.cpp:165] Memory required for data: 52808
I0507 10:39:29.963017  3798 layer_factory.hpp:77] Creating layer conv1_2
I0507 10:39:29.963042  3798 net.cpp:106] Creating Layer conv1_2
I0507 10:39:29.963052  3798 net.cpp:454] conv1_2 <- conv1_1
I0507 10:39:29.963070  3798 net.cpp:411] conv1_2 -> conv1_2
I0507 10:39:29.969422  3798 net.cpp:150] Setting up conv1_2
I0507 10:39:29.969462  3798 net.cpp:157] Top shape: 1 64 10 10 (6400)
I0507 10:39:29.969473  3798 net.cpp:165] Memory required for data: 78408
I0507 10:39:29.969501  3798 layer_factory.hpp:77] Creating layer relu1_2
I0507 10:39:29.969521  3798 net.cpp:106] Creating Layer relu1_2
I0507 10:39:29.969530  3798 net.cpp:454] relu1_2 <- conv1_2
I0507 10:39:29.969548  3798 net.cpp:397] relu1_2 -> conv1_2 (in-place)
I0507 10:39:29.970898  3798 net.cpp:150] Setting up relu1_2
I0507 10:39:29.970933  3798 net.cpp:157] Top shape: 1 64 10 10 (6400)
I0507 10:39:29.970943  3798 net.cpp:165] Memory required for data: 104008
I0507 10:39:29.970953  3798 layer_factory.hpp:77] Creating layer pool1
I0507 10:39:29.970978  3798 net.cpp:106] Creating Layer pool1
I0507 10:39:29.970989  3798 net.cpp:454] pool1 <- conv1_2
I0507 10:39:29.971004  3798 net.cpp:411] pool1 -> pool1
I0507 10:39:29.971130  3798 net.cpp:150] Setting up pool1
I0507 10:39:29.971153  3798 net.cpp:157] Top shape: 1 64 6 6 (2304)
I0507 10:39:29.971160  3798 net.cpp:165] Memory required for data: 113224
I0507 10:39:29.971169  3798 layer_factory.hpp:77] Creating layer conv2_1
I0507 10:39:29.971189  3798 net.cpp:106] Creating Layer conv2_1
I0507 10:39:29.971202  3798 net.cpp:454] conv2_1 <- pool1
I0507 10:39:29.971216  3798 net.cpp:411] conv2_1 -> conv2_1
I0507 10:39:29.977573  3798 net.cpp:150] Setting up conv2_1
I0507 10:39:29.977629  3798 net.cpp:157] Top shape: 1 128 6 6 (4608)
I0507 10:39:29.977643  3798 net.cpp:165] Memory required for data: 131656
I0507 10:39:29.977677  3798 layer_factory.hpp:77] Creating layer relu2_1
I0507 10:39:29.977699  3798 net.cpp:106] Creating Layer relu2_1
I0507 10:39:29.977710  3798 net.cpp:454] relu2_1 <- conv2_1
I0507 10:39:29.977730  3798 net.cpp:397] relu2_1 -> conv2_1 (in-place)
I0507 10:39:29.979101  3798 net.cpp:150] Setting up relu2_1
I0507 10:39:29.979138  3798 net.cpp:157] Top shape: 1 128 6 6 (4608)
I0507 10:39:29.979149  3798 net.cpp:165] Memory required for data: 150088
I0507 10:39:29.979161  3798 layer_factory.hpp:77] Creating layer conv2_2
I0507 10:39:29.979192  3798 net.cpp:106] Creating Layer conv2_2
I0507 10:39:29.979203  3798 net.cpp:454] conv2_2 <- conv2_1
I0507 10:39:29.979221  3798 net.cpp:411] conv2_2 -> conv2_2
I0507 10:39:29.984719  3798 net.cpp:150] Setting up conv2_2
I0507 10:39:29.984750  3798 net.cpp:157] Top shape: 1 128 6 6 (4608)
I0507 10:39:29.984756  3798 net.cpp:165] Memory required for data: 168520
I0507 10:39:29.984771  3798 layer_factory.hpp:77] Creating layer relu2_2
I0507 10:39:29.984786  3798 net.cpp:106] Creating Layer relu2_2
I0507 10:39:29.984793  3798 net.cpp:454] relu2_2 <- conv2_2
I0507 10:39:29.984807  3798 net.cpp:397] relu2_2 -> conv2_2 (in-place)
I0507 10:39:29.985774  3798 net.cpp:150] Setting up relu2_2
I0507 10:39:29.985797  3798 net.cpp:157] Top shape: 1 128 6 6 (4608)
I0507 10:39:29.985805  3798 net.cpp:165] Memory required for data: 186952
I0507 10:39:29.985811  3798 layer_factory.hpp:77] Creating layer pool2
I0507 10:39:29.985824  3798 net.cpp:106] Creating Layer pool2
I0507 10:39:29.985833  3798 net.cpp:454] pool2 <- conv2_2
I0507 10:39:29.985843  3798 net.cpp:411] pool2 -> pool2
I0507 10:39:29.985934  3798 net.cpp:150] Setting up pool2
I0507 10:39:29.985947  3798 net.cpp:157] Top shape: 1 128 4 4 (2048)
I0507 10:39:29.985955  3798 net.cpp:165] Memory required for data: 195144
I0507 10:39:29.985960  3798 layer_factory.hpp:77] Creating layer conv3_1
I0507 10:39:29.985975  3798 net.cpp:106] Creating Layer conv3_1
I0507 10:39:29.985983  3798 net.cpp:454] conv3_1 <- pool2
I0507 10:39:29.985994  3798 net.cpp:411] conv3_1 -> conv3_1
I0507 10:39:29.990451  3798 net.cpp:150] Setting up conv3_1
I0507 10:39:29.990478  3798 net.cpp:157] Top shape: 1 256 4 4 (4096)
I0507 10:39:29.990483  3798 net.cpp:165] Memory required for data: 211528
I0507 10:39:29.990504  3798 layer_factory.hpp:77] Creating layer relu3_1
I0507 10:39:29.990515  3798 net.cpp:106] Creating Layer relu3_1
I0507 10:39:29.990521  3798 net.cpp:454] relu3_1 <- conv3_1
I0507 10:39:29.990530  3798 net.cpp:397] relu3_1 -> conv3_1 (in-place)
I0507 10:39:29.991348  3798 net.cpp:150] Setting up relu3_1
I0507 10:39:29.991369  3798 net.cpp:157] Top shape: 1 256 4 4 (4096)
I0507 10:39:29.991374  3798 net.cpp:165] Memory required for data: 227912
I0507 10:39:29.991380  3798 layer_factory.hpp:77] Creating layer conv3_2
I0507 10:39:29.991391  3798 net.cpp:106] Creating Layer conv3_2
I0507 10:39:29.991399  3798 net.cpp:454] conv3_2 <- conv3_1
I0507 10:39:29.991410  3798 net.cpp:411] conv3_2 -> conv3_2
I0507 10:39:29.996495  3798 net.cpp:150] Setting up conv3_2
I0507 10:39:29.996526  3798 net.cpp:157] Top shape: 1 256 4 4 (4096)
I0507 10:39:29.996531  3798 net.cpp:165] Memory required for data: 244296
I0507 10:39:29.996541  3798 layer_factory.hpp:77] Creating layer relu3_2
I0507 10:39:29.996553  3798 net.cpp:106] Creating Layer relu3_2
I0507 10:39:29.996559  3798 net.cpp:454] relu3_2 <- conv3_2
I0507 10:39:29.996567  3798 net.cpp:397] relu3_2 -> conv3_2 (in-place)
I0507 10:39:29.997017  3798 net.cpp:150] Setting up relu3_2
I0507 10:39:29.997030  3798 net.cpp:157] Top shape: 1 256 4 4 (4096)
I0507 10:39:29.997035  3798 net.cpp:165] Memory required for data: 260680
I0507 10:39:29.997040  3798 layer_factory.hpp:77] Creating layer conv3_3
I0507 10:39:29.997050  3798 net.cpp:106] Creating Layer conv3_3
I0507 10:39:29.997053  3798 net.cpp:454] conv3_3 <- conv3_2
I0507 10:39:29.997077  3798 net.cpp:411] conv3_3 -> conv3_3
I0507 10:39:30.000550  3798 net.cpp:150] Setting up conv3_3
I0507 10:39:30.000569  3798 net.cpp:157] Top shape: 1 256 4 4 (4096)
I0507 10:39:30.000574  3798 net.cpp:165] Memory required for data: 277064
I0507 10:39:30.000582  3798 layer_factory.hpp:77] Creating layer relu3_3
I0507 10:39:30.000593  3798 net.cpp:106] Creating Layer relu3_3
I0507 10:39:30.000597  3798 net.cpp:454] relu3_3 <- conv3_3
I0507 10:39:30.000603  3798 net.cpp:397] relu3_3 -> conv3_3 (in-place)
I0507 10:39:30.001137  3798 net.cpp:150] Setting up relu3_3
I0507 10:39:30.001149  3798 net.cpp:157] Top shape: 1 256 4 4 (4096)
I0507 10:39:30.001153  3798 net.cpp:165] Memory required for data: 293448
I0507 10:39:30.001157  3798 layer_factory.hpp:77] Creating layer pool3
I0507 10:39:30.001165  3798 net.cpp:106] Creating Layer pool3
I0507 10:39:30.001169  3798 net.cpp:454] pool3 <- conv3_3
I0507 10:39:30.001174  3798 net.cpp:411] pool3 -> pool3
I0507 10:39:30.001222  3798 net.cpp:150] Setting up pool3
I0507 10:39:30.001230  3798 net.cpp:157] Top shape: 1 256 3 3 (2304)
I0507 10:39:30.001233  3798 net.cpp:165] Memory required for data: 302664
I0507 10:39:30.001236  3798 layer_factory.hpp:77] Creating layer conv4_1
I0507 10:39:30.001245  3798 net.cpp:106] Creating Layer conv4_1
I0507 10:39:30.001248  3798 net.cpp:454] conv4_1 <- pool3
I0507 10:39:30.001255  3798 net.cpp:411] conv4_1 -> conv4_1
I0507 10:39:30.005286  3798 net.cpp:150] Setting up conv4_1
I0507 10:39:30.005314  3798 net.cpp:157] Top shape: 1 512 3 3 (4608)
I0507 10:39:30.005317  3798 net.cpp:165] Memory required for data: 321096
I0507 10:39:30.005326  3798 layer_factory.hpp:77] Creating layer relu4_1
I0507 10:39:30.005334  3798 net.cpp:106] Creating Layer relu4_1
I0507 10:39:30.005339  3798 net.cpp:454] relu4_1 <- conv4_1
I0507 10:39:30.005348  3798 net.cpp:397] relu4_1 -> conv4_1 (in-place)
I0507 10:39:30.005810  3798 net.cpp:150] Setting up relu4_1
I0507 10:39:30.005821  3798 net.cpp:157] Top shape: 1 512 3 3 (4608)
I0507 10:39:30.005825  3798 net.cpp:165] Memory required for data: 339528
I0507 10:39:30.005827  3798 layer_factory.hpp:77] Creating layer conv4_2
I0507 10:39:30.005836  3798 net.cpp:106] Creating Layer conv4_2
I0507 10:39:30.005839  3798 net.cpp:454] conv4_2 <- conv4_1
I0507 10:39:30.005846  3798 net.cpp:411] conv4_2 -> conv4_2
I0507 10:39:30.011382  3798 net.cpp:150] Setting up conv4_2
I0507 10:39:30.011410  3798 net.cpp:157] Top shape: 1 512 3 3 (4608)
I0507 10:39:30.011413  3798 net.cpp:165] Memory required for data: 357960
I0507 10:39:30.011426  3798 layer_factory.hpp:77] Creating layer relu4_2
I0507 10:39:30.011435  3798 net.cpp:106] Creating Layer relu4_2
I0507 10:39:30.011440  3798 net.cpp:454] relu4_2 <- conv4_2
I0507 10:39:30.011447  3798 net.cpp:397] relu4_2 -> conv4_2 (in-place)
I0507 10:39:30.011860  3798 net.cpp:150] Setting up relu4_2
I0507 10:39:30.011869  3798 net.cpp:157] Top shape: 1 512 3 3 (4608)
I0507 10:39:30.011873  3798 net.cpp:165] Memory required for data: 376392
I0507 10:39:30.011875  3798 layer_factory.hpp:77] Creating layer conv4_3
I0507 10:39:30.011883  3798 net.cpp:106] Creating Layer conv4_3
I0507 10:39:30.011885  3798 net.cpp:454] conv4_3 <- conv4_2
I0507 10:39:30.011890  3798 net.cpp:411] conv4_3 -> conv4_3
I0507 10:39:30.016885  3798 net.cpp:150] Setting up conv4_3
I0507 10:39:30.016912  3798 net.cpp:157] Top shape: 1 512 3 3 (4608)
I0507 10:39:30.016916  3798 net.cpp:165] Memory required for data: 394824
I0507 10:39:30.016923  3798 layer_factory.hpp:77] Creating layer relu4_3
I0507 10:39:30.016929  3798 net.cpp:106] Creating Layer relu4_3
I0507 10:39:30.016933  3798 net.cpp:454] relu4_3 <- conv4_3
I0507 10:39:30.016940  3798 net.cpp:397] relu4_3 -> conv4_3 (in-place)
I0507 10:39:30.017329  3798 net.cpp:150] Setting up relu4_3
I0507 10:39:30.017338  3798 net.cpp:157] Top shape: 1 512 3 3 (4608)
I0507 10:39:30.017340  3798 net.cpp:165] Memory required for data: 413256
I0507 10:39:30.017343  3798 layer_factory.hpp:77] Creating layer pool4
I0507 10:39:30.017356  3798 net.cpp:106] Creating Layer pool4
I0507 10:39:30.017359  3798 net.cpp:454] pool4 <- conv4_3
I0507 10:39:30.017364  3798 net.cpp:411] pool4 -> pool4
I0507 10:39:30.017400  3798 net.cpp:150] Setting up pool4
I0507 10:39:30.017406  3798 net.cpp:157] Top shape: 1 512 3 3 (4608)
I0507 10:39:30.017408  3798 net.cpp:165] Memory required for data: 431688
I0507 10:39:30.017410  3798 layer_factory.hpp:77] Creating layer conv5_1
I0507 10:39:30.017417  3798 net.cpp:106] Creating Layer conv5_1
I0507 10:39:30.017421  3798 net.cpp:454] conv5_1 <- pool4
I0507 10:39:30.017423  3798 net.cpp:411] conv5_1 -> conv5_1
I0507 10:39:30.021287  3798 net.cpp:150] Setting up conv5_1
I0507 10:39:30.021332  3798 net.cpp:157] Top shape: 1 512 3 3 (4608)
I0507 10:39:30.021337  3798 net.cpp:165] Memory required for data: 450120
I0507 10:39:30.021363  3798 layer_factory.hpp:77] Creating layer relu5_1
I0507 10:39:30.021387  3798 net.cpp:106] Creating Layer relu5_1
I0507 10:39:30.021392  3798 net.cpp:454] relu5_1 <- conv5_1
I0507 10:39:30.021404  3798 net.cpp:397] relu5_1 -> conv5_1 (in-place)
I0507 10:39:30.022177  3798 net.cpp:150] Setting up relu5_1
I0507 10:39:30.022186  3798 net.cpp:157] Top shape: 1 512 3 3 (4608)
I0507 10:39:30.022188  3798 net.cpp:165] Memory required for data: 468552
I0507 10:39:30.022192  3798 layer_factory.hpp:77] Creating layer conv5_2
I0507 10:39:30.022198  3798 net.cpp:106] Creating Layer conv5_2
I0507 10:39:30.022217  3798 net.cpp:454] conv5_2 <- conv5_1
I0507 10:39:30.022220  3798 net.cpp:411] conv5_2 -> conv5_2
I0507 10:39:30.027029  3798 net.cpp:150] Setting up conv5_2
I0507 10:39:30.027056  3798 net.cpp:157] Top shape: 1 512 3 3 (4608)
I0507 10:39:30.027058  3798 net.cpp:165] Memory required for data: 486984
I0507 10:39:30.027066  3798 layer_factory.hpp:77] Creating layer relu5_2
I0507 10:39:30.027073  3798 net.cpp:106] Creating Layer relu5_2
I0507 10:39:30.027076  3798 net.cpp:454] relu5_2 <- conv5_2
I0507 10:39:30.027084  3798 net.cpp:397] relu5_2 -> conv5_2 (in-place)
I0507 10:39:30.027640  3798 net.cpp:150] Setting up relu5_2
I0507 10:39:30.027649  3798 net.cpp:157] Top shape: 1 512 3 3 (4608)
I0507 10:39:30.027652  3798 net.cpp:165] Memory required for data: 505416
I0507 10:39:30.027654  3798 layer_factory.hpp:77] Creating layer conv5_3
I0507 10:39:30.027662  3798 net.cpp:106] Creating Layer conv5_3
I0507 10:39:30.027679  3798 net.cpp:454] conv5_3 <- conv5_2
I0507 10:39:30.027684  3798 net.cpp:411] conv5_3 -> conv5_3
I0507 10:39:30.031347  3798 net.cpp:150] Setting up conv5_3
I0507 10:39:30.031374  3798 net.cpp:157] Top shape: 1 512 3 3 (4608)
I0507 10:39:30.031378  3798 net.cpp:165] Memory required for data: 523848
I0507 10:39:30.031385  3798 layer_factory.hpp:77] Creating layer relu5_3
I0507 10:39:30.031394  3798 net.cpp:106] Creating Layer relu5_3
I0507 10:39:30.031399  3798 net.cpp:454] relu5_3 <- conv5_3
I0507 10:39:30.031409  3798 net.cpp:397] relu5_3 -> conv5_3 (in-place)
I0507 10:39:30.031785  3798 net.cpp:150] Setting up relu5_3
I0507 10:39:30.031795  3798 net.cpp:157] Top shape: 1 512 3 3 (4608)
I0507 10:39:30.031796  3798 net.cpp:165] Memory required for data: 542280
I0507 10:39:30.031800  3798 layer_factory.hpp:77] Creating layer pool5
I0507 10:39:30.031803  3798 net.cpp:106] Creating Layer pool5
I0507 10:39:30.031806  3798 net.cpp:454] pool5 <- conv5_3
I0507 10:39:30.031810  3798 net.cpp:411] pool5 -> pool5
I0507 10:39:30.031859  3798 net.cpp:150] Setting up pool5
I0507 10:39:30.031877  3798 net.cpp:157] Top shape: 1 512 3 3 (4608)
I0507 10:39:30.031879  3798 net.cpp:165] Memory required for data: 560712
I0507 10:39:30.031882  3798 layer_factory.hpp:77] Creating layer pool5_pool5_0_split
I0507 10:39:30.031905  3798 net.cpp:106] Creating Layer pool5_pool5_0_split
I0507 10:39:30.031908  3798 net.cpp:454] pool5_pool5_0_split <- pool5
I0507 10:39:30.031911  3798 net.cpp:411] pool5_pool5_0_split -> pool5_pool5_0_split_0
I0507 10:39:30.031915  3798 net.cpp:411] pool5_pool5_0_split -> pool5_pool5_0_split_1
I0507 10:39:30.031920  3798 net.cpp:411] pool5_pool5_0_split -> pool5_pool5_0_split_2
I0507 10:39:30.031952  3798 net.cpp:411] pool5_pool5_0_split -> pool5_pool5_0_split_3
I0507 10:39:30.032040  3798 net.cpp:150] Setting up pool5_pool5_0_split
I0507 10:39:30.032045  3798 net.cpp:157] Top shape: 1 512 3 3 (4608)
I0507 10:39:30.032048  3798 net.cpp:157] Top shape: 1 512 3 3 (4608)
I0507 10:39:30.032052  3798 net.cpp:157] Top shape: 1 512 3 3 (4608)
I0507 10:39:30.032054  3798 net.cpp:157] Top shape: 1 512 3 3 (4608)
I0507 10:39:30.032057  3798 net.cpp:165] Memory required for data: 634440
I0507 10:39:30.032070  3798 layer_factory.hpp:77] Creating layer fc6_1
I0507 10:39:30.032076  3798 net.cpp:106] Creating Layer fc6_1
I0507 10:39:30.032079  3798 net.cpp:454] fc6_1 <- pool5_pool5_0_split_0
I0507 10:39:30.032083  3798 net.cpp:411] fc6_1 -> fc6_1
I0507 10:39:30.039458  3798 net.cpp:150] Setting up fc6_1
I0507 10:39:30.039484  3798 net.cpp:157] Top shape: 1 1024 3 3 (9216)
I0507 10:39:30.039487  3798 net.cpp:165] Memory required for data: 671304
I0507 10:39:30.039494  3798 layer_factory.hpp:77] Creating layer relu6_1
I0507 10:39:30.039503  3798 net.cpp:106] Creating Layer relu6_1
I0507 10:39:30.039506  3798 net.cpp:454] relu6_1 <- fc6_1
I0507 10:39:30.039513  3798 net.cpp:397] relu6_1 -> fc6_1 (in-place)
I0507 10:39:30.040099  3798 net.cpp:150] Setting up relu6_1
I0507 10:39:30.040109  3798 net.cpp:157] Top shape: 1 1024 3 3 (9216)
I0507 10:39:30.040112  3798 net.cpp:165] Memory required for data: 708168
I0507 10:39:30.040114  3798 layer_factory.hpp:77] Creating layer drop6_1
I0507 10:39:30.040122  3798 net.cpp:106] Creating Layer drop6_1
I0507 10:39:30.040124  3798 net.cpp:454] drop6_1 <- fc6_1
I0507 10:39:30.040128  3798 net.cpp:397] drop6_1 -> fc6_1 (in-place)
I0507 10:39:30.040153  3798 net.cpp:150] Setting up drop6_1
I0507 10:39:30.040172  3798 net.cpp:157] Top shape: 1 1024 3 3 (9216)
I0507 10:39:30.040174  3798 net.cpp:165] Memory required for data: 745032
I0507 10:39:30.040176  3798 layer_factory.hpp:77] Creating layer fc7_1
I0507 10:39:30.040195  3798 net.cpp:106] Creating Layer fc7_1
I0507 10:39:30.040199  3798 net.cpp:454] fc7_1 <- fc6_1
I0507 10:39:30.040216  3798 net.cpp:411] fc7_1 -> fc7_1
I0507 10:39:30.043031  3798 net.cpp:150] Setting up fc7_1
I0507 10:39:30.043054  3798 net.cpp:157] Top shape: 1 1024 3 3 (9216)
I0507 10:39:30.043057  3798 net.cpp:165] Memory required for data: 781896
I0507 10:39:30.043066  3798 layer_factory.hpp:77] Creating layer relu7_1
I0507 10:39:30.043071  3798 net.cpp:106] Creating Layer relu7_1
I0507 10:39:30.043074  3798 net.cpp:454] relu7_1 <- fc7_1
I0507 10:39:30.043081  3798 net.cpp:397] relu7_1 -> fc7_1 (in-place)
I0507 10:39:30.043509  3798 net.cpp:150] Setting up relu7_1
I0507 10:39:30.043517  3798 net.cpp:157] Top shape: 1 1024 3 3 (9216)
I0507 10:39:30.043519  3798 net.cpp:165] Memory required for data: 818760
I0507 10:39:30.043522  3798 layer_factory.hpp:77] Creating layer drop7_1
I0507 10:39:30.043527  3798 net.cpp:106] Creating Layer drop7_1
I0507 10:39:30.043530  3798 net.cpp:454] drop7_1 <- fc7_1
I0507 10:39:30.043534  3798 net.cpp:397] drop7_1 -> fc7_1 (in-place)
I0507 10:39:30.043555  3798 net.cpp:150] Setting up drop7_1
I0507 10:39:30.043560  3798 net.cpp:157] Top shape: 1 1024 3 3 (9216)
I0507 10:39:30.043563  3798 net.cpp:165] Memory required for data: 855624
I0507 10:39:30.043565  3798 layer_factory.hpp:77] Creating layer fc8_._1
I0507 10:39:30.043586  3798 net.cpp:106] Creating Layer fc8_._1
I0507 10:39:30.043588  3798 net.cpp:454] fc8_._1 <- fc7_1
I0507 10:39:30.043592  3798 net.cpp:411] fc8_._1 -> fc8_._1
I0507 10:39:30.044823  3798 net.cpp:150] Setting up fc8_._1
I0507 10:39:30.044832  3798 net.cpp:157] Top shape: 1 21 3 3 (189)
I0507 10:39:30.044836  3798 net.cpp:165] Memory required for data: 856380
I0507 10:39:30.044839  3798 layer_factory.hpp:77] Creating layer fc6_2
I0507 10:39:30.044844  3798 net.cpp:106] Creating Layer fc6_2
I0507 10:39:30.044847  3798 net.cpp:454] fc6_2 <- pool5_pool5_0_split_1
I0507 10:39:30.044852  3798 net.cpp:411] fc6_2 -> fc6_2
I0507 10:39:30.053078  3798 net.cpp:150] Setting up fc6_2
I0507 10:39:30.053100  3798 net.cpp:157] Top shape: 1 1024 3 3 (9216)
I0507 10:39:30.053130  3798 net.cpp:165] Memory required for data: 893244
I0507 10:39:30.053167  3798 layer_factory.hpp:77] Creating layer relu6_2
I0507 10:39:30.053176  3798 net.cpp:106] Creating Layer relu6_2
I0507 10:39:30.053181  3798 net.cpp:454] relu6_2 <- fc6_2
I0507 10:39:30.053201  3798 net.cpp:397] relu6_2 -> fc6_2 (in-place)
I0507 10:39:30.053758  3798 net.cpp:150] Setting up relu6_2
I0507 10:39:30.053767  3798 net.cpp:157] Top shape: 1 1024 3 3 (9216)
I0507 10:39:30.053769  3798 net.cpp:165] Memory required for data: 930108
I0507 10:39:30.053771  3798 layer_factory.hpp:77] Creating layer drop6_2
I0507 10:39:30.053777  3798 net.cpp:106] Creating Layer drop6_2
I0507 10:39:30.053781  3798 net.cpp:454] drop6_2 <- fc6_2
I0507 10:39:30.053783  3798 net.cpp:397] drop6_2 -> fc6_2 (in-place)
I0507 10:39:30.053807  3798 net.cpp:150] Setting up drop6_2
I0507 10:39:30.053810  3798 net.cpp:157] Top shape: 1 1024 3 3 (9216)
I0507 10:39:30.053828  3798 net.cpp:165] Memory required for data: 966972
I0507 10:39:30.053829  3798 layer_factory.hpp:77] Creating layer fc7_2
I0507 10:39:30.053848  3798 net.cpp:106] Creating Layer fc7_2
I0507 10:39:30.053850  3798 net.cpp:454] fc7_2 <- fc6_2
I0507 10:39:30.053856  3798 net.cpp:411] fc7_2 -> fc7_2
I0507 10:39:30.057504  3798 net.cpp:150] Setting up fc7_2
I0507 10:39:30.057528  3798 net.cpp:157] Top shape: 1 1024 3 3 (9216)
I0507 10:39:30.057533  3798 net.cpp:165] Memory required for data: 1003836
I0507 10:39:30.057539  3798 layer_factory.hpp:77] Creating layer relu7_2
I0507 10:39:30.057548  3798 net.cpp:106] Creating Layer relu7_2
I0507 10:39:30.057550  3798 net.cpp:454] relu7_2 <- fc7_2
I0507 10:39:30.057557  3798 net.cpp:397] relu7_2 -> fc7_2 (in-place)
I0507 10:39:30.057848  3798 net.cpp:150] Setting up relu7_2
I0507 10:39:30.057855  3798 net.cpp:157] Top shape: 1 1024 3 3 (9216)
I0507 10:39:30.057857  3798 net.cpp:165] Memory required for data: 1040700
I0507 10:39:30.057860  3798 layer_factory.hpp:77] Creating layer drop7_2
I0507 10:39:30.057865  3798 net.cpp:106] Creating Layer drop7_2
I0507 10:39:30.057868  3798 net.cpp:454] drop7_2 <- fc7_2
I0507 10:39:30.057871  3798 net.cpp:397] drop7_2 -> fc7_2 (in-place)
I0507 10:39:30.057891  3798 net.cpp:150] Setting up drop7_2
I0507 10:39:30.057896  3798 net.cpp:157] Top shape: 1 1024 3 3 (9216)
I0507 10:39:30.057898  3798 net.cpp:165] Memory required for data: 1077564
I0507 10:39:30.057900  3798 layer_factory.hpp:77] Creating layer fc8_._2
I0507 10:39:30.057921  3798 net.cpp:106] Creating Layer fc8_._2
I0507 10:39:30.057925  3798 net.cpp:454] fc8_._2 <- fc7_2
I0507 10:39:30.057929  3798 net.cpp:411] fc8_._2 -> fc8_._2
I0507 10:39:30.059491  3798 net.cpp:150] Setting up fc8_._2
I0507 10:39:30.059500  3798 net.cpp:157] Top shape: 1 21 3 3 (189)
I0507 10:39:30.059502  3798 net.cpp:165] Memory required for data: 1078320
I0507 10:39:30.059507  3798 layer_factory.hpp:77] Creating layer fc6_3
I0507 10:39:30.059512  3798 net.cpp:106] Creating Layer fc6_3
I0507 10:39:30.059515  3798 net.cpp:454] fc6_3 <- pool5_pool5_0_split_2
I0507 10:39:30.059520  3798 net.cpp:411] fc6_3 -> fc6_3
I0507 10:39:30.066716  3798 net.cpp:150] Setting up fc6_3
I0507 10:39:30.066750  3798 net.cpp:157] Top shape: 1 1024 3 3 (9216)
I0507 10:39:30.066752  3798 net.cpp:165] Memory required for data: 1115184
I0507 10:39:30.066759  3798 layer_factory.hpp:77] Creating layer relu6_3
I0507 10:39:30.066766  3798 net.cpp:106] Creating Layer relu6_3
I0507 10:39:30.066771  3798 net.cpp:454] relu6_3 <- fc6_3
I0507 10:39:30.066779  3798 net.cpp:397] relu6_3 -> fc6_3 (in-place)
I0507 10:39:30.067423  3798 net.cpp:150] Setting up relu6_3
I0507 10:39:30.067432  3798 net.cpp:157] Top shape: 1 1024 3 3 (9216)
I0507 10:39:30.067435  3798 net.cpp:165] Memory required for data: 1152048
I0507 10:39:30.067437  3798 layer_factory.hpp:77] Creating layer drop6_3
I0507 10:39:30.067442  3798 net.cpp:106] Creating Layer drop6_3
I0507 10:39:30.067445  3798 net.cpp:454] drop6_3 <- fc6_3
I0507 10:39:30.067450  3798 net.cpp:397] drop6_3 -> fc6_3 (in-place)
I0507 10:39:30.067502  3798 net.cpp:150] Setting up drop6_3
I0507 10:39:30.067523  3798 net.cpp:157] Top shape: 1 1024 3 3 (9216)
I0507 10:39:30.067525  3798 net.cpp:165] Memory required for data: 1188912
I0507 10:39:30.067528  3798 layer_factory.hpp:77] Creating layer fc7_3
I0507 10:39:30.067533  3798 net.cpp:106] Creating Layer fc7_3
I0507 10:39:30.067535  3798 net.cpp:454] fc7_3 <- fc6_3
I0507 10:39:30.067554  3798 net.cpp:411] fc7_3 -> fc7_3
I0507 10:39:30.070221  3798 net.cpp:150] Setting up fc7_3
I0507 10:39:30.070245  3798 net.cpp:157] Top shape: 1 1024 3 3 (9216)
I0507 10:39:30.070247  3798 net.cpp:165] Memory required for data: 1225776
I0507 10:39:30.070255  3798 layer_factory.hpp:77] Creating layer relu7_3
I0507 10:39:30.070262  3798 net.cpp:106] Creating Layer relu7_3
I0507 10:39:30.070266  3798 net.cpp:454] relu7_3 <- fc7_3
I0507 10:39:30.070271  3798 net.cpp:397] relu7_3 -> fc7_3 (in-place)
I0507 10:39:30.070703  3798 net.cpp:150] Setting up relu7_3
I0507 10:39:30.070713  3798 net.cpp:157] Top shape: 1 1024 3 3 (9216)
I0507 10:39:30.070715  3798 net.cpp:165] Memory required for data: 1262640
I0507 10:39:30.070719  3798 layer_factory.hpp:77] Creating layer drop7_3
I0507 10:39:30.070722  3798 net.cpp:106] Creating Layer drop7_3
I0507 10:39:30.070725  3798 net.cpp:454] drop7_3 <- fc7_3
I0507 10:39:30.070729  3798 net.cpp:397] drop7_3 -> fc7_3 (in-place)
I0507 10:39:30.070751  3798 net.cpp:150] Setting up drop7_3
I0507 10:39:30.070755  3798 net.cpp:157] Top shape: 1 1024 3 3 (9216)
I0507 10:39:30.070772  3798 net.cpp:165] Memory required for data: 1299504
I0507 10:39:30.070775  3798 layer_factory.hpp:77] Creating layer fc8_._3
I0507 10:39:30.070794  3798 net.cpp:106] Creating Layer fc8_._3
I0507 10:39:30.070797  3798 net.cpp:454] fc8_._3 <- fc7_3
I0507 10:39:30.070802  3798 net.cpp:411] fc8_._3 -> fc8_._3
I0507 10:39:30.072304  3798 net.cpp:150] Setting up fc8_._3
I0507 10:39:30.072314  3798 net.cpp:157] Top shape: 1 21 3 3 (189)
I0507 10:39:30.072316  3798 net.cpp:165] Memory required for data: 1300260
I0507 10:39:30.072320  3798 layer_factory.hpp:77] Creating layer fc6_4
I0507 10:39:30.072342  3798 net.cpp:106] Creating Layer fc6_4
I0507 10:39:30.072345  3798 net.cpp:454] fc6_4 <- pool5_pool5_0_split_3
I0507 10:39:30.072350  3798 net.cpp:411] fc6_4 -> fc6_4
I0507 10:39:30.079584  3798 net.cpp:150] Setting up fc6_4
I0507 10:39:30.079612  3798 net.cpp:157] Top shape: 1 1024 3 3 (9216)
I0507 10:39:30.079617  3798 net.cpp:165] Memory required for data: 1337124
I0507 10:39:30.079623  3798 layer_factory.hpp:77] Creating layer relu6_4
I0507 10:39:30.079630  3798 net.cpp:106] Creating Layer relu6_4
I0507 10:39:30.079634  3798 net.cpp:454] relu6_4 <- fc6_4
I0507 10:39:30.079643  3798 net.cpp:397] relu6_4 -> fc6_4 (in-place)
I0507 10:39:30.080224  3798 net.cpp:150] Setting up relu6_4
I0507 10:39:30.080232  3798 net.cpp:157] Top shape: 1 1024 3 3 (9216)
I0507 10:39:30.080235  3798 net.cpp:165] Memory required for data: 1373988
I0507 10:39:30.080237  3798 layer_factory.hpp:77] Creating layer drop6_4
I0507 10:39:30.080242  3798 net.cpp:106] Creating Layer drop6_4
I0507 10:39:30.080245  3798 net.cpp:454] drop6_4 <- fc6_4
I0507 10:39:30.080250  3798 net.cpp:397] drop6_4 -> fc6_4 (in-place)
I0507 10:39:30.080271  3798 net.cpp:150] Setting up drop6_4
I0507 10:39:30.080276  3798 net.cpp:157] Top shape: 1 1024 3 3 (9216)
I0507 10:39:30.080293  3798 net.cpp:165] Memory required for data: 1410852
I0507 10:39:30.080296  3798 layer_factory.hpp:77] Creating layer fc7_4
I0507 10:39:30.080302  3798 net.cpp:106] Creating Layer fc7_4
I0507 10:39:30.080305  3798 net.cpp:454] fc7_4 <- fc6_4
I0507 10:39:30.080309  3798 net.cpp:411] fc7_4 -> fc7_4
I0507 10:39:30.083595  3798 net.cpp:150] Setting up fc7_4
I0507 10:39:30.083617  3798 net.cpp:157] Top shape: 1 1024 3 3 (9216)
I0507 10:39:30.083621  3798 net.cpp:165] Memory required for data: 1447716
I0507 10:39:30.083627  3798 layer_factory.hpp:77] Creating layer relu7_4
I0507 10:39:30.083636  3798 net.cpp:106] Creating Layer relu7_4
I0507 10:39:30.083639  3798 net.cpp:454] relu7_4 <- fc7_4
I0507 10:39:30.083664  3798 net.cpp:397] relu7_4 -> fc7_4 (in-place)
I0507 10:39:30.084080  3798 net.cpp:150] Setting up relu7_4
I0507 10:39:30.084090  3798 net.cpp:157] Top shape: 1 1024 3 3 (9216)
I0507 10:39:30.084094  3798 net.cpp:165] Memory required for data: 1484580
I0507 10:39:30.084096  3798 layer_factory.hpp:77] Creating layer drop7_4
I0507 10:39:30.084100  3798 net.cpp:106] Creating Layer drop7_4
I0507 10:39:30.084102  3798 net.cpp:454] drop7_4 <- fc7_4
I0507 10:39:30.084106  3798 net.cpp:397] drop7_4 -> fc7_4 (in-place)
I0507 10:39:30.084128  3798 net.cpp:150] Setting up drop7_4
I0507 10:39:30.084133  3798 net.cpp:157] Top shape: 1 1024 3 3 (9216)
I0507 10:39:30.084136  3798 net.cpp:165] Memory required for data: 1521444
I0507 10:39:30.084152  3798 layer_factory.hpp:77] Creating layer fc8_._4
I0507 10:39:30.084158  3798 net.cpp:106] Creating Layer fc8_._4
I0507 10:39:30.084161  3798 net.cpp:454] fc8_._4 <- fc7_4
I0507 10:39:30.084166  3798 net.cpp:411] fc8_._4 -> fc8_._4
I0507 10:39:30.086236  3798 net.cpp:150] Setting up fc8_._4
I0507 10:39:30.086251  3798 net.cpp:157] Top shape: 1 21 3 3 (189)
I0507 10:39:30.086252  3798 net.cpp:165] Memory required for data: 1522200
I0507 10:39:30.086259  3798 layer_factory.hpp:77] Creating layer fc8_.
I0507 10:39:30.086282  3798 net.cpp:106] Creating Layer fc8_.
I0507 10:39:30.086287  3798 net.cpp:454] fc8_. <- fc8_._1
I0507 10:39:30.086290  3798 net.cpp:454] fc8_. <- fc8_._2
I0507 10:39:30.086293  3798 net.cpp:454] fc8_. <- fc8_._3
I0507 10:39:30.086297  3798 net.cpp:454] fc8_. <- fc8_._4
I0507 10:39:30.086300  3798 net.cpp:411] fc8_. -> fc8_.
I0507 10:39:30.086369  3798 net.cpp:150] Setting up fc8_.
I0507 10:39:30.086374  3798 net.cpp:157] Top shape: 1 21 3 3 (189)
I0507 10:39:30.086376  3798 net.cpp:165] Memory required for data: 1522956
I0507 10:39:30.086378  3798 layer_factory.hpp:77] Creating layer fc8_interp
I0507 10:39:30.086383  3798 net.cpp:106] Creating Layer fc8_interp
I0507 10:39:30.086387  3798 net.cpp:454] fc8_interp <- fc8_.
I0507 10:39:30.086405  3798 net.cpp:411] fc8_interp -> fc8_interp
I0507 10:39:30.086442  3798 net.cpp:150] Setting up fc8_interp
I0507 10:39:30.086447  3798 net.cpp:157] Top shape: 1 21 17 17 (6069)
I0507 10:39:30.086462  3798 net.cpp:165] Memory required for data: 1547232
I0507 10:39:30.086463  3798 layer_factory.hpp:77] Creating layer fc8_mat
I0507 10:39:30.086469  3798 net.cpp:106] Creating Layer fc8_mat
I0507 10:39:30.086485  3798 net.cpp:454] fc8_mat <- fc8_interp
I0507 10:39:30.098342  3798 mat_write_layer.cpp:30] MatWrite will save a maximum of 1449 files.
I0507 10:39:30.098356  3798 net.cpp:150] Setting up fc8_mat
…
