…
I0506 23:44:54.186336 15032 caffe.cpp:241] GPU device name: GeForce GT 730
I0506 23:44:55.156458 15032 net.cpp:49] Initializing net from parameters: 
name: "deeplab_largeFOV"
state {
  phase: TEST
}
layer {
  name: "data"
  type: "ImageSegData"
  top: "data"
  top: "label"
  top: "data_dim"
  include {
    phase: TEST
  }
  transform_param {
    mirror: false
    crop_size: 513
    mean_value: 104.008
    mean_value: 116.669
    mean_value: 122.675
  }
  image_data_param {
    source: "./list/val.txt"
    batch_size: 1
    root_folder: "/home/king/Documents/image/VOC_aug/dataset/"
    label_type: NONE
  }
}
layer {
  name: "conv1_1"
  type: "Convolution"
  bottom: "data"
  top: "conv1_1"
  convolution_param {
    num_output: 64
    pad: 1
    kernel_size: 3
  }
}
layer {
  name: "relu1_1"
  type: "ReLU"
  bottom: "conv1_1"
  top: "conv1_1"
}
layer {
  name: "conv1_2"
  type: "Convolution"
  bottom: "conv1_1"
  top: "conv1_2"
  convolution_param {
    num_output: 64
    pad: 1
    kernel_size: 3
  }
}
layer {
  name: "relu1_2"
  type: "ReLU"
  bottom: "conv1_2"
  top: "conv1_2"
}
layer {
  name: "pool1"
  type: "Pooling"
  bottom: "conv1_2"
  top: "pool1"
  pooling_param {
    pool: MAX
    kernel_size: 3
    stride: 2
    pad: 1
  }
}
layer {
  name: "conv2_1"
  type: "Convolution"
  bottom: "pool1"
  top: "conv2_1"
  convolution_param {
    num_output: 128
    pad: 1
    kernel_size: 3
  }
}
layer {
  name: "relu2_1"
  type: "ReLU"
  bottom: "conv2_1"
  top: "conv2_1"
}
layer {
  name: "conv2_2"
  type: "Convolution"
  bottom: "conv2_1"
  top: "conv2_2"
  convolution_param {
    num_output: 128
    pad: 1
    kernel_size: 3
  }
}
layer {
  name: "relu2_2"
  type: "ReLU"
  bottom: "conv2_2"
  top: "conv2_2"
}
layer {
  name: "pool2"
  type: "Pooling"
  bottom: "conv2_2"
  top: "pool2"
  pooling_param {
    pool: MAX
    kernel_size: 3
    stride: 2
    pad: 1
  }
}
layer {
  name: "conv3_1"
  type: "Convolution"
  bottom: "pool2"
  top: "conv3_1"
  convolution_param {
    num_output: 256
    pad: 1
    kernel_size: 3
  }
}
layer {
  name: "relu3_1"
  type: "ReLU"
  bottom: "conv3_1"
  top: "conv3_1"
}
layer {
  name: "conv3_2"
  type: "Convolution"
  bottom: "conv3_1"
  top: "conv3_2"
  convolution_param {
    num_output: 256
    pad: 1
    kernel_size: 3
  }
}
layer {
  name: "relu3_2"
  type: "ReLU"
  bottom: "conv3_2"
  top: "conv3_2"
}
layer {
  name: "conv3_3"
  type: "Convolution"
  bottom: "conv3_2"
  top: "conv3_3"
  convolution_param {
    num_output: 256
    pad: 1
    kernel_size: 3
  }
}
layer {
  name: "relu3_3"
  type: "ReLU"
  bottom: "conv3_3"
  top: "conv3_3"
}
layer {
  name: "pool3"
  type: "Pooling"
  bottom: "conv3_3"
  top: "pool3"
  pooling_param {
    pool: MAX
    kernel_size: 3
    stride: 2
    pad: 1
  }
}
layer {
  name: "conv4_1"
  type: "Convolution"
  bottom: "pool3"
  top: "conv4_1"
  convolution_param {
    num_output: 512
    pad: 1
    kernel_size: 3
  }
}
layer {
  name: "relu4_1"
  type: "ReLU"
  bottom: "conv4_1"
  top: "conv4_1"
}
layer {
  name: "conv4_2"
  type: "Convolution"
  bottom: "conv4_1"
  top: "conv4_2"
  convolution_param {
    num_output: 512
    pad: 1
    kernel_size: 3
  }
}
layer {
  name: "relu4_2"
  type: "ReLU"
  bottom: "conv4_2"
  top: "conv4_2"
}
layer {
  name: "conv4_3"
  type: "Convolution"
  bottom: "conv4_2"
  top: "conv4_3"
  convolution_param {
    num_output: 512
    pad: 1
    kernel_size: 3
  }
}
layer {
  name: "relu4_3"
  type: "ReLU"
  bottom: "conv4_3"
  top: "conv4_3"
}
layer {
  name: "pool4"
  type: "Pooling"
  bottom: "conv4_3"
  top: "pool4"
  pooling_param {
    pool: MAX
    kernel_size: 3
    stride: 1
    pad: 1
  }
}
layer {
  name: "conv5_1"
  type: "Convolution"
  bottom: "pool4"
  top: "conv5_1"
  convolution_param {
    num_output: 512
    pad: 2
    kernel_size: 3
    dilation: 2
  }
}
layer {
  name: "relu5_1"
  type: "ReLU"
  bottom: "conv5_1"
  top: "conv5_1"
}
layer {
  name: "conv5_2"
  type: "Convolution"
  bottom: "conv5_1"
  top: "conv5_2"
  convolution_param {
    num_output: 512
    pad: 2
    kernel_size: 3
    dilation: 2
  }
}
layer {
  name: "relu5_2"
  type: "ReLU"
  bottom: "conv5_2"
  top: "conv5_2"
}
layer {
  name: "conv5_3"
  type: "Convolution"
  bottom: "conv5_2"
  top: "conv5_3"
  convolution_param {
    num_output: 512
    pad: 2
    kernel_size: 3
    dilation: 2
  }
}
layer {
  name: "relu5_3"
  type: "ReLU"
  bottom: "conv5_3"
  top: "conv5_3"
}
layer {
  name: "pool5"
  type: "Pooling"
  bottom: "conv5_3"
  top: "pool5"
  pooling_param {
    pool: MAX
    kernel_size: 3
    stride: 1
    pad: 1
  }
}
layer {
  name: "fc6_1"
  type: "Convolution"
  bottom: "pool5"
  top: "fc6_1"
  convolution_param {
    num_output: 1024
    pad: 6
    kernel_size: 3
    dilation: 6
  }
}
layer {
  name: "relu6_1"
  type: "ReLU"
  bottom: "fc6_1"
  top: "fc6_1"
}
layer {
  name: "drop6_1"
  type: "Dropout"
  bottom: "fc6_1"
  top: "fc6_1"
  dropout_param {
    dropout_ratio: 0.5
  }
}
layer {
  name: "fc7_1"
  type: "Convolution"
  bottom: "fc6_1"
  top: "fc7_1"
  convolution_param {
    num_output: 1024
    kernel_size: 1
  }
}
layer {
  name: "relu7_1"
  type: "ReLU"
  bottom: "fc7_1"
  top: "fc7_1"
}
layer {
  name: "drop7_1"
  type: "Dropout"
  bottom: "fc7_1"
  top: "fc7_1"
  dropout_param {
    dropout_ratio: 0.5
  }
}
layer {
  name: "fc8_._1"
  type: "Convolution"
  bottom: "fc7_1"
  top: "fc8_._1"
  convolution_param {
    num_output: 21
    kernel_size: 1
  }
}
layer {
  name: "fc6_2"
  type: "Convolution"
  bottom: "pool5"
  top: "fc6_2"
  convolution_param {
    num_output: 1024
    pad: 12
    kernel_size: 3
    dilation: 12
  }
}
layer {
  name: "relu6_2"
  type: "ReLU"
  bottom: "fc6_2"
  top: "fc6_2"
}
layer {
  name: "drop6_2"
  type: "Dropout"
  bottom: "fc6_2"
  top: "fc6_2"
  dropout_param {
    dropout_ratio: 0.5
  }
}
layer {
  name: "fc7_2"
  type: "Convolution"
  bottom: "fc6_2"
  top: "fc7_2"
  convolution_param {
    num_output: 1024
    kernel_size: 1
  }
}
layer {
  name: "relu7_2"
  type: "ReLU"
  bottom: "fc7_2"
  top: "fc7_2"
}
layer {
  name: "drop7_2"
  type: "Dropout"
  bottom: "fc7_2"
  top: "fc7_2"
  dropout_param {
    dropout_ratio: 0.5
  }
}
layer {
  name: "fc8_._2"
  type: "Convolution"
  bottom: "fc7_2"
  top: "fc8_._2"
  convolution_param {
    num_output: 21
    kernel_size: 1
  }
}
layer {
  name: "fc6_3"
  type: "Convolution"
  bottom: "pool5"
  top: "fc6_3"
  convolution_param {
    num_output: 1024
    pad: 18
    kernel_size: 3
    dilation: 18
  }
}
layer {
  name: "relu6_3"
  type: "ReLU"
  bottom: "fc6_3"
  top: "fc6_3"
}
layer {
  name: "drop6_3"
  type: "Dropout"
  bottom: "fc6_3"
  top: "fc6_3"
  dropout_param {
    dropout_ratio: 0.5
  }
}
layer {
  name: "fc7_3"
  type: "Convolution"
  bottom: "fc6_3"
  top: "fc7_3"
  convolution_param {
    num_output: 1024
    kernel_size: 1
  }
}
layer {
  name: "relu7_3"
  type: "ReLU"
  bottom: "fc7_3"
  top: "fc7_3"
}
layer {
  name: "drop7_3"
  type: "Dropout"
  bottom: "fc7_3"
  top: "fc7_3"
  dropout_param {
    dropout_ratio: 0.5
  }
}
layer {
  name: "fc8_._3"
  type: "Convolution"
  bottom: "fc7_3"
  top: "fc8_._3"
  convolution_param {
    num_output: 21
    kernel_size: 1
  }
}
layer {
  name: "fc6_4"
  type: "Convolution"
  bottom: "pool5"
  top: "fc6_4"
  convolution_param {
    num_output: 1024
    pad: 24
    kernel_size: 3
    dilation: 24
  }
}
layer {
  name: "relu6_4"
  type: "ReLU"
  bottom: "fc6_4"
  top: "fc6_4"
}
layer {
  name: "drop6_4"
  type: "Dropout"
  bottom: "fc6_4"
  top: "fc6_4"
  dropout_param {
    dropout_ratio: 0.5
  }
}
layer {
  name: "fc7_4"
  type: "Convolution"
  bottom: "fc6_4"
  top: "fc7_4"
  convolution_param {
    num_output: 1024
    kernel_size: 1
  }
}
layer {
  name: "relu7_4"
  type: "ReLU"
  bottom: "fc7_4"
  top: "fc7_4"
}
layer {
  name: "drop7_4"
  type: "Dropout"
  bottom: "fc7_4"
  top: "fc7_4"
  dropout_param {
    dropout_ratio: 0.5
  }
}
layer {
  name: "fc8_._4"
  type: "Convolution"
  bottom: "fc7_4"
  top: "fc8_._4"
  convolution_param {
    num_output: 21
    kernel_size: 1
  }
}
layer {
  name: "fc8_."
  type: "Eltwise"
  bottom: "fc8_._1"
  bottom: "fc8_._2"
  bottom: "fc8_._3"
  bottom: "fc8_._4"
  top: "fc8_."
  eltwise_param {
    operation: SUM
  }
}
layer {
  name: "fc8_interp"
  type: "Interp"
  bottom: "fc8_."
  top: "fc8_interp"
  interp_param {
    zoom_factor: 8
  }
}
layer {
  name: "fc8_mat"
  type: "MatWrite"
  bottom: "fc8_interp"
  include {
    phase: TEST
  }
  mat_write_param {
    prefix: "./features/deeplab_largeFOV/val/fc8/"
    source: "./list/val_id.txt"
    strip: 0
    period: 1
  }
}
layer {
  name: "silence"
  type: "Silence"
  bottom: "label"
  bottom: "data_dim"
}
I0506 23:44:55.157568 15032 layer_factory.hpp:77] Creating layer data
I0506 23:44:55.157624 15032 net.cpp:106] Creating Layer data
I0506 23:44:55.157632 15032 net.cpp:411] data -> data
I0506 23:44:55.157649 15032 net.cpp:411] data -> label
I0506 23:44:55.157655 15032 net.cpp:411] data -> data_dim
I0506 23:44:55.157662 15032 image_seg_data_layer.cpp:46] Opening file ./list/val.txt
I0506 23:44:55.158865 15032 image_seg_data_layer.cpp:68] A total of 1449 images.
I0506 23:44:55.373803 15032 image_seg_data_layer.cpp:137] output data size: 1,3,513,513
I0506 23:44:55.373824 15032 image_seg_data_layer.cpp:141] output label size: 1,1,513,513
I0506 23:44:55.373827 15032 image_seg_data_layer.cpp:145] output data_dim size: 1,1,1,2
I0506 23:44:55.408350 15032 net.cpp:150] Setting up data
I0506 23:44:55.408376 15032 net.cpp:157] Top shape: 1 3 513 513 (789507)
I0506 23:44:55.408381 15032 net.cpp:157] Top shape: 1 1 513 513 (263169)
I0506 23:44:55.408385 15032 net.cpp:157] Top shape: 1 1 1 2 (2)
I0506 23:44:55.408386 15032 net.cpp:165] Memory required for data: 4210712
I0506 23:44:55.408393 15032 layer_factory.hpp:77] Creating layer conv1_1
I0506 23:44:55.408411 15032 net.cpp:106] Creating Layer conv1_1
I0506 23:44:55.408416 15032 net.cpp:454] conv1_1 <- data
I0506 23:44:55.408427 15032 net.cpp:411] conv1_1 -> conv1_1
I0506 23:44:58.107075 15032 net.cpp:150] Setting up conv1_1
I0506 23:44:58.107332 15032 net.cpp:157] Top shape: 1 64 513 513 (16842816)
I0506 23:44:58.107408 15032 net.cpp:165] Memory required for data: 71581976
I0506 23:44:58.107478 15032 layer_factory.hpp:77] Creating layer relu1_1
I0506 23:44:58.107522 15032 net.cpp:106] Creating Layer relu1_1
I0506 23:44:58.107554 15032 net.cpp:454] relu1_1 <- conv1_1
I0506 23:44:58.107589 15032 net.cpp:397] relu1_1 -> conv1_1 (in-place)
I0506 23:44:58.108153 15032 net.cpp:150] Setting up relu1_1
I0506 23:44:58.108165 15032 net.cpp:157] Top shape: 1 64 513 513 (16842816)
I0506 23:44:58.108168 15032 net.cpp:165] Memory required for data: 138953240
I0506 23:44:58.108171 15032 layer_factory.hpp:77] Creating layer conv1_2
I0506 23:44:58.108186 15032 net.cpp:106] Creating Layer conv1_2
I0506 23:44:58.108189 15032 net.cpp:454] conv1_2 <- conv1_1
I0506 23:44:58.108194 15032 net.cpp:411] conv1_2 -> conv1_2
I0506 23:44:58.110610 15032 net.cpp:150] Setting up conv1_2
I0506 23:44:58.110625 15032 net.cpp:157] Top shape: 1 64 513 513 (16842816)
I0506 23:44:58.110628 15032 net.cpp:165] Memory required for data: 206324504
I0506 23:44:58.110653 15032 layer_factory.hpp:77] Creating layer relu1_2
I0506 23:44:58.110674 15032 net.cpp:106] Creating Layer relu1_2
I0506 23:44:58.110677 15032 net.cpp:454] relu1_2 <- conv1_2
I0506 23:44:58.110730 15032 net.cpp:397] relu1_2 -> conv1_2 (in-place)
I0506 23:44:58.111220 15032 net.cpp:150] Setting up relu1_2
I0506 23:44:58.111229 15032 net.cpp:157] Top shape: 1 64 513 513 (16842816)
I0506 23:44:58.111232 15032 net.cpp:165] Memory required for data: 273695768
I0506 23:44:58.111235 15032 layer_factory.hpp:77] Creating layer pool1
I0506 23:44:58.111320 15032 net.cpp:106] Creating Layer pool1
I0506 23:44:58.111326 15032 net.cpp:454] pool1 <- conv1_2
I0506 23:44:58.111346 15032 net.cpp:411] pool1 -> pool1
I0506 23:44:58.111399 15032 net.cpp:150] Setting up pool1
I0506 23:44:58.111404 15032 net.cpp:157] Top shape: 1 64 257 257 (4227136)
I0506 23:44:58.111407 15032 net.cpp:165] Memory required for data: 290604312
I0506 23:44:58.111409 15032 layer_factory.hpp:77] Creating layer conv2_1
I0506 23:44:58.111415 15032 net.cpp:106] Creating Layer conv2_1
I0506 23:44:58.111418 15032 net.cpp:454] conv2_1 <- pool1
I0506 23:44:58.111462 15032 net.cpp:411] conv2_1 -> conv2_1
I0506 23:44:58.115185 15032 net.cpp:150] Setting up conv2_1
I0506 23:44:58.115284 15032 net.cpp:157] Top shape: 1 128 257 257 (8454272)
I0506 23:44:58.115298 15032 net.cpp:165] Memory required for data: 324421400
I0506 23:44:58.115322 15032 layer_factory.hpp:77] Creating layer relu2_1
I0506 23:44:58.115334 15032 net.cpp:106] Creating Layer relu2_1
I0506 23:44:58.115336 15032 net.cpp:454] relu2_1 <- conv2_1
I0506 23:44:58.115341 15032 net.cpp:397] relu2_1 -> conv2_1 (in-place)
I0506 23:44:58.115806 15032 net.cpp:150] Setting up relu2_1
I0506 23:44:58.115815 15032 net.cpp:157] Top shape: 1 128 257 257 (8454272)
I0506 23:44:58.115818 15032 net.cpp:165] Memory required for data: 358238488
I0506 23:44:58.115821 15032 layer_factory.hpp:77] Creating layer conv2_2
I0506 23:44:58.115847 15032 net.cpp:106] Creating Layer conv2_2
I0506 23:44:58.115850 15032 net.cpp:454] conv2_2 <- conv2_1
I0506 23:44:58.115897 15032 net.cpp:411] conv2_2 -> conv2_2
I0506 23:44:58.117815 15032 net.cpp:150] Setting up conv2_2
I0506 23:44:58.117825 15032 net.cpp:157] Top shape: 1 128 257 257 (8454272)
I0506 23:44:58.117828 15032 net.cpp:165] Memory required for data: 392055576
I0506 23:44:58.117833 15032 layer_factory.hpp:77] Creating layer relu2_2
I0506 23:44:58.117853 15032 net.cpp:106] Creating Layer relu2_2
I0506 23:44:58.117856 15032 net.cpp:454] relu2_2 <- conv2_2
I0506 23:44:58.117861 15032 net.cpp:397] relu2_2 -> conv2_2 (in-place)
I0506 23:44:58.118363 15032 net.cpp:150] Setting up relu2_2
I0506 23:44:58.118372 15032 net.cpp:157] Top shape: 1 128 257 257 (8454272)
I0506 23:44:58.118376 15032 net.cpp:165] Memory required for data: 425872664
I0506 23:44:58.118377 15032 layer_factory.hpp:77] Creating layer pool2
I0506 23:44:58.118383 15032 net.cpp:106] Creating Layer pool2
I0506 23:44:58.118386 15032 net.cpp:454] pool2 <- conv2_2
I0506 23:44:58.118391 15032 net.cpp:411] pool2 -> pool2
I0506 23:44:58.118428 15032 net.cpp:150] Setting up pool2
I0506 23:44:58.118432 15032 net.cpp:157] Top shape: 1 128 129 129 (2130048)
I0506 23:44:58.118434 15032 net.cpp:165] Memory required for data: 434392856
I0506 23:44:58.118438 15032 layer_factory.hpp:77] Creating layer conv3_1
I0506 23:44:58.118443 15032 net.cpp:106] Creating Layer conv3_1
I0506 23:44:58.118445 15032 net.cpp:454] conv3_1 <- pool2
I0506 23:44:58.118449 15032 net.cpp:411] conv3_1 -> conv3_1
I0506 23:44:58.120774 15032 net.cpp:150] Setting up conv3_1
I0506 23:44:58.120854 15032 net.cpp:157] Top shape: 1 256 129 129 (4260096)
I0506 23:44:58.120888 15032 net.cpp:165] Memory required for data: 451433240
I0506 23:44:58.120930 15032 layer_factory.hpp:77] Creating layer relu3_1
I0506 23:44:58.120967 15032 net.cpp:106] Creating Layer relu3_1
I0506 23:44:58.120999 15032 net.cpp:454] relu3_1 <- conv3_1
I0506 23:44:58.121034 15032 net.cpp:397] relu3_1 -> conv3_1 (in-place)
I0506 23:44:58.121520 15032 net.cpp:150] Setting up relu3_1
I0506 23:44:58.121531 15032 net.cpp:157] Top shape: 1 256 129 129 (4260096)
I0506 23:44:58.121534 15032 net.cpp:165] Memory required for data: 468473624
I0506 23:44:58.121537 15032 layer_factory.hpp:77] Creating layer conv3_2
I0506 23:44:58.121543 15032 net.cpp:106] Creating Layer conv3_2
I0506 23:44:58.121546 15032 net.cpp:454] conv3_2 <- conv3_1
I0506 23:44:58.121551 15032 net.cpp:411] conv3_2 -> conv3_2
I0506 23:44:58.146878 15032 net.cpp:150] Setting up conv3_2
I0506 23:44:58.146900 15032 net.cpp:157] Top shape: 1 256 129 129 (4260096)
I0506 23:44:58.146903 15032 net.cpp:165] Memory required for data: 485514008
I0506 23:44:58.146972 15032 layer_factory.hpp:77] Creating layer relu3_2
I0506 23:44:58.146994 15032 net.cpp:106] Creating Layer relu3_2
I0506 23:44:58.146998 15032 net.cpp:454] relu3_2 <- conv3_2
I0506 23:44:58.147043 15032 net.cpp:397] relu3_2 -> conv3_2 (in-place)
I0506 23:44:58.147428 15032 net.cpp:150] Setting up relu3_2
I0506 23:44:58.147435 15032 net.cpp:157] Top shape: 1 256 129 129 (4260096)
I0506 23:44:58.147439 15032 net.cpp:165] Memory required for data: 502554392
I0506 23:44:58.147465 15032 layer_factory.hpp:77] Creating layer conv3_3
I0506 23:44:58.147473 15032 net.cpp:106] Creating Layer conv3_3
I0506 23:44:58.147490 15032 net.cpp:454] conv3_3 <- conv3_2
I0506 23:44:58.147495 15032 net.cpp:411] conv3_3 -> conv3_3
I0506 23:44:58.150465 15032 net.cpp:150] Setting up conv3_3
I0506 23:44:58.150507 15032 net.cpp:157] Top shape: 1 256 129 129 (4260096)
I0506 23:44:58.150511 15032 net.cpp:165] Memory required for data: 519594776
I0506 23:44:58.150522 15032 layer_factory.hpp:77] Creating layer relu3_3
I0506 23:44:58.150537 15032 net.cpp:106] Creating Layer relu3_3
I0506 23:44:58.150542 15032 net.cpp:454] relu3_3 <- conv3_3
I0506 23:44:58.150549 15032 net.cpp:397] relu3_3 -> conv3_3 (in-place)
I0506 23:44:58.151015 15032 net.cpp:150] Setting up relu3_3
I0506 23:44:58.151028 15032 net.cpp:157] Top shape: 1 256 129 129 (4260096)
I0506 23:44:58.151031 15032 net.cpp:165] Memory required for data: 536635160
I0506 23:44:58.151034 15032 layer_factory.hpp:77] Creating layer pool3
I0506 23:44:58.151042 15032 net.cpp:106] Creating Layer pool3
I0506 23:44:58.151046 15032 net.cpp:454] pool3 <- conv3_3
I0506 23:44:58.151051 15032 net.cpp:411] pool3 -> pool3
I0506 23:44:58.151098 15032 net.cpp:150] Setting up pool3
I0506 23:44:58.151103 15032 net.cpp:157] Top shape: 1 256 65 65 (1081600)
I0506 23:44:58.151104 15032 net.cpp:165] Memory required for data: 540961560
I0506 23:44:58.151106 15032 layer_factory.hpp:77] Creating layer conv4_1
I0506 23:44:58.151114 15032 net.cpp:106] Creating Layer conv4_1
I0506 23:44:58.151118 15032 net.cpp:454] conv4_1 <- pool3
I0506 23:44:58.151124 15032 net.cpp:411] conv4_1 -> conv4_1
I0506 23:44:58.155666 15032 net.cpp:150] Setting up conv4_1
I0506 23:44:58.155692 15032 net.cpp:157] Top shape: 1 512 65 65 (2163200)
I0506 23:44:58.155695 15032 net.cpp:165] Memory required for data: 549614360
I0506 23:44:58.155706 15032 layer_factory.hpp:77] Creating layer relu4_1
I0506 23:44:58.155712 15032 net.cpp:106] Creating Layer relu4_1
I0506 23:44:58.155716 15032 net.cpp:454] relu4_1 <- conv4_1
I0506 23:44:58.155722 15032 net.cpp:397] relu4_1 -> conv4_1 (in-place)
I0506 23:44:58.156132 15032 net.cpp:150] Setting up relu4_1
I0506 23:44:58.156142 15032 net.cpp:157] Top shape: 1 512 65 65 (2163200)
I0506 23:44:58.156146 15032 net.cpp:165] Memory required for data: 558267160
I0506 23:44:58.156148 15032 layer_factory.hpp:77] Creating layer conv4_2
I0506 23:44:58.156155 15032 net.cpp:106] Creating Layer conv4_2
I0506 23:44:58.156158 15032 net.cpp:454] conv4_2 <- conv4_1
I0506 23:44:58.156162 15032 net.cpp:411] conv4_2 -> conv4_2
I0506 23:44:58.167379 15032 net.cpp:150] Setting up conv4_2
I0506 23:44:58.167541 15032 net.cpp:157] Top shape: 1 512 65 65 (2163200)
I0506 23:44:58.167589 15032 net.cpp:165] Memory required for data: 566919960
I0506 23:44:58.167640 15032 layer_factory.hpp:77] Creating layer relu4_2
I0506 23:44:58.167683 15032 net.cpp:106] Creating Layer relu4_2
I0506 23:44:58.167717 15032 net.cpp:454] relu4_2 <- conv4_2
I0506 23:44:58.167753 15032 net.cpp:397] relu4_2 -> conv4_2 (in-place)
I0506 23:44:58.168433 15032 net.cpp:150] Setting up relu4_2
I0506 23:44:58.168490 15032 net.cpp:157] Top shape: 1 512 65 65 (2163200)
I0506 23:44:58.168524 15032 net.cpp:165] Memory required for data: 575572760
I0506 23:44:58.168555 15032 layer_factory.hpp:77] Creating layer conv4_3
I0506 23:44:58.168594 15032 net.cpp:106] Creating Layer conv4_3
I0506 23:44:58.168627 15032 net.cpp:454] conv4_3 <- conv4_2
I0506 23:44:58.168668 15032 net.cpp:411] conv4_3 -> conv4_3
I0506 23:44:58.174862 15032 net.cpp:150] Setting up conv4_3
I0506 23:44:58.175002 15032 net.cpp:157] Top shape: 1 512 65 65 (2163200)
I0506 23:44:58.175036 15032 net.cpp:165] Memory required for data: 584225560
I0506 23:44:58.175072 15032 layer_factory.hpp:77] Creating layer relu4_3
I0506 23:44:58.175117 15032 net.cpp:106] Creating Layer relu4_3
I0506 23:44:58.175150 15032 net.cpp:454] relu4_3 <- conv4_3
I0506 23:44:58.175185 15032 net.cpp:397] relu4_3 -> conv4_3 (in-place)
I0506 23:44:58.175655 15032 net.cpp:150] Setting up relu4_3
I0506 23:44:58.175722 15032 net.cpp:157] Top shape: 1 512 65 65 (2163200)
I0506 23:44:58.175753 15032 net.cpp:165] Memory required for data: 592878360
I0506 23:44:58.175784 15032 layer_factory.hpp:77] Creating layer pool4
I0506 23:44:58.175818 15032 net.cpp:106] Creating Layer pool4
I0506 23:44:58.175849 15032 net.cpp:454] pool4 <- conv4_3
I0506 23:44:58.175882 15032 net.cpp:411] pool4 -> pool4
I0506 23:44:58.175957 15032 net.cpp:150] Setting up pool4
I0506 23:44:58.175994 15032 net.cpp:157] Top shape: 1 512 65 65 (2163200)
I0506 23:44:58.176025 15032 net.cpp:165] Memory required for data: 601531160
I0506 23:44:58.176055 15032 layer_factory.hpp:77] Creating layer conv5_1
I0506 23:44:58.176090 15032 net.cpp:106] Creating Layer conv5_1
I0506 23:44:58.176121 15032 net.cpp:454] conv5_1 <- pool4
I0506 23:44:58.176154 15032 net.cpp:411] conv5_1 -> conv5_1
I0506 23:44:58.181164 15032 net.cpp:150] Setting up conv5_1
I0506 23:44:58.181205 15032 net.cpp:157] Top shape: 1 512 65 65 (2163200)
I0506 23:44:58.181207 15032 net.cpp:165] Memory required for data: 610183960
I0506 23:44:58.181228 15032 layer_factory.hpp:77] Creating layer relu5_1
I0506 23:44:58.181239 15032 net.cpp:106] Creating Layer relu5_1
I0506 23:44:58.181244 15032 net.cpp:454] relu5_1 <- conv5_1
I0506 23:44:58.181320 15032 net.cpp:397] relu5_1 -> conv5_1 (in-place)
I0506 23:44:58.181953 15032 net.cpp:150] Setting up relu5_1
I0506 23:44:58.182034 15032 net.cpp:157] Top shape: 1 512 65 65 (2163200)
I0506 23:44:58.182066 15032 net.cpp:165] Memory required for data: 618836760
I0506 23:44:58.182098 15032 layer_factory.hpp:77] Creating layer conv5_2
I0506 23:44:58.182134 15032 net.cpp:106] Creating Layer conv5_2
I0506 23:44:58.182165 15032 net.cpp:454] conv5_2 <- conv5_1
I0506 23:44:58.182201 15032 net.cpp:411] conv5_2 -> conv5_2
I0506 23:44:58.191820 15032 net.cpp:150] Setting up conv5_2
I0506 23:44:58.191968 15032 net.cpp:157] Top shape: 1 512 65 65 (2163200)
I0506 23:44:58.192001 15032 net.cpp:165] Memory required for data: 627489560
I0506 23:44:58.192040 15032 layer_factory.hpp:77] Creating layer relu5_2
I0506 23:44:58.192078 15032 net.cpp:106] Creating Layer relu5_2
I0506 23:44:58.192111 15032 net.cpp:454] relu5_2 <- conv5_2
I0506 23:44:58.192147 15032 net.cpp:397] relu5_2 -> conv5_2 (in-place)
I0506 23:44:58.192806 15032 net.cpp:150] Setting up relu5_2
I0506 23:44:58.192868 15032 net.cpp:157] Top shape: 1 512 65 65 (2163200)
I0506 23:44:58.192900 15032 net.cpp:165] Memory required for data: 636142360
I0506 23:44:58.192931 15032 layer_factory.hpp:77] Creating layer conv5_3
I0506 23:44:58.192971 15032 net.cpp:106] Creating Layer conv5_3
I0506 23:44:58.192987 15032 net.cpp:454] conv5_3 <- conv5_2
I0506 23:44:58.193002 15032 net.cpp:411] conv5_3 -> conv5_3
I0506 23:44:58.198109 15032 net.cpp:150] Setting up conv5_3
I0506 23:44:58.198204 15032 net.cpp:157] Top shape: 1 512 65 65 (2163200)
I0506 23:44:58.198240 15032 net.cpp:165] Memory required for data: 644795160
I0506 23:44:58.198279 15032 layer_factory.hpp:77] Creating layer relu5_3
I0506 23:44:58.198315 15032 net.cpp:106] Creating Layer relu5_3
I0506 23:44:58.198348 15032 net.cpp:454] relu5_3 <- conv5_3
I0506 23:44:58.198384 15032 net.cpp:397] relu5_3 -> conv5_3 (in-place)
I0506 23:44:58.198763 15032 net.cpp:150] Setting up relu5_3
I0506 23:44:58.198806 15032 net.cpp:157] Top shape: 1 512 65 65 (2163200)
I0506 23:44:58.198837 15032 net.cpp:165] Memory required for data: 653447960
I0506 23:44:58.198868 15032 layer_factory.hpp:77] Creating layer pool5
I0506 23:44:58.198902 15032 net.cpp:106] Creating Layer pool5
I0506 23:44:58.198935 15032 net.cpp:454] pool5 <- conv5_3
I0506 23:44:58.198966 15032 net.cpp:411] pool5 -> pool5
I0506 23:44:58.199045 15032 net.cpp:150] Setting up pool5
I0506 23:44:58.199082 15032 net.cpp:157] Top shape: 1 512 65 65 (2163200)
I0506 23:44:58.199120 15032 net.cpp:165] Memory required for data: 662100760
I0506 23:44:58.199151 15032 layer_factory.hpp:77] Creating layer pool5_pool5_0_split
I0506 23:44:58.199188 15032 net.cpp:106] Creating Layer pool5_pool5_0_split
I0506 23:44:58.199221 15032 net.cpp:454] pool5_pool5_0_split <- pool5
I0506 23:44:58.199262 15032 net.cpp:411] pool5_pool5_0_split -> pool5_pool5_0_split_0
I0506 23:44:58.199296 15032 net.cpp:411] pool5_pool5_0_split -> pool5_pool5_0_split_1
I0506 23:44:58.199331 15032 net.cpp:411] pool5_pool5_0_split -> pool5_pool5_0_split_2
I0506 23:44:58.199364 15032 net.cpp:411] pool5_pool5_0_split -> pool5_pool5_0_split_3
I0506 23:44:58.199458 15032 net.cpp:150] Setting up pool5_pool5_0_split
I0506 23:44:58.199494 15032 net.cpp:157] Top shape: 1 512 65 65 (2163200)
I0506 23:44:58.199527 15032 net.cpp:157] Top shape: 1 512 65 65 (2163200)
I0506 23:44:58.199558 15032 net.cpp:157] Top shape: 1 512 65 65 (2163200)
I0506 23:44:58.199589 15032 net.cpp:157] Top shape: 1 512 65 65 (2163200)
I0506 23:44:58.199620 15032 net.cpp:165] Memory required for data: 696711960
I0506 23:44:58.199651 15032 layer_factory.hpp:77] Creating layer fc6_1
I0506 23:44:58.199685 15032 net.cpp:106] Creating Layer fc6_1
I0506 23:44:58.199717 15032 net.cpp:454] fc6_1 <- pool5_pool5_0_split_0
I0506 23:44:58.199751 15032 net.cpp:411] fc6_1 -> fc6_1
I0506 23:44:58.218560 15032 net.cpp:150] Setting up fc6_1
I0506 23:44:58.218698 15032 net.cpp:157] Top shape: 1 1024 65 65 (4326400)
I0506 23:44:58.218731 15032 net.cpp:165] Memory required for data: 714017560
I0506 23:44:58.218770 15032 layer_factory.hpp:77] Creating layer relu6_1
I0506 23:44:58.219310 15032 net.cpp:106] Creating Layer relu6_1
I0506 23:44:58.219362 15032 net.cpp:454] relu6_1 <- fc6_1
I0506 23:44:58.219406 15032 net.cpp:397] relu6_1 -> fc6_1 (in-place)
I0506 23:44:58.220366 15032 net.cpp:150] Setting up relu6_1
I0506 23:44:58.220492 15032 net.cpp:157] Top shape: 1 1024 65 65 (4326400)
I0506 23:44:58.220526 15032 net.cpp:165] Memory required for data: 731323160
I0506 23:44:58.220561 15032 layer_factory.hpp:77] Creating layer drop6_1
I0506 23:44:58.220605 15032 net.cpp:106] Creating Layer drop6_1
I0506 23:44:58.220638 15032 net.cpp:454] drop6_1 <- fc6_1
I0506 23:44:58.220677 15032 net.cpp:397] drop6_1 -> fc6_1 (in-place)
I0506 23:44:58.220782 15032 net.cpp:150] Setting up drop6_1
I0506 23:44:58.220836 15032 net.cpp:157] Top shape: 1 1024 65 65 (4326400)
I0506 23:44:58.220867 15032 net.cpp:165] Memory required for data: 748628760
I0506 23:44:58.220897 15032 layer_factory.hpp:77] Creating layer fc7_1
I0506 23:44:58.220932 15032 net.cpp:106] Creating Layer fc7_1
I0506 23:44:58.220964 15032 net.cpp:454] fc7_1 <- fc6_1
I0506 23:44:58.221004 15032 net.cpp:411] fc7_1 -> fc7_1
I0506 23:44:58.224815 15032 net.cpp:150] Setting up fc7_1
I0506 23:44:58.224944 15032 net.cpp:157] Top shape: 1 1024 65 65 (4326400)
I0506 23:44:58.224979 15032 net.cpp:165] Memory required for data: 765934360
I0506 23:44:58.225019 15032 layer_factory.hpp:77] Creating layer relu7_1
I0506 23:44:58.225042 15032 net.cpp:106] Creating Layer relu7_1
I0506 23:44:58.225057 15032 net.cpp:454] relu7_1 <- fc7_1
I0506 23:44:58.225072 15032 net.cpp:397] relu7_1 -> fc7_1 (in-place)
I0506 23:44:58.225528 15032 net.cpp:150] Setting up relu7_1
I0506 23:44:58.225551 15032 net.cpp:157] Top shape: 1 1024 65 65 (4326400)
I0506 23:44:58.225565 15032 net.cpp:165] Memory required for data: 783239960
I0506 23:44:58.225577 15032 layer_factory.hpp:77] Creating layer drop7_1
I0506 23:44:58.225594 15032 net.cpp:106] Creating Layer drop7_1
I0506 23:44:58.225606 15032 net.cpp:454] drop7_1 <- fc7_1
I0506 23:44:58.225620 15032 net.cpp:397] drop7_1 -> fc7_1 (in-place)
I0506 23:44:58.225659 15032 net.cpp:150] Setting up drop7_1
I0506 23:44:58.225675 15032 net.cpp:157] Top shape: 1 1024 65 65 (4326400)
I0506 23:44:58.225688 15032 net.cpp:165] Memory required for data: 800545560
I0506 23:44:58.225700 15032 layer_factory.hpp:77] Creating layer fc8_._1
I0506 23:44:58.225716 15032 net.cpp:106] Creating Layer fc8_._1
I0506 23:44:58.225738 15032 net.cpp:454] fc8_._1 <- fc7_1
I0506 23:44:58.225754 15032 net.cpp:411] fc8_._1 -> fc8_._1
I0506 23:44:58.228044 15032 net.cpp:150] Setting up fc8_._1
I0506 23:44:58.228071 15032 net.cpp:157] Top shape: 1 21 65 65 (88725)
I0506 23:44:58.228086 15032 net.cpp:165] Memory required for data: 800900460
I0506 23:44:58.228111 15032 layer_factory.hpp:77] Creating layer fc6_2
I0506 23:44:58.228129 15032 net.cpp:106] Creating Layer fc6_2
I0506 23:44:58.228142 15032 net.cpp:454] fc6_2 <- pool5_pool5_0_split_1
I0506 23:44:58.228158 15032 net.cpp:411] fc6_2 -> fc6_2
I0506 23:44:58.244784 15032 net.cpp:150] Setting up fc6_2
I0506 23:44:58.244925 15032 net.cpp:157] Top shape: 1 1024 65 65 (4326400)
I0506 23:44:58.244958 15032 net.cpp:165] Memory required for data: 818206060
I0506 23:44:58.245007 15032 layer_factory.hpp:77] Creating layer relu6_2
I0506 23:44:58.245043 15032 net.cpp:106] Creating Layer relu6_2
I0506 23:44:58.245075 15032 net.cpp:454] relu6_2 <- fc6_2
I0506 23:44:58.245110 15032 net.cpp:397] relu6_2 -> fc6_2 (in-place)
I0506 23:44:58.245739 15032 net.cpp:150] Setting up relu6_2
I0506 23:44:58.245800 15032 net.cpp:157] Top shape: 1 1024 65 65 (4326400)
I0506 23:44:58.245831 15032 net.cpp:165] Memory required for data: 835511660
I0506 23:44:58.245862 15032 layer_factory.hpp:77] Creating layer drop6_2
I0506 23:44:58.245898 15032 net.cpp:106] Creating Layer drop6_2
I0506 23:44:58.245929 15032 net.cpp:454] drop6_2 <- fc6_2
I0506 23:44:58.245961 15032 net.cpp:397] drop6_2 -> fc6_2 (in-place)
I0506 23:44:58.246029 15032 net.cpp:150] Setting up drop6_2
I0506 23:44:58.246067 15032 net.cpp:157] Top shape: 1 1024 65 65 (4326400)
I0506 23:44:58.246096 15032 net.cpp:165] Memory required for data: 852817260
I0506 23:44:58.246126 15032 layer_factory.hpp:77] Creating layer fc7_2
I0506 23:44:58.246162 15032 net.cpp:106] Creating Layer fc7_2
I0506 23:44:58.246194 15032 net.cpp:454] fc7_2 <- fc6_2
I0506 23:44:58.246227 15032 net.cpp:411] fc7_2 -> fc7_2
I0506 23:44:58.249689 15032 net.cpp:150] Setting up fc7_2
I0506 23:44:58.249820 15032 net.cpp:157] Top shape: 1 1024 65 65 (4326400)
I0506 23:44:58.249855 15032 net.cpp:165] Memory required for data: 870122860
I0506 23:44:58.249891 15032 layer_factory.hpp:77] Creating layer relu7_2
I0506 23:44:58.249927 15032 net.cpp:106] Creating Layer relu7_2
I0506 23:44:58.249959 15032 net.cpp:454] relu7_2 <- fc7_2
I0506 23:44:58.250007 15032 net.cpp:397] relu7_2 -> fc7_2 (in-place)
I0506 23:44:58.250334 15032 net.cpp:150] Setting up relu7_2
I0506 23:44:58.250391 15032 net.cpp:157] Top shape: 1 1024 65 65 (4326400)
I0506 23:44:58.250422 15032 net.cpp:165] Memory required for data: 887428460
I0506 23:44:58.250452 15032 layer_factory.hpp:77] Creating layer drop7_2
I0506 23:44:58.250485 15032 net.cpp:106] Creating Layer drop7_2
I0506 23:44:58.250517 15032 net.cpp:454] drop7_2 <- fc7_2
I0506 23:44:58.250550 15032 net.cpp:397] drop7_2 -> fc7_2 (in-place)
I0506 23:44:58.250609 15032 net.cpp:150] Setting up drop7_2
I0506 23:44:58.250646 15032 net.cpp:157] Top shape: 1 1024 65 65 (4326400)
I0506 23:44:58.250677 15032 net.cpp:165] Memory required for data: 904734060
I0506 23:44:58.250707 15032 layer_factory.hpp:77] Creating layer fc8_._2
I0506 23:44:58.250741 15032 net.cpp:106] Creating Layer fc8_._2
I0506 23:44:58.250772 15032 net.cpp:454] fc8_._2 <- fc7_2
I0506 23:44:58.250805 15032 net.cpp:411] fc8_._2 -> fc8_._2
I0506 23:44:58.252456 15032 net.cpp:150] Setting up fc8_._2
I0506 23:44:58.252552 15032 net.cpp:157] Top shape: 1 21 65 65 (88725)
I0506 23:44:58.252585 15032 net.cpp:165] Memory required for data: 905088960
I0506 23:44:58.252621 15032 layer_factory.hpp:77] Creating layer fc6_3
I0506 23:44:58.252660 15032 net.cpp:106] Creating Layer fc6_3
I0506 23:44:58.252693 15032 net.cpp:454] fc6_3 <- pool5_pool5_0_split_2
I0506 23:44:58.252728 15032 net.cpp:411] fc6_3 -> fc6_3
I0506 23:44:58.271193 15032 net.cpp:150] Setting up fc6_3
I0506 23:44:58.271306 15032 net.cpp:157] Top shape: 1 1024 65 65 (4326400)
I0506 23:44:58.271338 15032 net.cpp:165] Memory required for data: 922394560
I0506 23:44:58.271381 15032 layer_factory.hpp:77] Creating layer relu6_3
I0506 23:44:58.271417 15032 net.cpp:106] Creating Layer relu6_3
I0506 23:44:58.271450 15032 net.cpp:454] relu6_3 <- fc6_3
I0506 23:44:58.271484 15032 net.cpp:397] relu6_3 -> fc6_3 (in-place)
I0506 23:44:58.272119 15032 net.cpp:150] Setting up relu6_3
I0506 23:44:58.272195 15032 net.cpp:157] Top shape: 1 1024 65 65 (4326400)
I0506 23:44:58.272228 15032 net.cpp:165] Memory required for data: 939700160
I0506 23:44:58.272261 15032 layer_factory.hpp:77] Creating layer drop6_3
I0506 23:44:58.272298 15032 net.cpp:106] Creating Layer drop6_3
I0506 23:44:58.272330 15032 net.cpp:454] drop6_3 <- fc6_3
I0506 23:44:58.272368 15032 net.cpp:397] drop6_3 -> fc6_3 (in-place)
I0506 23:44:58.272461 15032 net.cpp:150] Setting up drop6_3
I0506 23:44:58.272502 15032 net.cpp:157] Top shape: 1 1024 65 65 (4326400)
I0506 23:44:58.272534 15032 net.cpp:165] Memory required for data: 957005760
I0506 23:44:58.272565 15032 layer_factory.hpp:77] Creating layer fc7_3
I0506 23:44:58.272603 15032 net.cpp:106] Creating Layer fc7_3
I0506 23:44:58.272635 15032 net.cpp:454] fc7_3 <- fc6_3
I0506 23:44:58.272675 15032 net.cpp:411] fc7_3 -> fc7_3
I0506 23:44:58.277308 15032 net.cpp:150] Setting up fc7_3
I0506 23:44:58.277447 15032 net.cpp:157] Top shape: 1 1024 65 65 (4326400)
I0506 23:44:58.277482 15032 net.cpp:165] Memory required for data: 974311360
I0506 23:44:58.277518 15032 layer_factory.hpp:77] Creating layer relu7_3
I0506 23:44:58.277559 15032 net.cpp:106] Creating Layer relu7_3
I0506 23:44:58.277591 15032 net.cpp:454] relu7_3 <- fc7_3
I0506 23:44:58.277626 15032 net.cpp:397] relu7_3 -> fc7_3 (in-place)
I0506 23:44:58.278120 15032 net.cpp:150] Setting up relu7_3
I0506 23:44:58.278180 15032 net.cpp:157] Top shape: 1 1024 65 65 (4326400)
I0506 23:44:58.278214 15032 net.cpp:165] Memory required for data: 991616960
I0506 23:44:58.278245 15032 layer_factory.hpp:77] Creating layer drop7_3
I0506 23:44:58.278277 15032 net.cpp:106] Creating Layer drop7_3
I0506 23:44:58.278308 15032 net.cpp:454] drop7_3 <- fc7_3
I0506 23:44:58.278342 15032 net.cpp:397] drop7_3 -> fc7_3 (in-place)
I0506 23:44:58.278400 15032 net.cpp:150] Setting up drop7_3
I0506 23:44:58.278435 15032 net.cpp:157] Top shape: 1 1024 65 65 (4326400)
I0506 23:44:58.278465 15032 net.cpp:165] Memory required for data: 1008922560
I0506 23:44:58.278496 15032 layer_factory.hpp:77] Creating layer fc8_._3
I0506 23:44:58.278532 15032 net.cpp:106] Creating Layer fc8_._3
I0506 23:44:58.278563 15032 net.cpp:454] fc8_._3 <- fc7_3
I0506 23:44:58.278596 15032 net.cpp:411] fc8_._3 -> fc8_._3
I0506 23:44:58.280264 15032 net.cpp:150] Setting up fc8_._3
I0506 23:44:58.280329 15032 net.cpp:157] Top shape: 1 21 65 65 (88725)
I0506 23:44:58.280362 15032 net.cpp:165] Memory required for data: 1009277460
I0506 23:44:58.280396 15032 layer_factory.hpp:77] Creating layer fc6_4
I0506 23:44:58.280433 15032 net.cpp:106] Creating Layer fc6_4
I0506 23:44:58.280465 15032 net.cpp:454] fc6_4 <- pool5_pool5_0_split_3
I0506 23:44:58.280500 15032 net.cpp:411] fc6_4 -> fc6_4
I0506 23:44:58.295560 15032 net.cpp:150] Setting up fc6_4
I0506 23:44:58.295706 15032 net.cpp:157] Top shape: 1 1024 65 65 (4326400)
I0506 23:44:58.295739 15032 net.cpp:165] Memory required for data: 1026583060
I0506 23:44:58.295779 15032 layer_factory.hpp:77] Creating layer relu6_4
I0506 23:44:58.295815 15032 net.cpp:106] Creating Layer relu6_4
I0506 23:44:58.295847 15032 net.cpp:454] relu6_4 <- fc6_4
I0506 23:44:58.295882 15032 net.cpp:397] relu6_4 -> fc6_4 (in-place)
I0506 23:44:58.296519 15032 net.cpp:150] Setting up relu6_4
I0506 23:44:58.296582 15032 net.cpp:157] Top shape: 1 1024 65 65 (4326400)
I0506 23:44:58.296614 15032 net.cpp:165] Memory required for data: 1043888660
I0506 23:44:58.296645 15032 layer_factory.hpp:77] Creating layer drop6_4
I0506 23:44:58.296679 15032 net.cpp:106] Creating Layer drop6_4
I0506 23:44:58.296710 15032 net.cpp:454] drop6_4 <- fc6_4
I0506 23:44:58.296744 15032 net.cpp:397] drop6_4 -> fc6_4 (in-place)
I0506 23:44:58.296802 15032 net.cpp:150] Setting up drop6_4
I0506 23:44:58.296844 15032 net.cpp:157] Top shape: 1 1024 65 65 (4326400)
I0506 23:44:58.296875 15032 net.cpp:165] Memory required for data: 1061194260
I0506 23:44:58.296905 15032 layer_factory.hpp:77] Creating layer fc7_4
I0506 23:44:58.296941 15032 net.cpp:106] Creating Layer fc7_4
I0506 23:44:58.296972 15032 net.cpp:454] fc7_4 <- fc6_4
I0506 23:44:58.297014 15032 net.cpp:411] fc7_4 -> fc7_4
I0506 23:44:58.300591 15032 net.cpp:150] Setting up fc7_4
I0506 23:44:58.300688 15032 net.cpp:157] Top shape: 1 1024 65 65 (4326400)
I0506 23:44:58.300719 15032 net.cpp:165] Memory required for data: 1078499860
I0506 23:44:58.300756 15032 layer_factory.hpp:77] Creating layer relu7_4
I0506 23:44:58.300794 15032 net.cpp:106] Creating Layer relu7_4
I0506 23:44:58.300827 15032 net.cpp:454] relu7_4 <- fc7_4
I0506 23:44:58.300861 15032 net.cpp:397] relu7_4 -> fc7_4 (in-place)
I0506 23:44:58.301388 15032 net.cpp:150] Setting up relu7_4
I0506 23:44:58.301453 15032 net.cpp:157] Top shape: 1 1024 65 65 (4326400)
I0506 23:44:58.301486 15032 net.cpp:165] Memory required for data: 1095805460
I0506 23:44:58.301517 15032 layer_factory.hpp:77] Creating layer drop7_4
I0506 23:44:58.301553 15032 net.cpp:106] Creating Layer drop7_4
I0506 23:44:58.301586 15032 net.cpp:454] drop7_4 <- fc7_4
I0506 23:44:58.301621 15032 net.cpp:397] drop7_4 -> fc7_4 (in-place)
I0506 23:44:58.301703 15032 net.cpp:150] Setting up drop7_4
I0506 23:44:58.301739 15032 net.cpp:157] Top shape: 1 1024 65 65 (4326400)
I0506 23:44:58.301769 15032 net.cpp:165] Memory required for data: 1113111060
I0506 23:44:58.301800 15032 layer_factory.hpp:77] Creating layer fc8_._4
I0506 23:44:58.301836 15032 net.cpp:106] Creating Layer fc8_._4
I0506 23:44:58.301867 15032 net.cpp:454] fc8_._4 <- fc7_4
I0506 23:44:58.302129 15032 net.cpp:411] fc8_._4 -> fc8_._4
I0506 23:44:58.305856 15032 net.cpp:150] Setting up fc8_._4
I0506 23:44:58.306051 15032 net.cpp:157] Top shape: 1 21 65 65 (88725)
I0506 23:44:58.306089 15032 net.cpp:165] Memory required for data: 1113465960
I0506 23:44:58.306130 15032 layer_factory.hpp:77] Creating layer fc8_.
I0506 23:44:58.306177 15032 net.cpp:106] Creating Layer fc8_.
I0506 23:44:58.306210 15032 net.cpp:454] fc8_. <- fc8_._1
I0506 23:44:58.306248 15032 net.cpp:454] fc8_. <- fc8_._2
I0506 23:44:58.306280 15032 net.cpp:454] fc8_. <- fc8_._3
I0506 23:44:58.306313 15032 net.cpp:454] fc8_. <- fc8_._4
I0506 23:44:58.306346 15032 net.cpp:411] fc8_. -> fc8_.
I0506 23:44:58.306427 15032 net.cpp:150] Setting up fc8_.
I0506 23:44:58.306463 15032 net.cpp:157] Top shape: 1 21 65 65 (88725)
I0506 23:44:58.306494 15032 net.cpp:165] Memory required for data: 1113820860
I0506 23:44:58.306525 15032 layer_factory.hpp:77] Creating layer fc8_interp
I0506 23:44:58.306560 15032 net.cpp:106] Creating Layer fc8_interp
I0506 23:44:58.306591 15032 net.cpp:454] fc8_interp <- fc8_.
I0506 23:44:58.306627 15032 net.cpp:411] fc8_interp -> fc8_interp
I0506 23:44:58.306689 15032 net.cpp:150] Setting up fc8_interp
I0506 23:44:58.306725 15032 net.cpp:157] Top shape: 1 21 513 513 (5526549)
I0506 23:44:58.306757 15032 net.cpp:165] Memory required for data: 1135927056
I0506 23:44:58.306771 15032 layer_factory.hpp:77] Creating layer fc8_mat
I0506 23:44:58.306790 15032 net.cpp:106] Creating Layer fc8_mat
I0506 23:44:58.306803 15032 net.cpp:454] fc8_mat <- fc8_interp
I0506 23:44:58.319818 15032 mat_write_layer.cpp:30] MatWrite will save a maximum of 1449 files.
I0506 23:44:58.319891 15032 net.cpp:150] Setting up fc8_mat
…
