…
I0507 11:06:49.364986  4758 caffe.cpp:241] GPU device name: GeForce GT 730
I0507 11:06:49.523316  4758 net.cpp:49] Initializing net from parameters: 
name: "deeplab_largeFOV"
state {
  phase: TEST
}
layer {
  name: "data"
  type: "ImageSegData"
  top: "data"
  top: "label"
  top: "data_dim"
  include {
    phase: TEST
  }
  transform_param {
    mirror: false
    crop_size: 10
    mean_value: 104.008
    mean_value: 116.669
    mean_value: 122.675
  }
  image_data_param {
    source: "./list/val.txt"
    batch_size: 1
    root_folder: "/home/king/Documents/image/VOC_aug/dataset/"
    label_type: NONE
  }
}
layer {
  name: "conv1_1"
  type: "Convolution"
  bottom: "data"
  top: "conv1_1"
  convolution_param {
    num_output: 64
    pad: 1
    kernel_size: 3
  }
}
layer {
  name: "relu1_1"
  type: "ReLU"
  bottom: "conv1_1"
  top: "conv1_1"
}
layer {
  name: "conv1_2"
  type: "Convolution"
  bottom: "conv1_1"
  top: "conv1_2"
  convolution_param {
    num_output: 64
    pad: 1
    kernel_size: 3
  }
}
layer {
  name: "relu1_2"
  type: "ReLU"
  bottom: "conv1_2"
  top: "conv1_2"
}
layer {
  name: "pool1"
  type: "Pooling"
  bottom: "conv1_2"
  top: "pool1"
  pooling_param {
    pool: MAX
    kernel_size: 3
    stride: 2
    pad: 1
  }
}
layer {
  name: "conv2_1"
  type: "Convolution"
  bottom: "pool1"
  top: "conv2_1"
  convolution_param {
    num_output: 128
    pad: 1
    kernel_size: 3
  }
}
layer {
  name: "relu2_1"
  type: "ReLU"
  bottom: "conv2_1"
  top: "conv2_1"
}
layer {
  name: "conv2_2"
  type: "Convolution"
  bottom: "conv2_1"
  top: "conv2_2"
  convolution_param {
    num_output: 128
    pad: 1
    kernel_size: 3
  }
}
layer {
  name: "relu2_2"
  type: "ReLU"
  bottom: "conv2_2"
  top: "conv2_2"
}
layer {
  name: "pool2"
  type: "Pooling"
  bottom: "conv2_2"
  top: "pool2"
  pooling_param {
    pool: MAX
    kernel_size: 3
    stride: 2
    pad: 1
  }
}
layer {
  name: "conv3_1"
  type: "Convolution"
  bottom: "pool2"
  top: "conv3_1"
  convolution_param {
    num_output: 256
    pad: 1
    kernel_size: 3
  }
}
layer {
  name: "relu3_1"
  type: "ReLU"
  bottom: "conv3_1"
  top: "conv3_1"
}
layer {
  name: "conv3_2"
  type: "Convolution"
  bottom: "conv3_1"
  top: "conv3_2"
  convolution_param {
    num_output: 256
    pad: 1
    kernel_size: 3
  }
}
layer {
  name: "relu3_2"
  type: "ReLU"
  bottom: "conv3_2"
  top: "conv3_2"
}
layer {
  name: "conv3_3"
  type: "Convolution"
  bottom: "conv3_2"
  top: "conv3_3"
  convolution_param {
    num_output: 256
    pad: 1
    kernel_size: 3
  }
}
layer {
  name: "relu3_3"
  type: "ReLU"
  bottom: "conv3_3"
  top: "conv3_3"
}
layer {
  name: "pool3"
  type: "Pooling"
  bottom: "conv3_3"
  top: "pool3"
  pooling_param {
    pool: MAX
    kernel_size: 3
    stride: 2
    pad: 1
  }
}
layer {
  name: "conv4_1"
  type: "Convolution"
  bottom: "pool3"
  top: "conv4_1"
  convolution_param {
    num_output: 512
    pad: 1
    kernel_size: 3
  }
}
layer {
  name: "relu4_1"
  type: "ReLU"
  bottom: "conv4_1"
  top: "conv4_1"
}
layer {
  name: "conv4_2"
  type: "Convolution"
  bottom: "conv4_1"
  top: "conv4_2"
  convolution_param {
    num_output: 512
    pad: 1
    kernel_size: 3
  }
}
layer {
  name: "relu4_2"
  type: "ReLU"
  bottom: "conv4_2"
  top: "conv4_2"
}
layer {
  name: "conv4_3"
  type: "Convolution"
  bottom: "conv4_2"
  top: "conv4_3"
  convolution_param {
    num_output: 512
    pad: 1
    kernel_size: 3
  }
}
layer {
  name: "relu4_3"
  type: "ReLU"
  bottom: "conv4_3"
  top: "conv4_3"
}
layer {
  name: "pool4"
  type: "Pooling"
  bottom: "conv4_3"
  top: "pool4"
  pooling_param {
    pool: MAX
    kernel_size: 3
    stride: 1
    pad: 1
  }
}
layer {
  name: "conv5_1"
  type: "Convolution"
  bottom: "pool4"
  top: "conv5_1"
  convolution_param {
    num_output: 512
    pad: 2
    kernel_size: 3
    dilation: 2
  }
}
layer {
  name: "relu5_1"
  type: "ReLU"
  bottom: "conv5_1"
  top: "conv5_1"
}
layer {
  name: "conv5_2"
  type: "Convolution"
  bottom: "conv5_1"
  top: "conv5_2"
  convolution_param {
    num_output: 512
    pad: 2
    kernel_size: 3
    dilation: 2
  }
}
layer {
  name: "relu5_2"
  type: "ReLU"
  bottom: "conv5_2"
  top: "conv5_2"
}
layer {
  name: "conv5_3"
  type: "Convolution"
  bottom: "conv5_2"
  top: "conv5_3"
  convolution_param {
    num_output: 512
    pad: 2
    kernel_size: 3
    dilation: 2
  }
}
layer {
  name: "relu5_3"
  type: "ReLU"
  bottom: "conv5_3"
  top: "conv5_3"
}
layer {
  name: "pool5"
  type: "Pooling"
  bottom: "conv5_3"
  top: "pool5"
  pooling_param {
    pool: MAX
    kernel_size: 3
    stride: 1
    pad: 1
  }
}
layer {
  name: "fc6_1"
  type: "Convolution"
  bottom: "pool5"
  top: "fc6_1"
  convolution_param {
    num_output: 1024
    pad: 6
    kernel_size: 3
    dilation: 6
  }
}
layer {
  name: "relu6_1"
  type: "ReLU"
  bottom: "fc6_1"
  top: "fc6_1"
}
layer {
  name: "drop6_1"
  type: "Dropout"
  bottom: "fc6_1"
  top: "fc6_1"
  dropout_param {
    dropout_ratio: 0.5
  }
}
layer {
  name: "fc7_1"
  type: "Convolution"
  bottom: "fc6_1"
  top: "fc7_1"
  convolution_param {
    num_output: 1024
    kernel_size: 1
  }
}
layer {
  name: "relu7_1"
  type: "ReLU"
  bottom: "fc7_1"
  top: "fc7_1"
}
layer {
  name: "drop7_1"
  type: "Dropout"
  bottom: "fc7_1"
  top: "fc7_1"
  dropout_param {
    dropout_ratio: 0.5
  }
}
layer {
  name: "fc8_._1"
  type: "Convolution"
  bottom: "fc7_1"
  top: "fc8_._1"
  convolution_param {
    num_output: 21
    kernel_size: 1
  }
}
layer {
  name: "fc6_2"
  type: "Convolution"
  bottom: "pool5"
  top: "fc6_2"
  convolution_param {
    num_output: 1024
    pad: 12
    kernel_size: 3
    dilation: 12
  }
}
layer {
  name: "relu6_2"
  type: "ReLU"
  bottom: "fc6_2"
  top: "fc6_2"
}
layer {
  name: "drop6_2"
  type: "Dropout"
  bottom: "fc6_2"
  top: "fc6_2"
  dropout_param {
    dropout_ratio: 0.5
  }
}
layer {
  name: "fc7_2"
  type: "Convolution"
  bottom: "fc6_2"
  top: "fc7_2"
  convolution_param {
    num_output: 1024
    kernel_size: 1
  }
}
layer {
  name: "relu7_2"
  type: "ReLU"
  bottom: "fc7_2"
  top: "fc7_2"
}
layer {
  name: "drop7_2"
  type: "Dropout"
  bottom: "fc7_2"
  top: "fc7_2"
  dropout_param {
    dropout_ratio: 0.5
  }
}
layer {
  name: "fc8_._2"
  type: "Convolution"
  bottom: "fc7_2"
  top: "fc8_._2"
  convolution_param {
    num_output: 21
    kernel_size: 1
  }
}
layer {
  name: "fc6_3"
  type: "Convolution"
  bottom: "pool5"
  top: "fc6_3"
  convolution_param {
    num_output: 1024
    pad: 18
    kernel_size: 3
    dilation: 18
  }
}
layer {
  name: "relu6_3"
  type: "ReLU"
  bottom: "fc6_3"
  top: "fc6_3"
}
layer {
  name: "drop6_3"
  type: "Dropout"
  bottom: "fc6_3"
  top: "fc6_3"
  dropout_param {
    dropout_ratio: 0.5
  }
}
layer {
  name: "fc7_3"
  type: "Convolution"
  bottom: "fc6_3"
  top: "fc7_3"
  convolution_param {
    num_output: 1024
    kernel_size: 1
  }
}
layer {
  name: "relu7_3"
  type: "ReLU"
  bottom: "fc7_3"
  top: "fc7_3"
}
layer {
  name: "drop7_3"
  type: "Dropout"
  bottom: "fc7_3"
  top: "fc7_3"
  dropout_param {
    dropout_ratio: 0.5
  }
}
layer {
  name: "fc8_._3"
  type: "Convolution"
  bottom: "fc7_3"
  top: "fc8_._3"
  convolution_param {
    num_output: 21
    kernel_size: 1
  }
}
layer {
  name: "fc6_4"
  type: "Convolution"
  bottom: "pool5"
  top: "fc6_4"
  convolution_param {
    num_output: 1024
    pad: 24
    kernel_size: 3
    dilation: 24
  }
}
layer {
  name: "relu6_4"
  type: "ReLU"
  bottom: "fc6_4"
  top: "fc6_4"
}
layer {
  name: "drop6_4"
  type: "Dropout"
  bottom: "fc6_4"
  top: "fc6_4"
  dropout_param {
    dropout_ratio: 0.5
  }
}
layer {
  name: "fc7_4"
  type: "Convolution"
  bottom: "fc6_4"
  top: "fc7_4"
  convolution_param {
    num_output: 1024
    kernel_size: 1
  }
}
layer {
  name: "relu7_4"
  type: "ReLU"
  bottom: "fc7_4"
  top: "fc7_4"
}
layer {
  name: "drop7_4"
  type: "Dropout"
  bottom: "fc7_4"
  top: "fc7_4"
  dropout_param {
    dropout_ratio: 0.5
  }
}
layer {
  name: "fc8_._4"
  type: "Convolution"
  bottom: "fc7_4"
  top: "fc8_._4"
  convolution_param {
    num_output: 21
    kernel_size: 1
  }
}
layer {
  name: "fc8_."
  type: "Eltwise"
  bottom: "fc8_._1"
  bottom: "fc8_._2"
  bottom: "fc8_._3"
  bottom: "fc8_._4"
  top: "fc8_."
  eltwise_param {
    operation: SUM
  }
}
layer {
  name: "fc8_interp"
  type: "Interp"
  bottom: "fc8_."
  top: "fc8_interp"
  interp_param {
    zoom_factor: 8
  }
}
layer {
  name: "fc8_mat"
  type: "MatWrite"
  bottom: "fc8_interp"
  include {
    phase: TEST
  }
  mat_write_param {
    prefix: "./features/deeplab_largeFOV/val/fc8/"
    source: "./list/val_id.txt"
    strip: 0
    period: 1
  }
}
layer {
  name: "silence"
  type: "Silence"
  bottom: "label"
  bottom: "data_dim"
}
I0507 11:06:49.523535  4758 layer_factory.hpp:77] Creating layer data
I0507 11:06:49.523555  4758 net.cpp:106] Creating Layer data
I0507 11:06:49.523562  4758 net.cpp:411] data -> data
I0507 11:06:49.523577  4758 net.cpp:411] data -> label
I0507 11:06:49.523582  4758 net.cpp:411] data -> data_dim
I0507 11:06:49.523593  4758 image_seg_data_layer.cpp:46] Opening file ./list/val.txt
I0507 11:06:49.524618  4758 image_seg_data_layer.cpp:68] A total of 1449 images.
I0507 11:06:49.537147  4758 image_seg_data_layer.cpp:137] output data size: 1,3,10,10
I0507 11:06:49.537191  4758 image_seg_data_layer.cpp:141] output label size: 1,1,10,10
I0507 11:06:49.537194  4758 image_seg_data_layer.cpp:145] output data_dim size: 1,1,1,2
I0507 11:06:49.538436  4758 net.cpp:150] Setting up data
I0507 11:06:49.538449  4758 net.cpp:157] Top shape: 1 3 10 10 (300)
I0507 11:06:49.538452  4758 net.cpp:157] Top shape: 1 1 10 10 (100)
I0507 11:06:49.538455  4758 net.cpp:157] Top shape: 1 1 1 2 (2)
I0507 11:06:49.538457  4758 net.cpp:165] Memory required for data: 1608
I0507 11:06:49.538463  4758 layer_factory.hpp:77] Creating layer conv1_1
I0507 11:06:49.538509  4758 net.cpp:106] Creating Layer conv1_1
I0507 11:06:49.538514  4758 net.cpp:454] conv1_1 <- data
I0507 11:06:49.538539  4758 net.cpp:411] conv1_1 -> conv1_1
I0507 11:06:49.859422  4758 net.cpp:150] Setting up conv1_1
I0507 11:06:49.859444  4758 net.cpp:157] Top shape: 1 64 10 10 (6400)
I0507 11:06:49.859447  4758 net.cpp:165] Memory required for data: 27208
I0507 11:06:49.859462  4758 layer_factory.hpp:77] Creating layer relu1_1
I0507 11:06:49.859472  4758 net.cpp:106] Creating Layer relu1_1
I0507 11:06:49.859475  4758 net.cpp:454] relu1_1 <- conv1_1
I0507 11:06:49.859482  4758 net.cpp:397] relu1_1 -> conv1_1 (in-place)
I0507 11:06:49.859797  4758 net.cpp:150] Setting up relu1_1
I0507 11:06:49.859807  4758 net.cpp:157] Top shape: 1 64 10 10 (6400)
I0507 11:06:49.859808  4758 net.cpp:165] Memory required for data: 52808
I0507 11:06:49.859812  4758 layer_factory.hpp:77] Creating layer conv1_2
I0507 11:06:49.859818  4758 net.cpp:106] Creating Layer conv1_2
I0507 11:06:49.859820  4758 net.cpp:454] conv1_2 <- conv1_1
I0507 11:06:49.859824  4758 net.cpp:411] conv1_2 -> conv1_2
I0507 11:06:49.861608  4758 net.cpp:150] Setting up conv1_2
I0507 11:06:49.861618  4758 net.cpp:157] Top shape: 1 64 10 10 (6400)
I0507 11:06:49.861621  4758 net.cpp:165] Memory required for data: 78408
I0507 11:06:49.861629  4758 layer_factory.hpp:77] Creating layer relu1_2
I0507 11:06:49.861634  4758 net.cpp:106] Creating Layer relu1_2
I0507 11:06:49.861636  4758 net.cpp:454] relu1_2 <- conv1_2
I0507 11:06:49.861641  4758 net.cpp:397] relu1_2 -> conv1_2 (in-place)
I0507 11:06:49.862054  4758 net.cpp:150] Setting up relu1_2
I0507 11:06:49.862062  4758 net.cpp:157] Top shape: 1 64 10 10 (6400)
I0507 11:06:49.862066  4758 net.cpp:165] Memory required for data: 104008
I0507 11:06:49.862067  4758 layer_factory.hpp:77] Creating layer pool1
I0507 11:06:49.862072  4758 net.cpp:106] Creating Layer pool1
I0507 11:06:49.862076  4758 net.cpp:454] pool1 <- conv1_2
I0507 11:06:49.862080  4758 net.cpp:411] pool1 -> pool1
I0507 11:06:49.862124  4758 net.cpp:150] Setting up pool1
I0507 11:06:49.862129  4758 net.cpp:157] Top shape: 1 64 6 6 (2304)
I0507 11:06:49.862131  4758 net.cpp:165] Memory required for data: 113224
I0507 11:06:49.862146  4758 layer_factory.hpp:77] Creating layer conv2_1
I0507 11:06:49.862151  4758 net.cpp:106] Creating Layer conv2_1
I0507 11:06:49.862169  4758 net.cpp:454] conv2_1 <- pool1
I0507 11:06:49.862172  4758 net.cpp:411] conv2_1 -> conv2_1
I0507 11:06:49.863852  4758 net.cpp:150] Setting up conv2_1
I0507 11:06:49.863862  4758 net.cpp:157] Top shape: 1 128 6 6 (4608)
I0507 11:06:49.863865  4758 net.cpp:165] Memory required for data: 131656
I0507 11:06:49.863871  4758 layer_factory.hpp:77] Creating layer relu2_1
I0507 11:06:49.863878  4758 net.cpp:106] Creating Layer relu2_1
I0507 11:06:49.863879  4758 net.cpp:454] relu2_1 <- conv2_1
I0507 11:06:49.863883  4758 net.cpp:397] relu2_1 -> conv2_1 (in-place)
I0507 11:06:49.864289  4758 net.cpp:150] Setting up relu2_1
I0507 11:06:49.864297  4758 net.cpp:157] Top shape: 1 128 6 6 (4608)
I0507 11:06:49.864300  4758 net.cpp:165] Memory required for data: 150088
I0507 11:06:49.864302  4758 layer_factory.hpp:77] Creating layer conv2_2
I0507 11:06:49.864308  4758 net.cpp:106] Creating Layer conv2_2
I0507 11:06:49.864311  4758 net.cpp:454] conv2_2 <- conv2_1
I0507 11:06:49.864316  4758 net.cpp:411] conv2_2 -> conv2_2
I0507 11:06:49.865802  4758 net.cpp:150] Setting up conv2_2
I0507 11:06:49.865809  4758 net.cpp:157] Top shape: 1 128 6 6 (4608)
I0507 11:06:49.865813  4758 net.cpp:165] Memory required for data: 168520
I0507 11:06:49.865818  4758 layer_factory.hpp:77] Creating layer relu2_2
I0507 11:06:49.865821  4758 net.cpp:106] Creating Layer relu2_2
I0507 11:06:49.865823  4758 net.cpp:454] relu2_2 <- conv2_2
I0507 11:06:49.865828  4758 net.cpp:397] relu2_2 -> conv2_2 (in-place)
I0507 11:06:49.866241  4758 net.cpp:150] Setting up relu2_2
I0507 11:06:49.866248  4758 net.cpp:157] Top shape: 1 128 6 6 (4608)
I0507 11:06:49.866251  4758 net.cpp:165] Memory required for data: 186952
I0507 11:06:49.866255  4758 layer_factory.hpp:77] Creating layer pool2
I0507 11:06:49.866258  4758 net.cpp:106] Creating Layer pool2
I0507 11:06:49.866261  4758 net.cpp:454] pool2 <- conv2_2
I0507 11:06:49.866264  4758 net.cpp:411] pool2 -> pool2
I0507 11:06:49.866294  4758 net.cpp:150] Setting up pool2
I0507 11:06:49.866313  4758 net.cpp:157] Top shape: 1 128 4 4 (2048)
I0507 11:06:49.866317  4758 net.cpp:165] Memory required for data: 195144
I0507 11:06:49.866318  4758 layer_factory.hpp:77] Creating layer conv3_1
I0507 11:06:49.866338  4758 net.cpp:106] Creating Layer conv3_1
I0507 11:06:49.866339  4758 net.cpp:454] conv3_1 <- pool2
I0507 11:06:49.866360  4758 net.cpp:411] conv3_1 -> conv3_1
I0507 11:06:49.868177  4758 net.cpp:150] Setting up conv3_1
I0507 11:06:49.868188  4758 net.cpp:157] Top shape: 1 256 4 4 (4096)
I0507 11:06:49.868191  4758 net.cpp:165] Memory required for data: 211528
I0507 11:06:49.868197  4758 layer_factory.hpp:77] Creating layer relu3_1
I0507 11:06:49.868202  4758 net.cpp:106] Creating Layer relu3_1
I0507 11:06:49.868206  4758 net.cpp:454] relu3_1 <- conv3_1
I0507 11:06:49.868209  4758 net.cpp:397] relu3_1 -> conv3_1 (in-place)
I0507 11:06:49.868616  4758 net.cpp:150] Setting up relu3_1
I0507 11:06:49.868624  4758 net.cpp:157] Top shape: 1 256 4 4 (4096)
I0507 11:06:49.868628  4758 net.cpp:165] Memory required for data: 227912
I0507 11:06:49.868629  4758 layer_factory.hpp:77] Creating layer conv3_2
I0507 11:06:49.868634  4758 net.cpp:106] Creating Layer conv3_2
I0507 11:06:49.868638  4758 net.cpp:454] conv3_2 <- conv3_1
I0507 11:06:49.868643  4758 net.cpp:411] conv3_2 -> conv3_2
I0507 11:06:49.870746  4758 net.cpp:150] Setting up conv3_2
I0507 11:06:49.870760  4758 net.cpp:157] Top shape: 1 256 4 4 (4096)
I0507 11:06:49.870764  4758 net.cpp:165] Memory required for data: 244296
I0507 11:06:49.870769  4758 layer_factory.hpp:77] Creating layer relu3_2
I0507 11:06:49.870790  4758 net.cpp:106] Creating Layer relu3_2
I0507 11:06:49.870793  4758 net.cpp:454] relu3_2 <- conv3_2
I0507 11:06:49.870797  4758 net.cpp:397] relu3_2 -> conv3_2 (in-place)
I0507 11:06:49.871088  4758 net.cpp:150] Setting up relu3_2
I0507 11:06:49.871095  4758 net.cpp:157] Top shape: 1 256 4 4 (4096)
I0507 11:06:49.871098  4758 net.cpp:165] Memory required for data: 260680
I0507 11:06:49.871099  4758 layer_factory.hpp:77] Creating layer conv3_3
I0507 11:06:49.871104  4758 net.cpp:106] Creating Layer conv3_3
I0507 11:06:49.871107  4758 net.cpp:454] conv3_3 <- conv3_2
I0507 11:06:49.871134  4758 net.cpp:411] conv3_3 -> conv3_3
I0507 11:06:49.874068  4758 net.cpp:150] Setting up conv3_3
I0507 11:06:49.874088  4758 net.cpp:157] Top shape: 1 256 4 4 (4096)
I0507 11:06:49.874091  4758 net.cpp:165] Memory required for data: 277064
I0507 11:06:49.874112  4758 layer_factory.hpp:77] Creating layer relu3_3
I0507 11:06:49.874125  4758 net.cpp:106] Creating Layer relu3_3
I0507 11:06:49.874130  4758 net.cpp:454] relu3_3 <- conv3_3
I0507 11:06:49.874135  4758 net.cpp:397] relu3_3 -> conv3_3 (in-place)
I0507 11:06:49.874685  4758 net.cpp:150] Setting up relu3_3
I0507 11:06:49.874694  4758 net.cpp:157] Top shape: 1 256 4 4 (4096)
I0507 11:06:49.874696  4758 net.cpp:165] Memory required for data: 293448
I0507 11:06:49.874699  4758 layer_factory.hpp:77] Creating layer pool3
I0507 11:06:49.874704  4758 net.cpp:106] Creating Layer pool3
I0507 11:06:49.874706  4758 net.cpp:454] pool3 <- conv3_3
I0507 11:06:49.874727  4758 net.cpp:411] pool3 -> pool3
I0507 11:06:49.874788  4758 net.cpp:150] Setting up pool3
I0507 11:06:49.874806  4758 net.cpp:157] Top shape: 1 256 3 3 (2304)
I0507 11:06:49.874809  4758 net.cpp:165] Memory required for data: 302664
I0507 11:06:49.874811  4758 layer_factory.hpp:77] Creating layer conv4_1
I0507 11:06:49.874819  4758 net.cpp:106] Creating Layer conv4_1
I0507 11:06:49.874820  4758 net.cpp:454] conv4_1 <- pool3
I0507 11:06:49.874825  4758 net.cpp:411] conv4_1 -> conv4_1
I0507 11:06:49.877741  4758 net.cpp:150] Setting up conv4_1
I0507 11:06:49.877768  4758 net.cpp:157] Top shape: 1 512 3 3 (4608)
I0507 11:06:49.877771  4758 net.cpp:165] Memory required for data: 321096
I0507 11:06:49.877794  4758 layer_factory.hpp:77] Creating layer relu4_1
I0507 11:06:49.877802  4758 net.cpp:106] Creating Layer relu4_1
I0507 11:06:49.877807  4758 net.cpp:454] relu4_1 <- conv4_1
I0507 11:06:49.877815  4758 net.cpp:397] relu4_1 -> conv4_1 (in-place)
I0507 11:06:49.878237  4758 net.cpp:150] Setting up relu4_1
I0507 11:06:49.878244  4758 net.cpp:157] Top shape: 1 512 3 3 (4608)
I0507 11:06:49.878247  4758 net.cpp:165] Memory required for data: 339528
I0507 11:06:49.878250  4758 layer_factory.hpp:77] Creating layer conv4_2
I0507 11:06:49.878257  4758 net.cpp:106] Creating Layer conv4_2
I0507 11:06:49.878273  4758 net.cpp:454] conv4_2 <- conv4_1
I0507 11:06:49.878279  4758 net.cpp:411] conv4_2 -> conv4_2
I0507 11:06:49.883203  4758 net.cpp:150] Setting up conv4_2
I0507 11:06:49.883227  4758 net.cpp:157] Top shape: 1 512 3 3 (4608)
I0507 11:06:49.883229  4758 net.cpp:165] Memory required for data: 357960
I0507 11:06:49.883244  4758 layer_factory.hpp:77] Creating layer relu4_2
I0507 11:06:49.883250  4758 net.cpp:106] Creating Layer relu4_2
I0507 11:06:49.883255  4758 net.cpp:454] relu4_2 <- conv4_2
I0507 11:06:49.883260  4758 net.cpp:397] relu4_2 -> conv4_2 (in-place)
I0507 11:06:49.883677  4758 net.cpp:150] Setting up relu4_2
I0507 11:06:49.883684  4758 net.cpp:157] Top shape: 1 512 3 3 (4608)
I0507 11:06:49.883687  4758 net.cpp:165] Memory required for data: 376392
I0507 11:06:49.883689  4758 layer_factory.hpp:77] Creating layer conv4_3
I0507 11:06:49.883697  4758 net.cpp:106] Creating Layer conv4_3
I0507 11:06:49.883698  4758 net.cpp:454] conv4_3 <- conv4_2
I0507 11:06:49.883703  4758 net.cpp:411] conv4_3 -> conv4_3
I0507 11:06:49.889665  4758 net.cpp:150] Setting up conv4_3
I0507 11:06:49.889708  4758 net.cpp:157] Top shape: 1 512 3 3 (4608)
I0507 11:06:49.889710  4758 net.cpp:165] Memory required for data: 394824
I0507 11:06:49.889732  4758 layer_factory.hpp:77] Creating layer relu4_3
I0507 11:06:49.889755  4758 net.cpp:106] Creating Layer relu4_3
I0507 11:06:49.889760  4758 net.cpp:454] relu4_3 <- conv4_3
I0507 11:06:49.889765  4758 net.cpp:397] relu4_3 -> conv4_3 (in-place)
I0507 11:06:49.890245  4758 net.cpp:150] Setting up relu4_3
I0507 11:06:49.890256  4758 net.cpp:157] Top shape: 1 512 3 3 (4608)
I0507 11:06:49.890259  4758 net.cpp:165] Memory required for data: 413256
I0507 11:06:49.890262  4758 layer_factory.hpp:77] Creating layer pool4
I0507 11:06:49.890290  4758 net.cpp:106] Creating Layer pool4
I0507 11:06:49.890307  4758 net.cpp:454] pool4 <- conv4_3
I0507 11:06:49.890312  4758 net.cpp:411] pool4 -> pool4
I0507 11:06:49.890421  4758 net.cpp:150] Setting up pool4
I0507 11:06:49.890456  4758 net.cpp:157] Top shape: 1 512 3 3 (4608)
I0507 11:06:49.890460  4758 net.cpp:165] Memory required for data: 431688
I0507 11:06:49.890476  4758 layer_factory.hpp:77] Creating layer conv5_1
I0507 11:06:49.890483  4758 net.cpp:106] Creating Layer conv5_1
I0507 11:06:49.890499  4758 net.cpp:454] conv5_1 <- pool4
I0507 11:06:49.890503  4758 net.cpp:411] conv5_1 -> conv5_1
I0507 11:06:49.894377  4758 net.cpp:150] Setting up conv5_1
I0507 11:06:49.894408  4758 net.cpp:157] Top shape: 1 512 3 3 (4608)
I0507 11:06:49.894412  4758 net.cpp:165] Memory required for data: 450120
I0507 11:06:49.894435  4758 layer_factory.hpp:77] Creating layer relu5_1
I0507 11:06:49.894448  4758 net.cpp:106] Creating Layer relu5_1
I0507 11:06:49.894451  4758 net.cpp:454] relu5_1 <- conv5_1
I0507 11:06:49.894459  4758 net.cpp:397] relu5_1 -> conv5_1 (in-place)
I0507 11:06:49.895355  4758 net.cpp:150] Setting up relu5_1
I0507 11:06:49.895366  4758 net.cpp:157] Top shape: 1 512 3 3 (4608)
I0507 11:06:49.895370  4758 net.cpp:165] Memory required for data: 468552
I0507 11:06:49.895372  4758 layer_factory.hpp:77] Creating layer conv5_2
I0507 11:06:49.895395  4758 net.cpp:106] Creating Layer conv5_2
I0507 11:06:49.895400  4758 net.cpp:454] conv5_2 <- conv5_1
I0507 11:06:49.895404  4758 net.cpp:411] conv5_2 -> conv5_2
I0507 11:06:49.899922  4758 net.cpp:150] Setting up conv5_2
I0507 11:06:49.899945  4758 net.cpp:157] Top shape: 1 512 3 3 (4608)
I0507 11:06:49.899948  4758 net.cpp:165] Memory required for data: 486984
I0507 11:06:49.899956  4758 layer_factory.hpp:77] Creating layer relu5_2
I0507 11:06:49.899962  4758 net.cpp:106] Creating Layer relu5_2
I0507 11:06:49.899966  4758 net.cpp:454] relu5_2 <- conv5_2
I0507 11:06:49.899971  4758 net.cpp:397] relu5_2 -> conv5_2 (in-place)
I0507 11:06:49.900534  4758 net.cpp:150] Setting up relu5_2
I0507 11:06:49.900542  4758 net.cpp:157] Top shape: 1 512 3 3 (4608)
I0507 11:06:49.900544  4758 net.cpp:165] Memory required for data: 505416
I0507 11:06:49.900547  4758 layer_factory.hpp:77] Creating layer conv5_3
I0507 11:06:49.900554  4758 net.cpp:106] Creating Layer conv5_3
I0507 11:06:49.900557  4758 net.cpp:454] conv5_3 <- conv5_2
I0507 11:06:49.900562  4758 net.cpp:411] conv5_3 -> conv5_3
I0507 11:06:49.904255  4758 net.cpp:150] Setting up conv5_3
I0507 11:06:49.904281  4758 net.cpp:157] Top shape: 1 512 3 3 (4608)
I0507 11:06:49.904284  4758 net.cpp:165] Memory required for data: 523848
I0507 11:06:49.904291  4758 layer_factory.hpp:77] Creating layer relu5_3
I0507 11:06:49.904299  4758 net.cpp:106] Creating Layer relu5_3
I0507 11:06:49.904302  4758 net.cpp:454] relu5_3 <- conv5_3
I0507 11:06:49.904309  4758 net.cpp:397] relu5_3 -> conv5_3 (in-place)
I0507 11:06:49.904686  4758 net.cpp:150] Setting up relu5_3
I0507 11:06:49.904693  4758 net.cpp:157] Top shape: 1 512 3 3 (4608)
I0507 11:06:49.904696  4758 net.cpp:165] Memory required for data: 542280
I0507 11:06:49.904698  4758 layer_factory.hpp:77] Creating layer pool5
I0507 11:06:49.904705  4758 net.cpp:106] Creating Layer pool5
I0507 11:06:49.904706  4758 net.cpp:454] pool5 <- conv5_3
I0507 11:06:49.904711  4758 net.cpp:411] pool5 -> pool5
I0507 11:06:49.904759  4758 net.cpp:150] Setting up pool5
I0507 11:06:49.904764  4758 net.cpp:157] Top shape: 1 512 3 3 (4608)
I0507 11:06:49.904779  4758 net.cpp:165] Memory required for data: 560712
I0507 11:06:49.904781  4758 layer_factory.hpp:77] Creating layer pool5_pool5_0_split
I0507 11:06:49.904806  4758 net.cpp:106] Creating Layer pool5_pool5_0_split
I0507 11:06:49.904809  4758 net.cpp:454] pool5_pool5_0_split <- pool5
I0507 11:06:49.904825  4758 net.cpp:411] pool5_pool5_0_split -> pool5_pool5_0_split_0
I0507 11:06:49.904830  4758 net.cpp:411] pool5_pool5_0_split -> pool5_pool5_0_split_1
I0507 11:06:49.904834  4758 net.cpp:411] pool5_pool5_0_split -> pool5_pool5_0_split_2
I0507 11:06:49.904863  4758 net.cpp:411] pool5_pool5_0_split -> pool5_pool5_0_split_3
I0507 11:06:49.904965  4758 net.cpp:150] Setting up pool5_pool5_0_split
I0507 11:06:49.904970  4758 net.cpp:157] Top shape: 1 512 3 3 (4608)
I0507 11:06:49.904973  4758 net.cpp:157] Top shape: 1 512 3 3 (4608)
I0507 11:06:49.904975  4758 net.cpp:157] Top shape: 1 512 3 3 (4608)
I0507 11:06:49.904978  4758 net.cpp:157] Top shape: 1 512 3 3 (4608)
I0507 11:06:49.904980  4758 net.cpp:165] Memory required for data: 634440
I0507 11:06:49.904983  4758 layer_factory.hpp:77] Creating layer fc6_1
I0507 11:06:49.904989  4758 net.cpp:106] Creating Layer fc6_1
I0507 11:06:49.904991  4758 net.cpp:454] fc6_1 <- pool5_pool5_0_split_0
I0507 11:06:49.904994  4758 net.cpp:411] fc6_1 -> fc6_1
I0507 11:06:49.912704  4758 net.cpp:150] Setting up fc6_1
I0507 11:06:49.912727  4758 net.cpp:157] Top shape: 1 1024 3 3 (9216)
I0507 11:06:49.912730  4758 net.cpp:165] Memory required for data: 671304
I0507 11:06:49.912737  4758 layer_factory.hpp:77] Creating layer relu6_1
I0507 11:06:49.912744  4758 net.cpp:106] Creating Layer relu6_1
I0507 11:06:49.912747  4758 net.cpp:454] relu6_1 <- fc6_1
I0507 11:06:49.912755  4758 net.cpp:397] relu6_1 -> fc6_1 (in-place)
I0507 11:06:49.913349  4758 net.cpp:150] Setting up relu6_1
I0507 11:06:49.913358  4758 net.cpp:157] Top shape: 1 1024 3 3 (9216)
I0507 11:06:49.913360  4758 net.cpp:165] Memory required for data: 708168
I0507 11:06:49.913363  4758 layer_factory.hpp:77] Creating layer drop6_1
I0507 11:06:49.913370  4758 net.cpp:106] Creating Layer drop6_1
I0507 11:06:49.913373  4758 net.cpp:454] drop6_1 <- fc6_1
I0507 11:06:49.913378  4758 net.cpp:397] drop6_1 -> fc6_1 (in-place)
I0507 11:06:49.913400  4758 net.cpp:150] Setting up drop6_1
I0507 11:06:49.913405  4758 net.cpp:157] Top shape: 1 1024 3 3 (9216)
I0507 11:06:49.913421  4758 net.cpp:165] Memory required for data: 745032
I0507 11:06:49.913424  4758 layer_factory.hpp:77] Creating layer fc7_1
I0507 11:06:49.913445  4758 net.cpp:106] Creating Layer fc7_1
I0507 11:06:49.913447  4758 net.cpp:454] fc7_1 <- fc6_1
I0507 11:06:49.913450  4758 net.cpp:411] fc7_1 -> fc7_1
I0507 11:06:49.916223  4758 net.cpp:150] Setting up fc7_1
I0507 11:06:49.916245  4758 net.cpp:157] Top shape: 1 1024 3 3 (9216)
I0507 11:06:49.916249  4758 net.cpp:165] Memory required for data: 781896
I0507 11:06:49.916255  4758 layer_factory.hpp:77] Creating layer relu7_1
I0507 11:06:49.916261  4758 net.cpp:106] Creating Layer relu7_1
I0507 11:06:49.916265  4758 net.cpp:454] relu7_1 <- fc7_1
I0507 11:06:49.916270  4758 net.cpp:397] relu7_1 -> fc7_1 (in-place)
I0507 11:06:49.916676  4758 net.cpp:150] Setting up relu7_1
I0507 11:06:49.916685  4758 net.cpp:157] Top shape: 1 1024 3 3 (9216)
I0507 11:06:49.916687  4758 net.cpp:165] Memory required for data: 818760
I0507 11:06:49.916690  4758 layer_factory.hpp:77] Creating layer drop7_1
I0507 11:06:49.916695  4758 net.cpp:106] Creating Layer drop7_1
I0507 11:06:49.916697  4758 net.cpp:454] drop7_1 <- fc7_1
I0507 11:06:49.916702  4758 net.cpp:397] drop7_1 -> fc7_1 (in-place)
I0507 11:06:49.916723  4758 net.cpp:150] Setting up drop7_1
I0507 11:06:49.916728  4758 net.cpp:157] Top shape: 1 1024 3 3 (9216)
I0507 11:06:49.916729  4758 net.cpp:165] Memory required for data: 855624
I0507 11:06:49.916745  4758 layer_factory.hpp:77] Creating layer fc8_._1
I0507 11:06:49.916754  4758 net.cpp:106] Creating Layer fc8_._1
I0507 11:06:49.916756  4758 net.cpp:454] fc8_._1 <- fc7_1
I0507 11:06:49.916760  4758 net.cpp:411] fc8_._1 -> fc8_._1
I0507 11:06:49.918018  4758 net.cpp:150] Setting up fc8_._1
I0507 11:06:49.918027  4758 net.cpp:157] Top shape: 1 21 3 3 (189)
I0507 11:06:49.918030  4758 net.cpp:165] Memory required for data: 856380
I0507 11:06:49.918035  4758 layer_factory.hpp:77] Creating layer fc6_2
I0507 11:06:49.918040  4758 net.cpp:106] Creating Layer fc6_2
I0507 11:06:49.918043  4758 net.cpp:454] fc6_2 <- pool5_pool5_0_split_1
I0507 11:06:49.918047  4758 net.cpp:411] fc6_2 -> fc6_2
I0507 11:06:49.927139  4758 net.cpp:150] Setting up fc6_2
I0507 11:06:49.927163  4758 net.cpp:157] Top shape: 1 1024 3 3 (9216)
I0507 11:06:49.927183  4758 net.cpp:165] Memory required for data: 893244
I0507 11:06:49.927199  4758 layer_factory.hpp:77] Creating layer relu6_2
I0507 11:06:49.927208  4758 net.cpp:106] Creating Layer relu6_2
I0507 11:06:49.927212  4758 net.cpp:454] relu6_2 <- fc6_2
I0507 11:06:49.927218  4758 net.cpp:397] relu6_2 -> fc6_2 (in-place)
I0507 11:06:49.927758  4758 net.cpp:150] Setting up relu6_2
I0507 11:06:49.927768  4758 net.cpp:157] Top shape: 1 1024 3 3 (9216)
I0507 11:06:49.927770  4758 net.cpp:165] Memory required for data: 930108
I0507 11:06:49.927773  4758 layer_factory.hpp:77] Creating layer drop6_2
I0507 11:06:49.927778  4758 net.cpp:106] Creating Layer drop6_2
I0507 11:06:49.927781  4758 net.cpp:454] drop6_2 <- fc6_2
I0507 11:06:49.927784  4758 net.cpp:397] drop6_2 -> fc6_2 (in-place)
I0507 11:06:49.927808  4758 net.cpp:150] Setting up drop6_2
I0507 11:06:49.927811  4758 net.cpp:157] Top shape: 1 1024 3 3 (9216)
I0507 11:06:49.927829  4758 net.cpp:165] Memory required for data: 966972
I0507 11:06:49.927830  4758 layer_factory.hpp:77] Creating layer fc7_2
I0507 11:06:49.927837  4758 net.cpp:106] Creating Layer fc7_2
I0507 11:06:49.927839  4758 net.cpp:454] fc7_2 <- fc6_2
I0507 11:06:49.927842  4758 net.cpp:411] fc7_2 -> fc7_2
I0507 11:06:49.930656  4758 net.cpp:150] Setting up fc7_2
I0507 11:06:49.930680  4758 net.cpp:157] Top shape: 1 1024 3 3 (9216)
I0507 11:06:49.930682  4758 net.cpp:165] Memory required for data: 1003836
I0507 11:06:49.930688  4758 layer_factory.hpp:77] Creating layer relu7_2
I0507 11:06:49.930696  4758 net.cpp:106] Creating Layer relu7_2
I0507 11:06:49.930698  4758 net.cpp:454] relu7_2 <- fc7_2
I0507 11:06:49.930706  4758 net.cpp:397] relu7_2 -> fc7_2 (in-place)
I0507 11:06:49.931048  4758 net.cpp:150] Setting up relu7_2
I0507 11:06:49.931056  4758 net.cpp:157] Top shape: 1 1024 3 3 (9216)
I0507 11:06:49.931059  4758 net.cpp:165] Memory required for data: 1040700
I0507 11:06:49.931061  4758 layer_factory.hpp:77] Creating layer drop7_2
I0507 11:06:49.931066  4758 net.cpp:106] Creating Layer drop7_2
I0507 11:06:49.931068  4758 net.cpp:454] drop7_2 <- fc7_2
I0507 11:06:49.931072  4758 net.cpp:397] drop7_2 -> fc7_2 (in-place)
I0507 11:06:49.931092  4758 net.cpp:150] Setting up drop7_2
I0507 11:06:49.931098  4758 net.cpp:157] Top shape: 1 1024 3 3 (9216)
I0507 11:06:49.931100  4758 net.cpp:165] Memory required for data: 1077564
I0507 11:06:49.931119  4758 layer_factory.hpp:77] Creating layer fc8_._2
I0507 11:06:49.931124  4758 net.cpp:106] Creating Layer fc8_._2
I0507 11:06:49.931128  4758 net.cpp:454] fc8_._2 <- fc7_2
I0507 11:06:49.931131  4758 net.cpp:411] fc8_._2 -> fc8_._2
I0507 11:06:49.932674  4758 net.cpp:150] Setting up fc8_._2
I0507 11:06:49.932683  4758 net.cpp:157] Top shape: 1 21 3 3 (189)
I0507 11:06:49.932685  4758 net.cpp:165] Memory required for data: 1078320
I0507 11:06:49.932690  4758 layer_factory.hpp:77] Creating layer fc6_3
I0507 11:06:49.932698  4758 net.cpp:106] Creating Layer fc6_3
I0507 11:06:49.932700  4758 net.cpp:454] fc6_3 <- pool5_pool5_0_split_2
I0507 11:06:49.932704  4758 net.cpp:411] fc6_3 -> fc6_3
I0507 11:06:49.940253  4758 net.cpp:150] Setting up fc6_3
I0507 11:06:49.940275  4758 net.cpp:157] Top shape: 1 1024 3 3 (9216)
I0507 11:06:49.940279  4758 net.cpp:165] Memory required for data: 1115184
I0507 11:06:49.940286  4758 layer_factory.hpp:77] Creating layer relu6_3
I0507 11:06:49.940292  4758 net.cpp:106] Creating Layer relu6_3
I0507 11:06:49.940296  4758 net.cpp:454] relu6_3 <- fc6_3
I0507 11:06:49.940301  4758 net.cpp:397] relu6_3 -> fc6_3 (in-place)
I0507 11:06:49.940872  4758 net.cpp:150] Setting up relu6_3
I0507 11:06:49.940882  4758 net.cpp:157] Top shape: 1 1024 3 3 (9216)
I0507 11:06:49.940886  4758 net.cpp:165] Memory required for data: 1152048
I0507 11:06:49.940887  4758 layer_factory.hpp:77] Creating layer drop6_3
I0507 11:06:49.940891  4758 net.cpp:106] Creating Layer drop6_3
I0507 11:06:49.940894  4758 net.cpp:454] drop6_3 <- fc6_3
I0507 11:06:49.940899  4758 net.cpp:397] drop6_3 -> fc6_3 (in-place)
I0507 11:06:49.940948  4758 net.cpp:150] Setting up drop6_3
I0507 11:06:49.940966  4758 net.cpp:157] Top shape: 1 1024 3 3 (9216)
I0507 11:06:49.940968  4758 net.cpp:165] Memory required for data: 1188912
I0507 11:06:49.940970  4758 layer_factory.hpp:77] Creating layer fc7_3
I0507 11:06:49.940976  4758 net.cpp:106] Creating Layer fc7_3
I0507 11:06:49.940979  4758 net.cpp:454] fc7_3 <- fc6_3
I0507 11:06:49.940984  4758 net.cpp:411] fc7_3 -> fc7_3
I0507 11:06:49.943627  4758 net.cpp:150] Setting up fc7_3
I0507 11:06:49.943650  4758 net.cpp:157] Top shape: 1 1024 3 3 (9216)
I0507 11:06:49.943653  4758 net.cpp:165] Memory required for data: 1225776
I0507 11:06:49.943660  4758 layer_factory.hpp:77] Creating layer relu7_3
I0507 11:06:49.943666  4758 net.cpp:106] Creating Layer relu7_3
I0507 11:06:49.943671  4758 net.cpp:454] relu7_3 <- fc7_3
I0507 11:06:49.943675  4758 net.cpp:397] relu7_3 -> fc7_3 (in-place)
I0507 11:06:49.944093  4758 net.cpp:150] Setting up relu7_3
I0507 11:06:49.944103  4758 net.cpp:157] Top shape: 1 1024 3 3 (9216)
I0507 11:06:49.944104  4758 net.cpp:165] Memory required for data: 1262640
I0507 11:06:49.944108  4758 layer_factory.hpp:77] Creating layer drop7_3
I0507 11:06:49.944113  4758 net.cpp:106] Creating Layer drop7_3
I0507 11:06:49.944115  4758 net.cpp:454] drop7_3 <- fc7_3
I0507 11:06:49.944118  4758 net.cpp:397] drop7_3 -> fc7_3 (in-place)
I0507 11:06:49.944141  4758 net.cpp:150] Setting up drop7_3
I0507 11:06:49.944145  4758 net.cpp:157] Top shape: 1 1024 3 3 (9216)
I0507 11:06:49.944149  4758 net.cpp:165] Memory required for data: 1299504
I0507 11:06:49.944164  4758 layer_factory.hpp:77] Creating layer fc8_._3
I0507 11:06:49.944170  4758 net.cpp:106] Creating Layer fc8_._3
I0507 11:06:49.944173  4758 net.cpp:454] fc8_._3 <- fc7_3
I0507 11:06:49.944178  4758 net.cpp:411] fc8_._3 -> fc8_._3
I0507 11:06:49.945711  4758 net.cpp:150] Setting up fc8_._3
I0507 11:06:49.945720  4758 net.cpp:157] Top shape: 1 21 3 3 (189)
I0507 11:06:49.945722  4758 net.cpp:165] Memory required for data: 1300260
I0507 11:06:49.945727  4758 layer_factory.hpp:77] Creating layer fc6_4
I0507 11:06:49.945734  4758 net.cpp:106] Creating Layer fc6_4
I0507 11:06:49.945736  4758 net.cpp:454] fc6_4 <- pool5_pool5_0_split_3
I0507 11:06:49.945741  4758 net.cpp:411] fc6_4 -> fc6_4
I0507 11:06:49.954293  4758 net.cpp:150] Setting up fc6_4
I0507 11:06:49.954316  4758 net.cpp:157] Top shape: 1 1024 3 3 (9216)
I0507 11:06:49.954319  4758 net.cpp:165] Memory required for data: 1337124
I0507 11:06:49.954341  4758 layer_factory.hpp:77] Creating layer relu6_4
I0507 11:06:49.954365  4758 net.cpp:106] Creating Layer relu6_4
I0507 11:06:49.954368  4758 net.cpp:454] relu6_4 <- fc6_4
I0507 11:06:49.954386  4758 net.cpp:397] relu6_4 -> fc6_4 (in-place)
I0507 11:06:49.955087  4758 net.cpp:150] Setting up relu6_4
I0507 11:06:49.955116  4758 net.cpp:157] Top shape: 1 1024 3 3 (9216)
I0507 11:06:49.955130  4758 net.cpp:165] Memory required for data: 1373988
I0507 11:06:49.955133  4758 layer_factory.hpp:77] Creating layer drop6_4
I0507 11:06:49.955153  4758 net.cpp:106] Creating Layer drop6_4
I0507 11:06:49.955157  4758 net.cpp:454] drop6_4 <- fc6_4
I0507 11:06:49.955160  4758 net.cpp:397] drop6_4 -> fc6_4 (in-place)
I0507 11:06:49.955215  4758 net.cpp:150] Setting up drop6_4
I0507 11:06:49.955233  4758 net.cpp:157] Top shape: 1 1024 3 3 (9216)
I0507 11:06:49.955236  4758 net.cpp:165] Memory required for data: 1410852
I0507 11:06:49.955238  4758 layer_factory.hpp:77] Creating layer fc7_4
I0507 11:06:49.955260  4758 net.cpp:106] Creating Layer fc7_4
I0507 11:06:49.955261  4758 net.cpp:454] fc7_4 <- fc6_4
I0507 11:06:49.955266  4758 net.cpp:411] fc7_4 -> fc7_4
I0507 11:06:49.958060  4758 net.cpp:150] Setting up fc7_4
I0507 11:06:49.958084  4758 net.cpp:157] Top shape: 1 1024 3 3 (9216)
I0507 11:06:49.958087  4758 net.cpp:165] Memory required for data: 1447716
I0507 11:06:49.958096  4758 layer_factory.hpp:77] Creating layer relu7_4
I0507 11:06:49.958101  4758 net.cpp:106] Creating Layer relu7_4
I0507 11:06:49.958104  4758 net.cpp:454] relu7_4 <- fc7_4
I0507 11:06:49.958135  4758 net.cpp:397] relu7_4 -> fc7_4 (in-place)
I0507 11:06:49.958571  4758 net.cpp:150] Setting up relu7_4
I0507 11:06:49.958580  4758 net.cpp:157] Top shape: 1 1024 3 3 (9216)
I0507 11:06:49.958582  4758 net.cpp:165] Memory required for data: 1484580
I0507 11:06:49.958585  4758 layer_factory.hpp:77] Creating layer drop7_4
I0507 11:06:49.958590  4758 net.cpp:106] Creating Layer drop7_4
I0507 11:06:49.958592  4758 net.cpp:454] drop7_4 <- fc7_4
I0507 11:06:49.958596  4758 net.cpp:397] drop7_4 -> fc7_4 (in-place)
I0507 11:06:49.958618  4758 net.cpp:150] Setting up drop7_4
I0507 11:06:49.958623  4758 net.cpp:157] Top shape: 1 1024 3 3 (9216)
I0507 11:06:49.958626  4758 net.cpp:165] Memory required for data: 1521444
I0507 11:06:49.958642  4758 layer_factory.hpp:77] Creating layer fc8_._4
I0507 11:06:49.958648  4758 net.cpp:106] Creating Layer fc8_._4
I0507 11:06:49.958650  4758 net.cpp:454] fc8_._4 <- fc7_4
I0507 11:06:49.958654  4758 net.cpp:411] fc8_._4 -> fc8_._4
I0507 11:06:49.960175  4758 net.cpp:150] Setting up fc8_._4
I0507 11:06:49.960183  4758 net.cpp:157] Top shape: 1 21 3 3 (189)
I0507 11:06:49.960186  4758 net.cpp:165] Memory required for data: 1522200
I0507 11:06:49.960191  4758 layer_factory.hpp:77] Creating layer fc8_.
I0507 11:06:49.960197  4758 net.cpp:106] Creating Layer fc8_.
I0507 11:06:49.960201  4758 net.cpp:454] fc8_. <- fc8_._1
I0507 11:06:49.960204  4758 net.cpp:454] fc8_. <- fc8_._2
I0507 11:06:49.960207  4758 net.cpp:454] fc8_. <- fc8_._3
I0507 11:06:49.960209  4758 net.cpp:454] fc8_. <- fc8_._4
I0507 11:06:49.960213  4758 net.cpp:411] fc8_. -> fc8_.
I0507 11:06:49.960254  4758 net.cpp:150] Setting up fc8_.
I0507 11:06:49.960274  4758 net.cpp:157] Top shape: 1 21 3 3 (189)
I0507 11:06:49.960276  4758 net.cpp:165] Memory required for data: 1522956
I0507 11:06:49.960278  4758 layer_factory.hpp:77] Creating layer fc8_interp
I0507 11:06:49.960284  4758 net.cpp:106] Creating Layer fc8_interp
I0507 11:06:49.960299  4758 net.cpp:454] fc8_interp <- fc8_.
I0507 11:06:49.960304  4758 net.cpp:411] fc8_interp -> fc8_interp
I0507 11:06:49.960350  4758 net.cpp:150] Setting up fc8_interp
I0507 11:06:49.960357  4758 net.cpp:157] Top shape: 1 21 17 17 (6069)
I0507 11:06:49.960359  4758 net.cpp:165] Memory required for data: 1547232
I0507 11:06:49.960361  4758 layer_factory.hpp:77] Creating layer fc8_mat
I0507 11:06:49.960367  4758 net.cpp:106] Creating Layer fc8_mat
I0507 11:06:49.960371  4758 net.cpp:454] fc8_mat <- fc8_interp
I0507 11:06:49.960935  4758 mat_write_layer.cpp:30] MatWrite will save a maximum of 1449 files.
I0507 11:06:49.960945  4758 net.cpp:150] Setting up fc8_mat
…
