…
I0603 22:38:07.349472  4647 caffe.cpp:241] GPU device name: GeForce GT 730
I0603 22:38:07.536474  4647 net.cpp:49] Initializing net from parameters: 
name: "deeplab_largeFOV"
state {
  phase: TEST
}
layer {
  name: "data"
  type: "ImageSegData"
  top: "data"
  top: "label"
  top: "data_dim"
  include {
    phase: TEST
  }
  transform_param {
    mirror: false
    crop_size: 513
    mean_value: 104.008
    mean_value: 116.669
    mean_value: 122.675
  }
  image_data_param {
    source: "voc12/list/val.txt"
    batch_size: 1
    root_folder: "/home/king/Documents/image/VOC_aug/dataset/"
    label_type: PIXEL
  }
}
layer {
  name: "data_res05"
  type: "Interp"
  bottom: "data"
  top: "data_res05"
  interp_param {
    shrink_factor: 2
    pad_beg: 0
    pad_end: 0
  }
}
layer {
  name: "data_res075"
  type: "Interp"
  bottom: "data"
  top: "data_res075"
  interp_param {
    zoom_factor: 3
    shrink_factor: 4
    pad_beg: 0
    pad_end: 0
  }
}
layer {
  name: "conv1"
  type: "Convolution"
  bottom: "data"
  top: "conv1"
  param {
    name: "conv1_0"
    lr_mult: 1
    decay_mult: 1
  }
  convolution_param {
    num_output: 64
    bias_term: false
    pad: 3
    kernel_size: 7
    stride: 2
  }
}
layer {
  name: "bn_conv1"
  type: "BatchNorm"
  bottom: "conv1"
  top: "conv1"
  param {
    name: "bn_conv1_0"
    lr_mult: 0
  }
  param {
    name: "bn_conv1_1"
    lr_mult: 0
  }
  param {
    name: "bn_conv1_2"
    lr_mult: 0
  }
  batch_norm_param {
    use_global_stats: true
  }
}
layer {
  name: "scale_conv1"
  type: "Scale"
  bottom: "conv1"
  top: "conv1"
  param {
    name: "scale_conv1_0"
    lr_mult: 0
  }
  param {
    name: "scale_conv1_1"
    lr_mult: 0
  }
  scale_param {
    bias_term: true
  }
}
layer {
  name: "conv1_relu"
  type: "ReLU"
  bottom: "conv1"
  top: "conv1"
}
layer {
  name: "pool1"
  type: "Pooling"
  bottom: "conv1"
  top: "pool1"
  pooling_param {
    pool: MAX
    kernel_size: 3
    stride: 2
    pad: 1
  }
}
layer {
  name: "res2a_branch1"
  type: "Convolution"
  bottom: "pool1"
  top: "res2a_branch1"
  param {
    name: "res2a_branch1_0"
    lr_mult: 1
    decay_mult: 1
  }
  convolution_param {
    num_output: 256
    bias_term: false
    pad: 0
    kernel_size: 1
    stride: 1
  }
}
layer {
  name: "bn2a_branch1"
  type: "BatchNorm"
  bottom: "res2a_branch1"
  top: "res2a_branch1"
  param {
    name: "bn2a_branch1_0"
    lr_mult: 0
  }
  param {
    name: "bn2a_branch1_1"
    lr_mult: 0
  }
  param {
    name: "bn2a_branch1_2"
    lr_mult: 0
  }
  batch_norm_param {
    use_global_stats: true
  }
}
layer {
  name: "scale2a_branch1"
  type: "Scale"
  bottom: "res2a_branch1"
  top: "res2a_branch1"
  param {
    name: "scale2a_branch1_0"
    lr_mult: 0
  }
  param {
    name: "scale2a_branch1_1"
    lr_mult: 0
  }
  scale_param {
    bias_term: true
  }
}
layer {
  name: "res2a_branch2a"
  type: "Convolution"
  bottom: "pool1"
  top: "res2a_branch2a"
  param {
    name: "res2a_branch2a_0"
    lr_mult: 1
    decay_mult: 1
  }
  convolution_param {
    num_output: 64
    bias_term: false
    pad: 0
    kernel_size: 1
    stride: 1
  }
}
layer {
  name: "bn2a_branch2a"
  type: "BatchNorm"
  bottom: "res2a_branch2a"
  top: "res2a_branch2a"
  param {
    name: "bn2a_branch2a_0"
    lr_mult: 0
  }
  param {
    name: "bn2a_branch2a_1"
    lr_mult: 0
  }
  param {
    name: "bn2a_branch2a_2"
    lr_mult: 0
  }
  batch_norm_param {
    use_global_stats: true
  }
}
layer {
  name: "scale2a_branch2a"
  type: "Scale"
  bottom: "res2a_branch2a"
  top: "res2a_branch2a"
  param {
    name: "scale2a_branch2a_0"
    lr_mult: 0
  }
  param {
    name: "scale2a_branch2a_1"
    lr_mult: 0
  }
  scale_param {
    bias_term: true
  }
}
layer {
  name: "res2a_branch2a_relu"
  type: "ReLU"
  bottom: "res2a_branch2a"
  top: "res2a_branch2a"
}
layer {
  name: "res2a_branch2b"
  type: "Convolution"
  bottom: "res2a_branch2a"
  top: "res2a_branch2b"
  param {
    name: "res2a_branch2b_0"
    lr_mult: 1
    decay_mult: 1
  }
  convolution_param {
    num_output: 64
    bias_term: false
    pad: 1
    kernel_size: 3
    stride: 1
  }
}
layer {
  name: "bn2a_branch2b"
  type: "BatchNorm"
  bottom: "res2a_branch2b"
  top: "res2a_branch2b"
  param {
    name: "bn2a_branch2b_0"
    lr_mult: 0
  }
  param {
    name: "bn2a_branch2b_1"
    lr_mult: 0
  }
  param {
    name: "bn2a_branch2b_2"
    lr_mult: 0
  }
  batch_norm_param {
    use_global_stats: true
  }
}
layer {
  name: "scale2a_branch2b"
  type: "Scale"
  bottom: "res2a_branch2b"
  top: "res2a_branch2b"
  param {
    name: "scale2a_branch2b_0"
    lr_mult: 0
  }
  param {
    name: "scale2a_branch2b_1"
    lr_mult: 0
  }
  scale_param {
    bias_term: true
  }
}
layer {
  name: "res2a_branch2b_relu"
  type: "ReLU"
  bottom: "res2a_branch2b"
  top: "res2a_branch2b"
}
layer {
  name: "res2a_branch2c"
  type: "Convolution"
  bottom: "res2a_branch2b"
  top: "res2a_branch2c"
  param {
    name: "res2a_branch2c_0"
    lr_mult: 1
    decay_mult: 1
  }
  convolution_param {
    num_output: 256
    bias_term: false
    pad: 0
    kernel_size: 1
    stride: 1
  }
}
layer {
  name: "bn2a_branch2c"
  type: "BatchNorm"
  bottom: "res2a_branch2c"
  top: "res2a_branch2c"
  param {
    name: "bn2a_branch2c_0"
    lr_mult: 0
  }
  param {
    name: "bn2a_branch2c_1"
    lr_mult: 0
  }
  param {
    name: "bn2a_branch2c_2"
    lr_mult: 0
  }
  batch_norm_param {
    use_global_stats: true
  }
}
layer {
  name: "scale2a_branch2c"
  type: "Scale"
  bottom: "res2a_branch2c"
  top: "res2a_branch2c"
  param {
    name: "scale2a_branch2c_0"
    lr_mult: 0
  }
  param {
    name: "scale2a_branch2c_1"
    lr_mult: 0
  }
  scale_param {
    bias_term: true
  }
}
layer {
  name: "res2a"
  type: "Eltwise"
  bottom: "res2a_branch1"
  bottom: "res2a_branch2c"
  top: "res2a"
}
layer {
  name: "res2a_relu"
  type: "ReLU"
  bottom: "res2a"
  top: "res2a"
}
layer {
  name: "res2b_branch2a"
  type: "Convolution"
  bottom: "res2a"
  top: "res2b_branch2a"
  param {
    name: "res2b_branch2a_0"
    lr_mult: 1
    decay_mult: 1
  }
  convolution_param {
    num_output: 64
    bias_term: false
    pad: 0
    kernel_size: 1
    stride: 1
  }
}
layer {
  name: "bn2b_branch2a"
  type: "BatchNorm"
  bottom: "res2b_branch2a"
  top: "res2b_branch2a"
  param {
    name: "bn2b_branch2a_0"
    lr_mult: 0
  }
  param {
    name: "bn2b_branch2a_1"
    lr_mult: 0
  }
  param {
    name: "bn2b_branch2a_2"
    lr_mult: 0
  }
  batch_norm_param {
    use_global_stats: true
  }
}
layer {
  name: "scale2b_branch2a"
  type: "Scale"
  bottom: "res2b_branch2a"
  top: "res2b_branch2a"
  param {
    name: "scale2b_branch2a_0"
    lr_mult: 0
  }
  param {
    name: "scale2b_branch2a_1"
    lr_mult: 0
  }
  scale_param {
    bias_term: true
  }
}
layer {
  name: "res2b_branch2a_relu"
  type: "ReLU"
  bottom: "res2b_branch2a"
  top: "res2b_branch2a"
}
layer {
  name: "res2b_branch2b"
  type: "Convolution"
  bottom: "res2b_branch2a"
  top: "res2b_branch2b"
  param {
    name: "res2b_branch2b_0"
    lr_mult: 1
    decay_mult: 1
  }
  convolution_param {
    num_output: 64
    bias_term: false
    pad: 1
    kernel_size: 3
    stride: 1
  }
}
layer {
  name: "bn2b_branch2b"
  type: "BatchNorm"
  bottom: "res2b_branch2b"
  top: "res2b_branch2b"
  param {
    name: "bn2b_branch2b_0"
    lr_mult: 0
  }
  param {
    name: "bn2b_branch2b_1"
    lr_mult: 0
  }
  param {
    name: "bn2b_branch2b_2"
    lr_mult: 0
  }
  batch_norm_param {
    use_global_stats: true
  }
}
layer {
  name: "scale2b_branch2b"
  type: "Scale"
  bottom: "res2b_branch2b"
  top: "res2b_branch2b"
  param {
    name: "scale2b_branch2b_0"
    lr_mult: 0
  }
  param {
    name: "scale2b_branch2b_1"
    lr_mult: 0
  }
  scale_param {
    bias_term: true
  }
}
layer {
  name: "res2b_branch2b_relu"
  type: "ReLU"
  bottom: "res2b_branch2b"
  top: "res2b_branch2b"
}
layer {
  name: "res2b_branch2c"
  type: "Convolution"
  bottom: "res2b_branch2b"
  top: "res2b_branch2c"
  param {
    name: "res2b_branch2c_0"
    lr_mult: 1
    decay_mult: 1
  }
  convolution_param {
    num_output: 256
    bias_term: false
    pad: 0
    kernel_size: 1
    stride: 1
  }
}
layer {
  name: "bn2b_branch2c"
  type: "BatchNorm"
  bottom: "res2b_branch2c"
  top: "res2b_branch2c"
  param {
    name: "bn2b_branch2c_0"
    lr_mult: 0
  }
  param {
    name: "bn2b_branch2c_1"
    lr_mult: 0
  }
  param {
    name: "bn2b_branch2c_2"
    lr_mult: 0
  }
  batch_norm_param {
    use_global_stats: true
  }
}
layer {
  name: "scale2b_branch2c"
  type: "Scale"
  bottom: "res2b_branch2c"
  top: "res2b_branch2c"
  param {
    name: "scale2b_branch2c_0"
    lr_mult: 0
  }
  param {
    name: "scale2b_branch2c_1"
    lr_mult: 0
  }
  scale_param {
    bias_term: true
  }
}
layer {
  name: "res2b"
  type: "Eltwise"
  bottom: "res2a"
  bottom: "res2b_branch2c"
  top: "res2b"
}
layer {
  name: "res2b_relu"
  type: "ReLU"
  bottom: "res2b"
  top: "res2b"
}
layer {
  name: "res2c_branch2a"
  type: "Convolution"
  bottom: "res2b"
  top: "res2c_branch2a"
  param {
    name: "res2c_branch2a_0"
    lr_mult: 1
    decay_mult: 1
  }
  convolution_param {
    num_output: 64
    bias_term: false
    pad: 0
    kernel_size: 1
    stride: 1
  }
}
layer {
  name: "bn2c_branch2a"
  type: "BatchNorm"
  bottom: "res2c_branch2a"
  top: "res2c_branch2a"
  param {
    name: "bn2c_branch2a_0"
    lr_mult: 0
  }
  param {
    name: "bn2c_branch2a_1"
    lr_mult: 0
  }
  param {
    name: "bn2c_branch2a_2"
    lr_mult: 0
  }
  batch_norm_param {
    use_global_stats: true
  }
}
layer {
  name: "scale2c_branch2a"
  type: "Scale"
  bottom: "res2c_branch2a"
  top: "res2c_branch2a"
  param {
    name: "scale2c_branch2a_0"
    lr_mult: 0
  }
  param {
    name: "scale2c_branch2a_1"
    lr_mult: 0
  }
  scale_param {
    bias_term: true
  }
}
layer {
  name: "res2c_branch2a_relu"
  type: "ReLU"
  bottom: "res2c_branch2a"
  top: "res2c_branch2a"
}
layer {
  name: "res2c_branch2b"
  type: "Convolution"
  bottom: "res2c_branch2a"
  top: "res2c_branch2b"
  param {
    name: "res2c_branch2b_0"
    lr_mult: 1
    decay_mult: 1
  }
  convolution_param {
    num_output: 64
    bias_term: false
    pad: 1
    kernel_size: 3
    stride: 1
  }
}
layer {
  name: "bn2c_branch2b"
  type: "BatchNorm"
  bottom: "res2c_branch2b"
  top: "res2c_branch2b"
  param {
    name: "bn2c_branch2b_0"
    lr_mult: 0
  }
  param {
    name: "bn2c_branch2b_1"
    lr_mult: 0
  }
  param {
    name: "bn2c_branch2b_2"
    lr_mult: 0
  }
  batch_norm_param {
    use_global_stats: true
  }
}
layer {
  name: "scale2c_branch2b"
  type: "Scale"
  bottom: "res2c_branch2b"
  top: "res2c_branch2b"
  param {
    name: "scale2c_branch2b_0"
    lr_mult: 0
  }
  param {
    name: "scale2c_branch2b_1"
    lr_mult: 0
  }
  scale_param {
    bias_term: true
  }
}
layer {
  name: "res2c_branch2b_relu"
  type: "ReLU"
  bottom: "res2c_branch2b"
  top: "res2c_branch2b"
}
layer {
  name: "res2c_branch2c"
  type: "Convolution"
  bottom: "res2c_branch2b"
  top: "res2c_branch2c"
  param {
    name: "res2c_branch2c_0"
    lr_mult: 1
    decay_mult: 1
  }
  convolution_param {
    num_output: 256
    bias_term: false
    pad: 0
    kernel_size: 1
    stride: 1
  }
}
layer {
  name: "bn2c_branch2c"
  type: "BatchNorm"
  bottom: "res2c_branch2c"
  top: "res2c_branch2c"
  param {
    name: "bn2c_branch2c_0"
    lr_mult: 0
  }
  param {
    name: "bn2c_branch2c_1"
    lr_mult: 0
  }
  param {
    name: "bn2c_branch2c_2"
    lr_mult: 0
  }
  batch_norm_param {
    use_global_stats: true
  }
}
layer {
  name: "scale2c_branch2c"
  type: "Scale"
  bottom: "res2c_branch2c"
  top: "res2c_branch2c"
  param {
    name: "scale2c_branch2c_0"
    lr_mult: 0
  }
  param {
    name: "scale2c_branch2c_1"
    lr_mult: 0
  }
  scale_param {
    bias_term: true
  }
}
layer {
  name: "res2c"
  type: "Eltwise"
  bottom: "res2b"
  bottom: "res2c_branch2c"
  top: "res2c"
}
layer {
  name: "res2c_relu"
  type: "ReLU"
  bottom: "res2c"
  top: "res2c"
}
layer {
  name: "res3a_branch1"
  type: "Convolution"
  bottom: "res2c"
  top: "res3a_branch1"
  param {
    name: "res3a_branch1_0"
    lr_mult: 1
    decay_mult: 1
  }
  convolution_param {
    num_output: 512
    bias_term: false
    pad: 0
    kernel_size: 1
    stride: 2
  }
}
layer {
  name: "bn3a_branch1"
  type: "BatchNorm"
  bottom: "res3a_branch1"
  top: "res3a_branch1"
  param {
    name: "bn3a_branch1_0"
    lr_mult: 0
  }
  param {
    name: "bn3a_branch1_1"
    lr_mult: 0
  }
  param {
    name: "bn3a_branch1_2"
    lr_mult: 0
  }
  batch_norm_param {
    use_global_stats: true
  }
}
layer {
  name: "scale3a_branch1"
  type: "Scale"
  bottom: "res3a_branch1"
  top: "res3a_branch1"
  param {
    name: "scale3a_branch1_0"
    lr_mult: 0
  }
  param {
    name: "scale3a_branch1_1"
    lr_mult: 0
  }
  scale_param {
    bias_term: true
  }
}
layer {
  name: "res3a_branch2a"
  type: "Convolution"
  bottom: "res2c"
  top: "res3a_branch2a"
  param {
    name: "res3a_branch2a_0"
    lr_mult: 1
    decay_mult: 1
  }
  convolution_param {
    num_output: 128
    bias_term: false
    pad: 0
    kernel_size: 1
    stride: 2
  }
}
layer {
  name: "bn3a_branch2a"
  type: "BatchNorm"
  bottom: "res3a_branch2a"
  top: "res3a_branch2a"
  param {
    name: "bn3a_branch2a_0"
    lr_mult: 0
  }
  param {
    name: "bn3a_branch2a_1"
    lr_mult: 0
  }
  param {
    name: "bn3a_branch2a_2"
    lr_mult: 0
  }
  batch_norm_param {
    use_global_stats: true
  }
}
layer {
  name: "scale3a_branch2a"
  type: "Scale"
  bottom: "res3a_branch2a"
  top: "res3a_branch2a"
  param {
    name: "scale3a_branch2a_0"
    lr_mult: 0
  }
  param {
    name: "scale3a_branch2a_1"
    lr_mult: 0
  }
  scale_param {
    bias_term: true
  }
}
layer {
  name: "res3a_branch2a_relu"
  type: "ReLU"
  bottom: "res3a_branch2a"
  top: "res3a_branch2a"
}
layer {
  name: "res3a_branch2b"
  type: "Convolution"
  bottom: "res3a_branch2a"
  top: "res3a_branch2b"
  param {
    name: "res3a_branch2b_0"
    lr_mult: 1
    decay_mult: 1
  }
  convolution_param {
    num_output: 128
    bias_term: false
    pad: 1
    kernel_size: 3
    stride: 1
  }
}
layer {
  name: "bn3a_branch2b"
  type: "BatchNorm"
  bottom: "res3a_branch2b"
  top: "res3a_branch2b"
  param {
    name: "bn3a_branch2b_0"
    lr_mult: 0
  }
  param {
    name: "bn3a_branch2b_1"
    lr_mult: 0
  }
  param {
    name: "bn3a_branch2b_2"
    lr_mult: 0
  }
  batch_norm_param {
    use_global_stats: true
  }
}
layer {
  name: "scale3a_branch2b"
  type: "Scale"
  bottom: "res3a_branch2b"
  top: "res3a_branch2b"
  param {
    name: "scale3a_branch2b_0"
    lr_mult: 0
  }
  param {
    name: "scale3a_branch2b_1"
    lr_mult: 0
  }
  scale_param {
    bias_term: true
  }
}
layer {
  name: "res3a_branch2b_relu"
  type: "ReLU"
  bottom: "res3a_branch2b"
  top: "res3a_branch2b"
}
layer {
  name: "res3a_branch2c"
  type: "Convolution"
  bottom: "res3a_branch2b"
  top: "res3a_branch2c"
  param {
    name: "res3a_branch2c_0"
    lr_mult: 1
    decay_mult: 1
  }
  convolution_param {
    num_output: 512
    bias_term: false
    pad: 0
    kernel_size: 1
    stride: 1
  }
}
layer {
  name: "bn3a_branch2c"
  type: "BatchNorm"
  bottom: "res3a_branch2c"
  top: "res3a_branch2c"
  param {
    name: "bn3a_branch2c_0"
    lr_mult: 0
  }
  param {
    name: "bn3a_branch2c_1"
    lr_mult: 0
  }
  param {
    name: "bn3a_branch2c_2"
    lr_mult: 0
  }
  batch_norm_param {
    use_global_stats: true
  }
}
layer {
  name: "scale3a_branch2c"
  type: "Scale"
  bottom: "res3a_branch2c"
  top: "res3a_branch2c"
  param {
    name: "scale3a_branch2c_0"
    lr_mult: 0
  }
  param {
    name: "scale3a_branch2c_1"
    lr_mult: 0
  }
  scale_param {
    bias_term: true
  }
}
layer {
  name: "res3a"
  type: "Eltwise"
  bottom: "res3a_branch1"
  bottom: "res3a_branch2c"
  top: "res3a"
}
layer {
  name: "res3a_relu"
  type: "ReLU"
  bottom: "res3a"
  top: "res3a"
}
layer {
  name: "res3b1_branch2a"
  type: "Convolution"
  bottom: "res3a"
  top: "res3b1_branch2a"
  param {
    name: "res3b1_branch2a_0"
    lr_mult: 1
    decay_mult: 1
  }
  convolution_param {
    num_output: 128
    bias_term: false
    pad: 0
    kernel_size: 1
    stride: 1
  }
}
layer {
  name: "bn3b1_branch2a"
  type: "BatchNorm"
  bottom: "res3b1_branch2a"
  top: "res3b1_branch2a"
  param {
    name: "bn3b1_branch2a_0"
    lr_mult: 0
  }
  param {
    name: "bn3b1_branch2a_1"
    lr_mult: 0
  }
  param {
    name: "bn3b1_branch2a_2"
    lr_mult: 0
  }
  batch_norm_param {
    use_global_stats: true
  }
}
layer {
  name: "scale3b1_branch2a"
  type: "Scale"
  bottom: "res3b1_branch2a"
  top: "res3b1_branch2a"
  param {
    name: "scale3b1_branch2a_0"
    lr_mult: 0
  }
  param {
    name: "scale3b1_branch2a_1"
    lr_mult: 0
  }
  scale_param {
    bias_term: true
  }
}
layer {
  name: "res3b1_branch2a_relu"
  type: "ReLU"
  bottom: "res3b1_branch2a"
  top: "res3b1_branch2a"
}
layer {
  name: "res3b1_branch2b"
  type: "Convolution"
  bottom: "res3b1_branch2a"
  top: "res3b1_branch2b"
  param {
    name: "res3b1_branch2b_0"
    lr_mult: 1
    decay_mult: 1
  }
  convolution_param {
    num_output: 128
    bias_term: false
    pad: 1
    kernel_size: 3
    stride: 1
  }
}
layer {
  name: "bn3b1_branch2b"
  type: "BatchNorm"
  bottom: "res3b1_branch2b"
  top: "res3b1_branch2b"
  param {
    name: "bn3b1_branch2b_0"
    lr_mult: 0
  }
  param {
    name: "bn3b1_branch2b_1"
    lr_mult: 0
  }
  param {
    name: "bn3b1_branch2b_2"
    lr_mult: 0
  }
  batch_norm_param {
    use_global_stats: true
  }
}
layer {
  name: "scale3b1_branch2b"
  type: "Scale"
  bottom: "res3b1_branch2b"
  top: "res3b1_branch2b"
  param {
    name: "scale3b1_branch2b_0"
    lr_mult: 0
  }
  param {
    name: "scale3b1_branch2b_1"
    lr_mult: 0
  }
  scale_param {
    bias_term: true
  }
}
layer {
  name: "res3b1_branch2b_relu"
  type: "ReLU"
  bottom: "res3b1_branch2b"
  top: "res3b1_branch2b"
}
layer {
  name: "res3b1_branch2c"
  type: "Convolution"
  bottom: "res3b1_branch2b"
  top: "res3b1_branch2c"
  param {
    name: "res3b1_branch2c_0"
    lr_mult: 1
    decay_mult: 1
  }
  convolution_param {
    num_output: 512
    bias_term: false
    pad: 0
    kernel_size: 1
    stride: 1
  }
}
layer {
  name: "bn3b1_branch2c"
  type: "BatchNorm"
  bottom: "res3b1_branch2c"
  top: "res3b1_branch2c"
  param {
    name: "bn3b1_branch2c_0"
    lr_mult: 0
  }
  param {
    name: "bn3b1_branch2c_1"
    lr_mult: 0
  }
  param {
    name: "bn3b1_branch2c_2"
    lr_mult: 0
  }
  batch_norm_param {
    use_global_stats: true
  }
}
layer {
  name: "scale3b1_branch2c"
  type: "Scale"
  bottom: "res3b1_branch2c"
  top: "res3b1_branch2c"
  param {
    name: "scale3b1_branch2c_0"
    lr_mult: 0
  }
  param {
    name: "scale3b1_branch2c_1"
    lr_mult: 0
  }
  scale_param {
    bias_term: true
  }
}
layer {
  name: "res3b1"
  type: "Eltwise"
  bottom: "res3a"
  bottom: "res3b1_branch2c"
  top: "res3b1"
}
layer {
  name: "res3b1_relu"
  type: "ReLU"
  bottom: "res3b1"
  top: "res3b1"
}
layer {
  name: "res3b2_branch2a"
  type: "Convolution"
  bottom: "res3b1"
  top: "res3b2_branch2a"
  param {
    name: "res3b2_branch2a_0"
    lr_mult: 1
    decay_mult: 1
  }
  convolution_param {
    num_output: 128
    bias_term: false
    pad: 0
    kernel_size: 1
    stride: 1
  }
}
layer {
  name: "bn3b2_branch2a"
  type: "BatchNorm"
  bottom: "res3b2_branch2a"
  top: "res3b2_branch2a"
  param {
    name: "bn3b2_branch2a_0"
    lr_mult: 0
  }
  param {
    name: "bn3b2_branch2a_1"
    lr_mult: 0
  }
  param {
    name: "bn3b2_branch2a_2"
    lr_mult: 0
  }
  batch_norm_param {
    use_global_stats: true
  }
}
layer {
  name: "scale3b2_branch2a"
  type: "Scale"
  bottom: "res3b2_branch2a"
  top: "res3b2_branch2a"
  param {
    name: "scale3b2_branch2a_0"
    lr_mult: 0
  }
  param {
    name: "scale3b2_branch2a_1"
    lr_mult: 0
  }
  scale_param {
    bias_term: true
  }
}
layer {
  name: "res3b2_branch2a_relu"
  type: "ReLU"
  bottom: "res3b2_branch2a"
  top: "res3b2_branch2a"
}
layer {
  name: "res3b2_branch2b"
  type: "Convolution"
  bottom: "res3b2_branch2a"
  top: "res3b2_branch2b"
  param {
    name: "res3b2_branch2b_0"
    lr_mult: 1
    decay_mult: 1
  }
  convolution_param {
    num_output: 128
    bias_term: false
    pad: 1
    kernel_size: 3
    stride: 1
  }
}
layer {
  name: "bn3b2_branch2b"
  type: "BatchNorm"
  bottom: "res3b2_branch2b"
  top: "res3b2_branch2b"
  param {
    name: "bn3b2_branch2b_0"
    lr_mult: 0
  }
  param {
    name: "bn3b2_branch2b_1"
    lr_mult: 0
  }
  param {
    name: "bn3b2_branch2b_2"
    lr_mult: 0
  }
  batch_norm_param {
    use_global_stats: true
  }
}
layer {
  name: "scale3b2_branch2b"
  type: "Scale"
  bottom: "res3b2_branch2b"
  top: "res3b2_branch2b"
  param {
    name: "scale3b2_branch2b_0"
    lr_mult: 0
  }
  param {
    name: "scale3b2_branch2b_1"
    lr_mult: 0
  }
  scale_param {
    bias_term: true
  }
}
layer {
  name: "res3b2_branch2b_relu"
  type: "ReLU"
  bottom: "res3b2_branch2b"
  top: "res3b2_branch2b"
}
layer {
  name: "res3b2_branch2c"
  type: "Convolution"
  bottom: "res3b2_branch2b"
  top: "res3b2_branch2c"
  param {
    name: "res3b2_branch2c_0"
    lr_mult: 1
    decay_mult: 1
  }
  convolution_param {
    num_output: 512
    bias_term: false
    pad: 0
    kernel_size: 1
    stride: 1
  }
}
layer {
  name: "bn3b2_branch2c"
  type: "BatchNorm"
  bottom: "res3b2_branch2c"
  top: "res3b2_branch2c"
  param {
    name: "bn3b2_branch2c_0"
    lr_mult: 0
  }
  param {
    name: "bn3b2_branch2c_1"
    lr_mult: 0
  }
  param {
    name: "bn3b2_branch2c_2"
    lr_mult: 0
  }
  batch_norm_param {
    use_global_stats: true
  }
}
layer {
  name: "scale3b2_branch2c"
  type: "Scale"
  bottom: "res3b2_branch2c"
  top: "res3b2_branch2c"
  param {
    name: "scale3b2_branch2c_0"
    lr_mult: 0
  }
  param {
    name: "scale3b2_branch2c_1"
    lr_mult: 0
  }
  scale_param {
    bias_term: true
  }
}
layer {
  name: "res3b2"
  type: "Eltwise"
  bottom: "res3b1"
  bottom: "res3b2_branch2c"
  top: "res3b2"
}
layer {
  name: "res3b2_relu"
  type: "ReLU"
  bottom: "res3b2"
  top: "res3b2"
}
layer {
  name: "res3b3_branch2a"
  type: "Convolution"
  bottom: "res3b2"
  top: "res3b3_branch2a"
  param {
    name: "res3b3_branch2a_0"
    lr_mult: 1
    decay_mult: 1
  }
  convolution_param {
    num_output: 128
    bias_term: false
    pad: 0
    kernel_size: 1
    stride: 1
  }
}
layer {
  name: "bn3b3_branch2a"
  type: "BatchNorm"
  bottom: "res3b3_branch2a"
  top: "res3b3_branch2a"
  param {
    name: "bn3b3_branch2a_0"
    lr_mult: 0
  }
  param {
    name: "bn3b3_branch2a_1"
    lr_mult: 0
  }
  param {
    name: "bn3b3_branch2a_2"
    lr_mult: 0
  }
  batch_norm_param {
    use_global_stats: true
  }
}
layer {
  name: "scale3b3_branch2a"
  type: "Scale"
  bottom: "res3b3_branch2a"
  top: "res3b3_branch2a"
  param {
    name: "scale3b3_branch2a_0"
    lr_mult: 0
  }
  param {
    name: "scale3b3_branch2a_1"
    lr_mult: 0
  }
  scale_param {
    bias_term: true
  }
}
layer {
  name: "res3b3_branch2a_relu"
  type: "ReLU"
  bottom: "res3b3_branch2a"
  top: "res3b3_branch2a"
}
layer {
  name: "res3b3_branch2b"
  type: "Convolution"
  bottom: "res3b3_branch2a"
  top: "res3b3_branch2b"
  param {
    name: "res3b3_branch2b_0"
    lr_mult: 1
    decay_mult: 1
  }
  convolution_param {
    num_output: 128
    bias_term: false
    pad: 1
    kernel_size: 3
    stride: 1
  }
}
layer {
  name: "bn3b3_branch2b"
  type: "BatchNorm"
  bottom: "res3b3_branch2b"
  top: "res3b3_branch2b"
  param {
    name: "bn3b3_branch2b_0"
    lr_mult: 0
  }
  param {
    name: "bn3b3_branch2b_1"
    lr_mult: 0
  }
  param {
    name: "bn3b3_branch2b_2"
    lr_mult: 0
  }
  batch_norm_param {
    use_global_stats: true
  }
}
layer {
  name: "scale3b3_branch2b"
  type: "Scale"
  bottom: "res3b3_branch2b"
  top: "res3b3_branch2b"
  param {
    name: "scale3b3_branch2b_0"
    lr_mult: 0
  }
  param {
    name: "scale3b3_branch2b_1"
    lr_mult: 0
  }
  scale_param {
    bias_term: true
  }
}
layer {
  name: "res3b3_branch2b_relu"
  type: "ReLU"
  bottom: "res3b3_branch2b"
  top: "res3b3_branch2b"
}
layer {
  name: "res3b3_branch2c"
  type: "Convolution"
  bottom: "res3b3_branch2b"
  top: "res3b3_branch2c"
  param {
    name: "res3b3_branch2c_0"
    lr_mult: 1
    decay_mult: 1
  }
  convolution_param {
    num_output: 512
    bias_term: false
    pad: 0
    kernel_size: 1
    stride: 1
  }
}
layer {
  name: "bn3b3_branch2c"
  type: "BatchNorm"
  bottom: "res3b3_branch2c"
  top: "res3b3_branch2c"
  param {
    name: "bn3b3_branch2c_0"
    lr_mult: 0
  }
  param {
    name: "bn3b3_branch2c_1"
    lr_mult: 0
  }
  param {
    name: "bn3b3_branch2c_2"
    lr_mult: 0
  }
  batch_norm_param {
    use_global_stats: true
  }
}
layer {
  name: "scale3b3_branch2c"
  type: "Scale"
  bottom: "res3b3_branch2c"
  top: "res3b3_branch2c"
  param {
    name: "scale3b3_branch2c_0"
    lr_mult: 0
  }
  param {
    name: "scale3b3_branch2c_1"
    lr_mult: 0
  }
  scale_param {
    bias_term: true
  }
}
layer {
  name: "res3b3"
  type: "Eltwise"
  bottom: "res3b2"
  bottom: "res3b3_branch2c"
  top: "res3b3"
}
layer {
  name: "res3b3_relu"
  type: "ReLU"
  bottom: "res3b3"
  top: "res3b3"
}
layer {
  name: "res4a_branch1"
  type: "Convolution"
  bottom: "res3b3"
  top: "res4a_branch1"
  param {
    name: "res4a_branch1_0"
    lr_mult: 1
    decay_mult: 1
  }
  convolution_param {
    num_output: 1024
    bias_term: false
    pad: 0
    kernel_size: 1
    stride: 1
  }
}
layer {
  name: "bn4a_branch1"
  type: "BatchNorm"
  bottom: "res4a_branch1"
  top: "res4a_branch1"
  param {
    name: "bn4a_branch1_0"
    lr_mult: 0
  }
  param {
    name: "bn4a_branch1_1"
    lr_mult: 0
  }
  param {
    name: "bn4a_branch1_2"
    lr_mult: 0
  }
  batch_norm_param {
    use_global_stats: true
  }
}
layer {
  name: "scale4a_branch1"
  type: "Scale"
  bottom: "res4a_branch1"
  top: "res4a_branch1"
  param {
    name: "scale4a_branch1_0"
    lr_mult: 0
  }
  param {
    name: "scale4a_branch1_1"
    lr_mult: 0
  }
  scale_param {
    bias_term: true
  }
}
layer {
  name: "res4a_branch2a"
  type: "Convolution"
  bottom: "res3b3"
  top: "res4a_branch2a"
  param {
    name: "res4a_branch2a_0"
    lr_mult: 1
    decay_mult: 1
  }
  convolution_param {
    num_output: 256
    bias_term: false
    pad: 0
    kernel_size: 1
    stride: 1
  }
}
layer {
  name: "bn4a_branch2a"
  type: "BatchNorm"
  bottom: "res4a_branch2a"
  top: "res4a_branch2a"
  param {
    name: "bn4a_branch2a_0"
    lr_mult: 0
  }
  param {
    name: "bn4a_branch2a_1"
    lr_mult: 0
  }
  param {
    name: "bn4a_branch2a_2"
    lr_mult: 0
  }
  batch_norm_param {
    use_global_stats: true
  }
}
layer {
  name: "scale4a_branch2a"
  type: "Scale"
  bottom: "res4a_branch2a"
  top: "res4a_branch2a"
  param {
    name: "scale4a_branch2a_0"
    lr_mult: 0
  }
  param {
    name: "scale4a_branch2a_1"
    lr_mult: 0
  }
  scale_param {
    bias_term: true
  }
}
layer {
  name: "res4a_branch2a_relu"
  type: "ReLU"
  bottom: "res4a_branch2a"
  top: "res4a_branch2a"
}
layer {
  name: "res4a_branch2b"
  type: "Convolution"
  bottom: "res4a_branch2a"
  top: "res4a_branch2b"
  param {
    name: "res4a_branch2b_0"
    lr_mult: 1
    decay_mult: 1
  }
  convolution_param {
    num_output: 256
    bias_term: false
    pad: 2
    kernel_size: 3
    stride: 1
    dilation: 2
  }
}
layer {
  name: "bn4a_branch2b"
  type: "BatchNorm"
  bottom: "res4a_branch2b"
  top: "res4a_branch2b"
  param {
    name: "bn4a_branch2b_0"
    lr_mult: 0
  }
  param {
    name: "bn4a_branch2b_1"
    lr_mult: 0
  }
  param {
    name: "bn4a_branch2b_2"
    lr_mult: 0
  }
  batch_norm_param {
    use_global_stats: true
  }
}
layer {
  name: "scale4a_branch2b"
  type: "Scale"
  bottom: "res4a_branch2b"
  top: "res4a_branch2b"
  param {
    name: "scale4a_branch2b_0"
    lr_mult: 0
  }
  param {
    name: "scale4a_branch2b_1"
    lr_mult: 0
  }
  scale_param {
    bias_term: true
  }
}
layer {
  name: "res4a_branch2b_relu"
  type: "ReLU"
  bottom: "res4a_branch2b"
  top: "res4a_branch2b"
}
layer {
  name: "res4a_branch2c"
  type: "Convolution"
  bottom: "res4a_branch2b"
  top: "res4a_branch2c"
  param {
    name: "res4a_branch2c_0"
    lr_mult: 1
    decay_mult: 1
  }
  convolution_param {
    num_output: 1024
    bias_term: false
    pad: 0
    kernel_size: 1
    stride: 1
  }
}
layer {
  name: "bn4a_branch2c"
  type: "BatchNorm"
  bottom: "res4a_branch2c"
  top: "res4a_branch2c"
  param {
    name: "bn4a_branch2c_0"
    lr_mult: 0
  }
  param {
    name: "bn4a_branch2c_1"
    lr_mult: 0
  }
  param {
    name: "bn4a_branch2c_2"
    lr_mult: 0
  }
  batch_norm_param {
    use_global_stats: true
  }
}
layer {
  name: "scale4a_branch2c"
  type: "Scale"
  bottom: "res4a_branch2c"
  top: "res4a_branch2c"
  param {
    name: "scale4a_branch2c_0"
    lr_mult: 0
  }
  param {
    name: "scale4a_branch2c_1"
    lr_mult: 0
  }
  scale_param {
    bias_term: true
  }
}
layer {
  name: "res4a"
  type: "Eltwise"
  bottom: "res4a_branch1"
  bottom: "res4a_branch2c"
  top: "res4a"
}
layer {
  name: "res4a_relu"
  type: "ReLU"
  bottom: "res4a"
  top: "res4a"
}
layer {
  name: "res4b1_branch2a"
  type: "Convolution"
  bottom: "res4a"
  top: "res4b1_branch2a"
  param {
    name: "res4b1_branch2a_0"
    lr_mult: 1
    decay_mult: 1
  }
  convolution_param {
    num_output: 256
    bias_term: false
    pad: 0
    kernel_size: 1
    stride: 1
  }
}
layer {
  name: "bn4b1_branch2a"
  type: "BatchNorm"
  bottom: "res4b1_branch2a"
  top: "res4b1_branch2a"
  param {
    name: "bn4b1_branch2a_0"
    lr_mult: 0
  }
  param {
    name: "bn4b1_branch2a_1"
    lr_mult: 0
  }
  param {
    name: "bn4b1_branch2a_2"
    lr_mult: 0
  }
  batch_norm_param {
    use_global_stats: true
  }
}
layer {
  name: "scale4b1_branch2a"
  type: "Scale"
  bottom: "res4b1_branch2a"
  top: "res4b1_branch2a"
  param {
    name: "scale4b1_branch2a_0"
    lr_mult: 0
  }
  param {
    name: "scale4b1_branch2a_1"
    lr_mult: 0
  }
  scale_param {
    bias_term: true
  }
}
layer {
  name: "res4b1_branch2a_r
I0603 22:38:07.551374  4647 layer_factory.hpp:77] Creating layer data
I0603 22:38:07.551411  4647 net.cpp:106] Creating Layer data
I0603 22:38:07.551419  4647 net.cpp:411] data -> data
I0603 22:38:07.551434  4647 net.cpp:411] data -> label
I0603 22:38:07.551440  4647 net.cpp:411] data -> data_dim
I0603 22:38:07.551468  4647 image_seg_data_layer.cpp:46] Opening file voc12/list/val.txt
I0603 22:38:07.553184  4647 image_seg_data_layer.cpp:68] A total of 1449 images.
I0603 22:38:07.566242  4647 image_seg_data_layer.cpp:137] output data size: 1,3,513,513
I0603 22:38:07.566258  4647 image_seg_data_layer.cpp:141] output label size: 1,1,513,513
I0603 22:38:07.566260  4647 image_seg_data_layer.cpp:145] output data_dim size: 1,1,1,2
I0603 22:38:07.581162  4647 net.cpp:150] Setting up data
I0603 22:38:07.581183  4647 net.cpp:157] Top shape: 1 3 513 513 (789507)
I0603 22:38:07.581187  4647 net.cpp:157] Top shape: 1 1 513 513 (263169)
I0603 22:38:07.581205  4647 net.cpp:157] Top shape: 1 1 1 2 (2)
I0603 22:38:07.581209  4647 net.cpp:165] Memory required for data: 4210712
I0603 22:38:07.581216  4647 layer_factory.hpp:77] Creating layer data_data_0_split
I0603 22:38:07.581243  4647 net.cpp:106] Creating Layer data_data_0_split
I0603 22:38:07.581264  4647 net.cpp:454] data_data_0_split <- data
I0603 22:38:07.581274  4647 net.cpp:411] data_data_0_split -> data_data_0_split_0
I0603 22:38:07.581282  4647 net.cpp:411] data_data_0_split -> data_data_0_split_1
I0603 22:38:07.581288  4647 net.cpp:411] data_data_0_split -> data_data_0_split_2
I0603 22:38:07.581328  4647 net.cpp:150] Setting up data_data_0_split
I0603 22:38:07.581334  4647 net.cpp:157] Top shape: 1 3 513 513 (789507)
I0603 22:38:07.581338  4647 net.cpp:157] Top shape: 1 3 513 513 (789507)
I0603 22:38:07.581342  4647 net.cpp:157] Top shape: 1 3 513 513 (789507)
I0603 22:38:07.581344  4647 net.cpp:165] Memory required for data: 13684796
I0603 22:38:07.581348  4647 layer_factory.hpp:77] Creating layer label_data_1_split
I0603 22:38:07.581353  4647 net.cpp:106] Creating Layer label_data_1_split
I0603 22:38:07.581357  4647 net.cpp:454] label_data_1_split <- label
I0603 22:38:07.581362  4647 net.cpp:411] label_data_1_split -> label_data_1_split_0
I0603 22:38:07.581383  4647 net.cpp:411] label_data_1_split -> label_data_1_split_1
I0603 22:38:07.581408  4647 net.cpp:150] Setting up label_data_1_split
I0603 22:38:07.581413  4647 net.cpp:157] Top shape: 1 1 513 513 (263169)
I0603 22:38:07.581416  4647 net.cpp:157] Top shape: 1 1 513 513 (263169)
I0603 22:38:07.581420  4647 net.cpp:165] Memory required for data: 15790148
I0603 22:38:07.581423  4647 layer_factory.hpp:77] Creating layer data_res05
I0603 22:38:07.581430  4647 net.cpp:106] Creating Layer data_res05
I0603 22:38:07.581461  4647 net.cpp:454] data_res05 <- data_data_0_split_0
I0603 22:38:07.581480  4647 net.cpp:411] data_res05 -> data_res05
I0603 22:38:07.581513  4647 net.cpp:150] Setting up data_res05
I0603 22:38:07.581519  4647 net.cpp:157] Top shape: 1 3 257 257 (198147)
I0603 22:38:07.581522  4647 net.cpp:165] Memory required for data: 16582736
I0603 22:38:07.581526  4647 layer_factory.hpp:77] Creating layer data_res075
I0603 22:38:07.581532  4647 net.cpp:106] Creating Layer data_res075
I0603 22:38:07.581534  4647 net.cpp:454] data_res075 <- data_data_0_split_1
I0603 22:38:07.581539  4647 net.cpp:411] data_res075 -> data_res075
I0603 22:38:07.581567  4647 net.cpp:150] Setting up data_res075
I0603 22:38:07.581571  4647 net.cpp:157] Top shape: 1 3 385 385 (444675)
I0603 22:38:07.581574  4647 net.cpp:165] Memory required for data: 18361436
I0603 22:38:07.581578  4647 layer_factory.hpp:77] Creating layer conv1
I0603 22:38:07.581588  4647 net.cpp:106] Creating Layer conv1
I0603 22:38:07.581591  4647 net.cpp:454] conv1 <- data_data_0_split_2
I0603 22:38:07.581596  4647 net.cpp:411] conv1 -> conv1
I0603 22:38:48.682744  4647 net.cpp:150] Setting up conv1
I0603 22:38:48.682864  4647 net.cpp:157] Top shape: 1 64 257 257 (4227136)
I0603 22:38:48.682879  4647 net.cpp:165] Memory required for data: 35269980
I0603 22:38:48.682914  4647 layer_factory.hpp:77] Creating layer bn_conv1
I0603 22:38:48.682948  4647 net.cpp:106] Creating Layer bn_conv1
I0603 22:38:48.682967  4647 net.cpp:454] bn_conv1 <- conv1
I0603 22:38:48.682986  4647 net.cpp:397] bn_conv1 -> conv1 (in-place)
I0603 22:38:48.684890  4647 net.cpp:150] Setting up bn_conv1
I0603 22:38:48.684927  4647 net.cpp:157] Top shape: 1 64 257 257 (4227136)
I0603 22:38:48.684942  4647 net.cpp:165] Memory required for data: 52178524
I0603 22:38:48.684973  4647 layer_factory.hpp:77] Creating layer scale_conv1
I0603 22:38:48.684998  4647 net.cpp:106] Creating Layer scale_conv1
I0603 22:38:48.685012  4647 net.cpp:454] scale_conv1 <- conv1
I0603 22:38:48.685070  4647 net.cpp:397] scale_conv1 -> conv1 (in-place)
I0603 22:38:48.685202  4647 layer_factory.hpp:77] Creating layer scale_conv1
I0603 22:38:48.685765  4647 net.cpp:150] Setting up scale_conv1
I0603 22:38:48.685788  4647 net.cpp:157] Top shape: 1 64 257 257 (4227136)
I0603 22:38:48.685803  4647 net.cpp:165] Memory required for data: 69087068
I0603 22:38:48.685824  4647 layer_factory.hpp:77] Creating layer conv1_relu
I0603 22:38:48.685853  4647 net.cpp:106] Creating Layer conv1_relu
I0603 22:38:48.685866  4647 net.cpp:454] conv1_relu <- conv1
I0603 22:38:48.685887  4647 net.cpp:397] conv1_relu -> conv1 (in-place)
I0603 22:38:48.686974  4647 net.cpp:150] Setting up conv1_relu
I0603 22:38:48.687005  4647 net.cpp:157] Top shape: 1 64 257 257 (4227136)
I0603 22:38:48.687018  4647 net.cpp:165] Memory required for data: 85995612
I0603 22:38:48.687036  4647 layer_factory.hpp:77] Creating layer pool1
I0603 22:38:48.687057  4647 net.cpp:106] Creating Layer pool1
I0603 22:38:48.687072  4647 net.cpp:454] pool1 <- conv1
I0603 22:38:48.687095  4647 net.cpp:411] pool1 -> pool1
I0603 22:38:48.687225  4647 net.cpp:150] Setting up pool1
I0603 22:38:48.687247  4647 net.cpp:157] Top shape: 1 64 129 129 (1065024)
I0603 22:38:48.687259  4647 net.cpp:165] Memory required for data: 90255708
I0603 22:38:48.687271  4647 layer_factory.hpp:77] Creating layer pool1_pool1_0_split
I0603 22:38:48.687296  4647 net.cpp:106] Creating Layer pool1_pool1_0_split
I0603 22:38:48.687309  4647 net.cpp:454] pool1_pool1_0_split <- pool1
I0603 22:38:48.687333  4647 net.cpp:411] pool1_pool1_0_split -> pool1_pool1_0_split_0
I0603 22:38:48.687355  4647 net.cpp:411] pool1_pool1_0_split -> pool1_pool1_0_split_1
I0603 22:38:48.687458  4647 net.cpp:150] Setting up pool1_pool1_0_split
I0603 22:38:48.687481  4647 net.cpp:157] Top shape: 1 64 129 129 (1065024)
I0603 22:38:48.687497  4647 net.cpp:157] Top shape: 1 64 129 129 (1065024)
I0603 22:38:48.687510  4647 net.cpp:165] Memory required for data: 98775900
I0603 22:38:48.687525  4647 layer_factory.hpp:77] Creating layer res2a_branch1
I0603 22:38:48.687548  4647 net.cpp:106] Creating Layer res2a_branch1
I0603 22:38:48.687562  4647 net.cpp:454] res2a_branch1 <- pool1_pool1_0_split_0
I0603 22:38:48.687585  4647 net.cpp:411] res2a_branch1 -> res2a_branch1
I0603 22:38:48.712332  4647 net.cpp:150] Setting up res2a_branch1
I0603 22:38:48.712388  4647 net.cpp:157] Top shape: 1 256 129 129 (4260096)
I0603 22:38:48.712401  4647 net.cpp:165] Memory required for data: 115816284
I0603 22:38:48.712424  4647 layer_factory.hpp:77] Creating layer bn2a_branch1
I0603 22:38:48.712456  4647 net.cpp:106] Creating Layer bn2a_branch1
I0603 22:38:48.712472  4647 net.cpp:454] bn2a_branch1 <- res2a_branch1
I0603 22:38:48.712491  4647 net.cpp:397] bn2a_branch1 -> res2a_branch1 (in-place)
I0603 22:38:48.714257  4647 net.cpp:150] Setting up bn2a_branch1
I0603 22:38:48.714296  4647 net.cpp:157] Top shape: 1 256 129 129 (4260096)
I0603 22:38:48.714308  4647 net.cpp:165] Memory required for data: 132856668
I0603 22:38:48.714339  4647 layer_factory.hpp:77] Creating layer scale2a_branch1
I0603 22:38:48.714360  4647 net.cpp:106] Creating Layer scale2a_branch1
I0603 22:38:48.714377  4647 net.cpp:454] scale2a_branch1 <- res2a_branch1
I0603 22:38:48.714442  4647 net.cpp:397] scale2a_branch1 -> res2a_branch1 (in-place)
I0603 22:38:48.714568  4647 layer_factory.hpp:77] Creating layer scale2a_branch1
I0603 22:38:48.714939  4647 net.cpp:150] Setting up scale2a_branch1
I0603 22:38:48.714967  4647 net.cpp:157] Top shape: 1 256 129 129 (4260096)
I0603 22:38:48.714978  4647 net.cpp:165] Memory required for data: 149897052
I0603 22:38:48.714998  4647 layer_factory.hpp:77] Creating layer res2a_branch2a
I0603 22:38:48.715029  4647 net.cpp:106] Creating Layer res2a_branch2a
I0603 22:38:48.715045  4647 net.cpp:454] res2a_branch2a <- pool1_pool1_0_split_1
I0603 22:38:48.715062  4647 net.cpp:411] res2a_branch2a -> res2a_branch2a
I0603 22:38:48.745733  4647 net.cpp:150] Setting up res2a_branch2a
I0603 22:38:48.745791  4647 net.cpp:157] Top shape: 1 64 129 129 (1065024)
I0603 22:38:48.745810  4647 net.cpp:165] Memory required for data: 154157148
I0603 22:38:48.745841  4647 layer_factory.hpp:77] Creating layer bn2a_branch2a
I0603 22:38:48.745870  4647 net.cpp:106] Creating Layer bn2a_branch2a
I0603 22:38:48.745888  4647 net.cpp:454] bn2a_branch2a <- res2a_branch2a
I0603 22:38:48.745916  4647 net.cpp:397] bn2a_branch2a -> res2a_branch2a (in-place)
I0603 22:38:48.746553  4647 net.cpp:150] Setting up bn2a_branch2a
I0603 22:38:48.746577  4647 net.cpp:157] Top shape: 1 64 129 129 (1065024)
I0603 22:38:48.746590  4647 net.cpp:165] Memory required for data: 158417244
I0603 22:38:48.746618  4647 layer_factory.hpp:77] Creating layer scale2a_branch2a
I0603 22:38:48.746650  4647 net.cpp:106] Creating Layer scale2a_branch2a
I0603 22:38:48.746665  4647 net.cpp:454] scale2a_branch2a <- res2a_branch2a
I0603 22:38:48.746685  4647 net.cpp:397] scale2a_branch2a -> res2a_branch2a (in-place)
I0603 22:38:48.746811  4647 layer_factory.hpp:77] Creating layer scale2a_branch2a
I0603 22:38:48.747226  4647 net.cpp:150] Setting up scale2a_branch2a
I0603 22:38:48.747249  4647 net.cpp:157] Top shape: 1 64 129 129 (1065024)
I0603 22:38:48.747263  4647 net.cpp:165] Memory required for data: 162677340
I0603 22:38:48.747301  4647 layer_factory.hpp:77] Creating layer res2a_branch2a_relu
I0603 22:38:48.747323  4647 net.cpp:106] Creating Layer res2a_branch2a_relu
I0603 22:38:48.747337  4647 net.cpp:454] res2a_branch2a_relu <- res2a_branch2a
I0603 22:38:48.747354  4647 net.cpp:397] res2a_branch2a_relu -> res2a_branch2a (in-place)
I0603 22:38:48.748788  4647 net.cpp:150] Setting up res2a_branch2a_relu
I0603 22:38:48.748819  4647 net.cpp:157] Top shape: 1 64 129 129 (1065024)
I0603 22:38:48.748831  4647 net.cpp:165] Memory required for data: 166937436
I0603 22:38:48.748842  4647 layer_factory.hpp:77] Creating layer res2a_branch2b
I0603 22:38:48.748865  4647 net.cpp:106] Creating Layer res2a_branch2b
I0603 22:38:48.748877  4647 net.cpp:454] res2a_branch2b <- res2a_branch2a
I0603 22:38:48.748894  4647 net.cpp:411] res2a_branch2b -> res2a_branch2b
I0603 22:38:48.753149  4647 net.cpp:150] Setting up res2a_branch2b
I0603 22:38:48.753193  4647 net.cpp:157] Top shape: 1 64 129 129 (1065024)
I0603 22:38:48.753202  4647 net.cpp:165] Memory required for data: 171197532
I0603 22:38:48.753221  4647 layer_factory.hpp:77] Creating layer bn2a_branch2b
I0603 22:38:48.753245  4647 net.cpp:106] Creating Layer bn2a_branch2b
I0603 22:38:48.753258  4647 net.cpp:454] bn2a_branch2b <- res2a_branch2b
I0603 22:38:48.753273  4647 net.cpp:397] bn2a_branch2b -> res2a_branch2b (in-place)
I0603 22:38:48.753613  4647 net.cpp:150] Setting up bn2a_branch2b
I0603 22:38:48.753624  4647 net.cpp:157] Top shape: 1 64 129 129 (1065024)
I0603 22:38:48.753631  4647 net.cpp:165] Memory required for data: 175457628
I0603 22:38:48.753643  4647 layer_factory.hpp:77] Creating layer scale2a_branch2b
I0603 22:38:48.753654  4647 net.cpp:106] Creating Layer scale2a_branch2b
I0603 22:38:48.753661  4647 net.cpp:454] scale2a_branch2b <- res2a_branch2b
I0603 22:38:48.753674  4647 net.cpp:397] scale2a_branch2b -> res2a_branch2b (in-place)
I0603 22:38:48.753738  4647 layer_factory.hpp:77] Creating layer scale2a_branch2b
I0603 22:38:48.753953  4647 net.cpp:150] Setting up scale2a_branch2b
I0603 22:38:48.753991  4647 net.cpp:157] Top shape: 1 64 129 129 (1065024)
I0603 22:38:48.754001  4647 net.cpp:165] Memory required for data: 179717724
I0603 22:38:48.754014  4647 layer_factory.hpp:77] Creating layer res2a_branch2b_relu
I0603 22:38:48.754027  4647 net.cpp:106] Creating Layer res2a_branch2b_relu
I0603 22:38:48.754035  4647 net.cpp:454] res2a_branch2b_relu <- res2a_branch2b
I0603 22:38:48.754045  4647 net.cpp:397] res2a_branch2b_relu -> res2a_branch2b (in-place)
I0603 22:38:48.754847  4647 net.cpp:150] Setting up res2a_branch2b_relu
I0603 22:38:48.754866  4647 net.cpp:157] Top shape: 1 64 129 129 (1065024)
I0603 22:38:48.754876  4647 net.cpp:165] Memory required for data: 183977820
I0603 22:38:48.754885  4647 layer_factory.hpp:77] Creating layer res2a_branch2c
I0603 22:38:48.754900  4647 net.cpp:106] Creating Layer res2a_branch2c
I0603 22:38:48.754909  4647 net.cpp:454] res2a_branch2c <- res2a_branch2b
I0603 22:38:48.754921  4647 net.cpp:411] res2a_branch2c -> res2a_branch2c
I0603 22:38:48.757670  4647 net.cpp:150] Setting up res2a_branch2c
I0603 22:38:48.757702  4647 net.cpp:157] Top shape: 1 256 129 129 (4260096)
I0603 22:38:48.757709  4647 net.cpp:165] Memory required for data: 201018204
I0603 22:38:48.757725  4647 layer_factory.hpp:77] Creating layer bn2a_branch2c
I0603 22:38:48.757740  4647 net.cpp:106] Creating Layer bn2a_branch2c
I0603 22:38:48.757750  4647 net.cpp:454] bn2a_branch2c <- res2a_branch2c
I0603 22:38:48.757763  4647 net.cpp:397] bn2a_branch2c -> res2a_branch2c (in-place)
I0603 22:38:48.758082  4647 net.cpp:150] Setting up bn2a_branch2c
I0603 22:38:48.758095  4647 net.cpp:157] Top shape: 1 256 129 129 (4260096)
I0603 22:38:48.758102  4647 net.cpp:165] Memory required for data: 218058588
I0603 22:38:48.758116  4647 layer_factory.hpp:77] Creating layer scale2a_branch2c
I0603 22:38:48.758126  4647 net.cpp:106] Creating Layer scale2a_branch2c
I0603 22:38:48.758136  4647 net.cpp:454] scale2a_branch2c <- res2a_branch2c
I0603 22:38:48.758147  4647 net.cpp:397] scale2a_branch2c -> res2a_branch2c (in-place)
I0603 22:38:48.758213  4647 layer_factory.hpp:77] Creating layer scale2a_branch2c
I0603 22:38:48.758424  4647 net.cpp:150] Setting up scale2a_branch2c
I0603 22:38:48.758435  4647 net.cpp:157] Top shape: 1 256 129 129 (4260096)
I0603 22:38:48.758440  4647 net.cpp:165] Memory required for data: 235098972
I0603 22:38:48.758450  4647 layer_factory.hpp:77] Creating layer res2a
I0603 22:38:48.758458  4647 net.cpp:106] Creating Layer res2a
I0603 22:38:48.758466  4647 net.cpp:454] res2a <- res2a_branch1
I0603 22:38:48.758472  4647 net.cpp:454] res2a <- res2a_branch2c
I0603 22:38:48.758481  4647 net.cpp:411] res2a -> res2a
I0603 22:38:48.758517  4647 net.cpp:150] Setting up res2a
I0603 22:38:48.758527  4647 net.cpp:157] Top shape: 1 256 129 129 (4260096)
I0603 22:38:48.758533  4647 net.cpp:165] Memory required for data: 252139356
I0603 22:38:48.758538  4647 layer_factory.hpp:77] Creating layer res2a_relu
I0603 22:38:48.758546  4647 net.cpp:106] Creating Layer res2a_relu
I0603 22:38:48.758553  4647 net.cpp:454] res2a_relu <- res2a
I0603 22:38:48.758559  4647 net.cpp:397] res2a_relu -> res2a (in-place)
I0603 22:38:48.759233  4647 net.cpp:150] Setting up res2a_relu
I0603 22:38:48.759249  4647 net.cpp:157] Top shape: 1 256 129 129 (4260096)
I0603 22:38:48.759256  4647 net.cpp:165] Memory required for data: 269179740
I0603 22:38:48.759263  4647 layer_factory.hpp:77] Creating layer res2a_res2a_relu_0_split
I0603 22:38:48.759271  4647 net.cpp:106] Creating Layer res2a_res2a_relu_0_split
I0603 22:38:48.759277  4647 net.cpp:454] res2a_res2a_relu_0_split <- res2a
I0603 22:38:48.759289  4647 net.cpp:411] res2a_res2a_relu_0_split -> res2a_res2a_relu_0_split_0
I0603 22:38:48.759299  4647 net.cpp:411] res2a_res2a_relu_0_split -> res2a_res2a_relu_0_split_1
I0603 22:38:48.759353  4647 net.cpp:150] Setting up res2a_res2a_relu_0_split
I0603 22:38:48.759362  4647 net.cpp:157] Top shape: 1 256 129 129 (4260096)
I0603 22:38:48.759371  4647 net.cpp:157] Top shape: 1 256 129 129 (4260096)
I0603 22:38:48.759394  4647 net.cpp:165] Memory required for data: 303260508
I0603 22:38:48.759399  4647 layer_factory.hpp:77] Creating layer res2b_branch2a
I0603 22:38:48.759411  4647 net.cpp:106] Creating Layer res2b_branch2a
I0603 22:38:48.759418  4647 net.cpp:454] res2b_branch2a <- res2a_res2a_relu_0_split_0
I0603 22:38:48.759428  4647 net.cpp:411] res2b_branch2a -> res2b_branch2a
I0603 22:38:48.761903  4647 net.cpp:150] Setting up res2b_branch2a
I0603 22:38:48.761922  4647 net.cpp:157] Top shape: 1 64 129 129 (1065024)
I0603 22:38:48.761929  4647 net.cpp:165] Memory required for data: 307520604
I0603 22:38:48.761939  4647 layer_factory.hpp:77] Creating layer bn2b_branch2a
I0603 22:38:48.761950  4647 net.cpp:106] Creating Layer bn2b_branch2a
I0603 22:38:48.761956  4647 net.cpp:454] bn2b_branch2a <- res2b_branch2a
I0603 22:38:48.761965  4647 net.cpp:397] bn2b_branch2a -> res2b_branch2a (in-place)
I0603 22:38:48.762228  4647 net.cpp:150] Setting up bn2b_branch2a
I0603 22:38:48.762236  4647 net.cpp:157] Top shape: 1 64 129 129 (1065024)
I0603 22:38:48.762241  4647 net.cpp:165] Memory required for data: 311780700
I0603 22:38:48.762262  4647 layer_factory.hpp:77] Creating layer scale2b_branch2a
I0603 22:38:48.762271  4647 net.cpp:106] Creating Layer scale2b_branch2a
I0603 22:38:48.762277  4647 net.cpp:454] scale2b_branch2a <- res2b_branch2a
I0603 22:38:48.762287  4647 net.cpp:397] scale2b_branch2a -> res2b_branch2a (in-place)
I0603 22:38:48.762343  4647 layer_factory.hpp:77] Creating layer scale2b_branch2a
I0603 22:38:48.763090  4647 net.cpp:150] Setting up scale2b_branch2a
I0603 22:38:48.763105  4647 net.cpp:157] Top shape: 1 64 129 129 (1065024)
I0603 22:38:48.763111  4647 net.cpp:165] Memory required for data: 316040796
I0603 22:38:48.763123  4647 layer_factory.hpp:77] Creating layer res2b_branch2a_relu
I0603 22:38:48.763131  4647 net.cpp:106] Creating Layer res2b_branch2a_relu
I0603 22:38:48.763139  4647 net.cpp:454] res2b_branch2a_relu <- res2b_branch2a
I0603 22:38:48.763145  4647 net.cpp:397] res2b_branch2a_relu -> res2b_branch2a (in-place)
I0603 22:38:48.763777  4647 net.cpp:150] Setting up res2b_branch2a_relu
I0603 22:38:48.763792  4647 net.cpp:157] Top shape: 1 64 129 129 (1065024)
I0603 22:38:48.763798  4647 net.cpp:165] Memory required for data: 320300892
I0603 22:38:48.763803  4647 layer_factory.hpp:77] Creating layer res2b_branch2b
I0603 22:38:48.763820  4647 net.cpp:106] Creating Layer res2b_branch2b
I0603 22:38:48.763826  4647 net.cpp:454] res2b_branch2b <- res2b_branch2a
I0603 22:38:48.763834  4647 net.cpp:411] res2b_branch2b -> res2b_branch2b
I0603 22:38:48.765596  4647 net.cpp:150] Setting up res2b_branch2b
I0603 22:38:48.765616  4647 net.cpp:157] Top shape: 1 64 129 129 (1065024)
I0603 22:38:48.765621  4647 net.cpp:165] Memory required for data: 324560988
I0603 22:38:48.765631  4647 layer_factory.hpp:77] Creating layer bn2b_branch2b
I0603 22:38:48.765642  4647 net.cpp:106] Creating Layer bn2b_branch2b
I0603 22:38:48.765648  4647 net.cpp:454] bn2b_branch2b <- res2b_branch2b
I0603 22:38:48.765655  4647 net.cpp:397] bn2b_branch2b -> res2b_branch2b (in-place)
I0603 22:38:48.765872  4647 net.cpp:150] Setting up bn2b_branch2b
I0603 22:38:48.765879  4647 net.cpp:157] Top shape: 1 64 129 129 (1065024)
I0603 22:38:48.765883  4647 net.cpp:165] Memory required for data: 328821084
I0603 22:38:48.765892  4647 layer_factory.hpp:77] Creating layer scale2b_branch2b
I0603 22:38:48.765900  4647 net.cpp:106] Creating Layer scale2b_branch2b
I0603 22:38:48.765904  4647 net.cpp:454] scale2b_branch2b <- res2b_branch2b
I0603 22:38:48.765914  4647 net.cpp:397] scale2b_branch2b -> res2b_branch2b (in-place)
I0603 22:38:48.765960  4647 layer_factory.hpp:77] Creating layer scale2b_branch2b
I0603 22:38:48.766106  4647 net.cpp:150] Setting up scale2b_branch2b
I0603 22:38:48.766115  4647 net.cpp:157] Top shape: 1 64 129 129 (1065024)
I0603 22:38:48.766119  4647 net.cpp:165] Memory required for data: 333081180
I0603 22:38:48.766127  4647 layer_factory.hpp:77] Creating layer res2b_branch2b_relu
I0603 22:38:48.766134  4647 net.cpp:106] Creating Layer res2b_branch2b_relu
I0603 22:38:48.766157  4647 net.cpp:454] res2b_branch2b_relu <- res2b_branch2b
I0603 22:38:48.766165  4647 net.cpp:397] res2b_branch2b_relu -> res2b_branch2b (in-place)
I0603 22:38:48.766731  4647 net.cpp:150] Setting up res2b_branch2b_relu
I0603 22:38:48.766748  4647 net.cpp:157] Top shape: 1 64 129 129 (1065024)
I0603 22:38:48.766753  4647 net.cpp:165] Memory required for data: 337341276
I0603 22:38:48.766759  4647 layer_factory.hpp:77] Creating layer res2b_branch2c
I0603 22:38:48.766947  4647 net.cpp:106] Creating Layer res2b_branch2c
I0603 22:38:48.766959  4647 net.cpp:454] res2b_branch2c <- res2b_branch2b
I0603 22:38:48.766969  4647 net.cpp:411] res2b_branch2c -> res2b_branch2c
I0603 22:38:48.769124  4647 net.cpp:150] Setting up res2b_branch2c
I0603 22:38:48.769140  4647 net.cpp:157] Top shape: 1 256 129 129 (4260096)
I0603 22:38:48.769143  4647 net.cpp:165] Memory required for data: 354381660
I0603 22:38:48.769152  4647 layer_factory.hpp:77] Creating layer bn2b_branch2c
I0603 22:38:48.769162  4647 net.cpp:106] Creating Layer bn2b_branch2c
I0603 22:38:48.769167  4647 net.cpp:454] bn2b_branch2c <- res2b_branch2c
I0603 22:38:48.769174  4647 net.cpp:397] bn2b_branch2c -> res2b_branch2c (in-place)
I0603 22:38:48.769367  4647 net.cpp:150] Setting up bn2b_branch2c
I0603 22:38:48.769376  4647 net.cpp:157] Top shape: 1 256 129 129 (4260096)
I0603 22:38:48.769379  4647 net.cpp:165] Memory required for data: 371422044
I0603 22:38:48.769387  4647 layer_factory.hpp:77] Creating layer scale2b_branch2c
I0603 22:38:48.769394  4647 net.cpp:106] Creating Layer scale2b_branch2c
I0603 22:38:48.769399  4647 net.cpp:454] scale2b_branch2c <- res2b_branch2c
I0603 22:38:48.769404  4647 net.cpp:397] scale2b_branch2c -> res2b_branch2c (in-place)
I0603 22:38:48.769443  4647 layer_factory.hpp:77] Creating layer scale2b_branch2c
I0603 22:38:48.769567  4647 net.cpp:150] Setting up scale2b_branch2c
I0603 22:38:48.769574  4647 net.cpp:157] Top shape: 1 256 129 129 (4260096)
I0603 22:38:48.769579  4647 net.cpp:165] Memory required for data: 388462428
I0603 22:38:48.769587  4647 layer_factory.hpp:77] Creating layer res2b
I0603 22:38:48.769593  4647 net.cpp:106] Creating Layer res2b
I0603 22:38:48.769598  4647 net.cpp:454] res2b <- res2a_res2a_relu_0_split_1
I0603 22:38:48.769603  4647 net.cpp:454] res2b <- res2b_branch2c
I0603 22:38:48.769609  4647 net.cpp:411] res2b -> res2b
I0603 22:38:48.769634  4647 net.cpp:150] Setting up res2b
I0603 22:38:48.769640  4647 net.cpp:157] Top shape: 1 256 129 129 (4260096)
I0603 22:38:48.769644  4647 net.cpp:165] Memory required for data: 405502812
I0603 22:38:48.769647  4647 layer_factory.hpp:77] Creating layer res2b_relu
I0603 22:38:48.769654  4647 net.cpp:106] Creating Layer res2b_relu
I0603 22:38:48.769659  4647 net.cpp:454] res2b_relu <- res2b
I0603 22:38:48.769664  4647 net.cpp:397] res2b_relu -> res2b (in-place)
I0603 22:38:48.770180  4647 net.cpp:150] Setting up res2b_relu
I0603 22:38:48.770192  4647 net.cpp:157] Top shape: 1 256 129 129 (4260096)
I0603 22:38:48.770197  4647 net.cpp:165] Memory required for data: 422543196
I0603 22:38:48.770201  4647 layer_factory.hpp:77] Creating layer res2b_res2b_relu_0_split
I0603 22:38:48.770210  4647 net.cpp:106] Creating Layer res2b_res2b_relu_0_split
I0603 22:38:48.770213  4647 net.cpp:454] res2b_res2b_relu_0_split <- res2b
I0603 22:38:48.770220  4647 net.cpp:411] res2b_res2b_relu_0_split -> res2b_res2b_relu_0_split_0
I0603 22:38:48.770228  4647 net.cpp:411] res2b_res2b_relu_0_split -> res2b_res2b_relu_0_split_1
I0603 22:38:48.770287  4647 net.cpp:150] Setting up res2b_res2b_relu_0_split
I0603 22:38:48.770293  4647 net.cpp:157] Top shape: 1 256 129 129 (4260096)
I0603 22:38:48.770299  4647 net.cpp:157] Top shape: 1 256 129 129 (4260096)
I0603 22:38:48.770303  4647 net.cpp:165] Memory required for data: 456623964
I0603 22:38:48.770308  4647 layer_factory.hpp:77] Creating layer res2c_branch2a
I0603 22:38:48.770316  4647 net.cpp:106] Creating Layer res2c_branch2a
I0603 22:38:48.770323  4647 net.cpp:454] res2c_branch2a <- res2b_res2b_relu_0_split_0
I0603 22:38:48.770342  4647 net.cpp:411] res2c_branch2a -> res2c_branch2a
I0603 22:38:48.771962  4647 net.cpp:150] Setting up res2c_branch2a
I0603 22:38:48.771975  4647 net.cpp:157] Top shape: 1 64 129 129 (1065024)
I0603 22:38:48.771980  4647 net.cpp:165] Memory required for data: 460884060
I0603 22:38:48.771986  4647 layer_factory.hpp:77] Creating layer bn2c_branch2a
I0603 22:38:48.771996  4647 net.cpp:106] Creating Layer bn2c_branch2a
I0603 22:38:48.772001  4647 net.cpp:454] bn2c_branch2a <- res2c_branch2a
I0603 22:38:48.772007  4647 net.cpp:397] bn2c_branch2a -> res2c_branch2a (in-place)
I0603 22:38:48.772202  4647 net.cpp:150] Setting up bn2c_branch2a
I0603 22:38:48.772209  4647 net.cpp:157] Top shape: 1 64 129 129 (1065024)
I0603 22:38:48.772213  4647 net.cpp:165] Memory required for data: 465144156
I0603 22:38:48.772222  4647 layer_factory.hpp:77] Creating layer scale2c_branch2a
I0603 22:38:48.772228  4647 net.cpp:106] Creating Layer scale2c_branch2a
I0603 22:38:48.772231  4647 net.cpp:454] scale2c_branch2a <- res2c_branch2a
I0603 22:38:48.772238  4647 net.cpp:397] scale2c_branch2a -> res2c_branch2a (in-place)
I0603 22:38:48.772279  4647 layer_factory.hpp:77] Creating layer scale2c_branch2a
I0603 22:38:48.772411  4647 net.cpp:150] Setting up scale2c_branch2a
I0603 22:38:48.772418  4647 net.cpp:157] Top shape: 1 64 129 129 (1065024)
I0603 22:38:48.772423  4647 net.cpp:165] Memory required for data: 469404252
I0603 22:38:48.772430  4647 layer_factory.hpp:77] Creating layer res2c_branch2a_relu
I0603 22:38:48.772436  4647 net.cpp:106] Creating Layer res2c_branch2a_relu
I0603 22:38:48.772440  4647 net.cpp:454] res2c_branch2a_relu <- res2c_branch2a
I0603 22:38:48.772446  4647 net.cpp:397] res2c_branch2a_relu -> res2c_branch2a (in-place)
I0603 22:38:48.772917  4647 net.cpp:150] Setting up res2c_branch2a_relu
I0603 22:38:48.772928  4647 net.cpp:157] Top shape: 1 64 129 129 (1065024)
I0603 22:38:48.772933  4647 net.cpp:165] Memory required for data: 473664348
I0603 22:38:48.772938  4647 layer_factory.hpp:77] Creating layer res2c_branch2b
I0603 22:38:48.772946  4647 net.cpp:106] Creating Layer res2c_branch2b
I0603 22:38:48.772951  4647 net.cpp:454] res2c_branch2b <- res2c_branch2a
I0603 22:38:48.772958  4647 net.cpp:411] res2c_branch2b -> res2c_branch2b
I0603 22:38:48.774915  4647 net.cpp:150] Setting up res2c_branch2b
I0603 22:38:48.774930  4647 net.cpp:157] Top shape: 1 64 129 129 (1065024)
I0603 22:38:48.774933  4647 net.cpp:165] Memory required for data: 477924444
I0603 22:38:48.774940  4647 layer_factory.hpp:77] Creating layer bn2c_branch2b
I0603 22:38:48.774950  4647 net.cpp:106] Creating Layer bn2c_branch2b
I0603 22:38:48.774953  4647 net.cpp:454] bn2c_branch2b <- res2c_branch2b
I0603 22:38:48.774958  4647 net.cpp:397] bn2c_branch2b -> res2c_branch2b (in-place)
I0603 22:38:48.775527  4647 net.cpp:150] Setting up bn2c_branch2b
I0603 22:38:48.775537  4647 net.cpp:157] Top shape: 1 64 129 129 (1065024)
I0603 22:38:48.775540  4647 net.cpp:165] Memory required for data: 482184540
I0603 22:38:48.775547  4647 layer_factory.hpp:77] Creating layer scale2c_branch2b
I0603 22:38:48.775554  4647 net.cpp:106] Creating Layer scale2c_branch2b
I0603 22:38:48.775558  4647 net.cpp:454] scale2c_branch2b <- res2c_branch2b
I0603 22:38:48.775563  4647 net.cpp:397] scale2c_branch2b -> res2c_branch2b (in-place)
I0603 22:38:48.775601  4647 layer_factory.hpp:77] Creating layer scale2c_branch2b
I0603 22:38:48.775718  4647 net.cpp:150] Setting up scale2c_branch2b
I0603 22:38:48.775725  4647 net.cpp:157] Top shape: 1 64 129 129 (1065024)
I0603 22:38:48.775729  4647 net.cpp:165] Memory required for data: 486444636
I0603 22:38:48.775737  4647 layer_factory.hpp:77] Creating layer res2c_branch2b_relu
I0603 22:38:48.775744  4647 net.cpp:106] Creating Layer res2c_branch2b_relu
I0603 22:38:48.775748  4647 net.cpp:454] res2c_branch2b_relu <- res2c_branch2b
I0603 22:38:48.775753  4647 net.cpp:397] res2c_branch2b_relu -> res2c_branch2b (in-place)
I0603 22:38:48.776271  4647 net.cpp:150] Setting up res2c_branch2b_relu
I0603 22:38:48.776288  4647 net.cpp:157] Top shape: 1 64 129 129 (1065024)
I0603 22:38:48.776309  4647 net.cpp:165] Memory required for data: 490704732
I0603 22:38:48.776314  4647 layer_factory.hpp:77] Creating layer res2c_branch2c
I0603 22:38:48.776324  4647 net.cpp:106] Creating Layer res2c_branch2c
I0603 22:38:48.776330  4647 net.cpp:454] res2c_branch2c <- res2c_branch2b
I0603 22:38:48.776336  4647 net.cpp:411] res2c_branch2c -> res2c_branch2c
I0603 22:38:48.778189  4647 net.cpp:150] Setting up res2c_branch2c
I0603 22:38:48.778209  4647 net.cpp:157] Top shape: 1 256 129 129 (4260096)
I0603 22:38:48.778213  4647 net.cpp:165] Memory required for data: 507745116
I0603 22:38:48.778221  4647 layer_factory.hpp:77] Creating layer bn2c_branch2c
I0603 22:38:48.778231  4647 net.cpp:106] Creating Layer bn2c_branch2c
I0603 22:38:48.778236  4647 net.cpp:454] bn2c_branch2c <- res2c_branch2c
I0603 22:38:48.778245  4647 net.cpp:397] bn2c_branch2c -> res2c_branch2c (in-place)
I0603 22:38:48.778442  4647 net.cpp:150] Setting up bn2c_branch2c
I0603 22:38:48.778450  4647 net.cpp:157] Top shape: 1 256 129 129 (4260096)
I0603 22:38:48.778452  4647 net.cpp:165] Memory required for data: 524785500
I0603 22:38:48.778460  4647 layer_factory.hpp:77] Creating layer scale2c_branch2c
I0603 22:38:48.778466  4647 net.cpp:106] Creating Layer scale2c_branch2c
I0603 22:38:48.778470  4647 net.cpp:454] scale2c_branch2c <- res2c_branch2c
I0603 22:38:48.778476  4647 net.cpp:397] scale2c_branch2c -> res2c_branch2c (in-place)
I0603 22:38:48.778514  4647 layer_factory.hpp:77] Creating layer scale2c_branch2c
I0603 22:38:48.778625  4647 net.cpp:150] Setting up scale2c_branch2c
I0603 22:38:48.778632  4647 net.cpp:157] Top shape: 1 256 129 129 (4260096)
I0603 22:38:48.778635  4647 net.cpp:165] Memory required for data: 541825884
I0603 22:38:48.778653  4647 layer_factory.hpp:77] Creating layer res2c
I0603 22:38:48.778659  4647 net.cpp:106] Creating Layer res2c
I0603 22:38:48.778663  4647 net.cpp:454] res2c <- res2b_res2b_relu_0_split_1
I0603 22:38:48.778668  4647 net.cpp:454] res2c <- res2c_branch2c
I0603 22:38:48.778672  4647 net.cpp:411] res2c -> res2c
I0603 22:38:48.778693  4647 net.cpp:150] Setting up res2c
I0603 22:38:48.778699  4647 net.cpp:157] Top shape: 1 256 129 129 (4260096)
I0603 22:38:48.778702  4647 net.cpp:165] Memory required for data: 558866268
I0603 22:38:48.778705  4647 layer_factory.hpp:77] Creating layer res2c_relu
I0603 22:38:48.778712  4647 net.cpp:106] Creating Layer res2c_relu
I0603 22:38:48.778715  4647 net.cpp:454] res2c_relu <- res2c
I0603 22:38:48.778720  4647 net.cpp:397] res2c_relu -> res2c (in-place)
I0603 22:38:48.779176  4647 net.cpp:150] Setting up res2c_relu
I0603 22:38:48.779186  4647 net.cpp:157] Top shape: 1 256 129 129 (4260096)
I0603 22:38:48.779191  4647 net.cpp:165] Memory required for data: 575906652
I0603 22:38:48.779196  4647 layer_factory.hpp:77] Creating layer res2c_res2c_relu_0_split
I0603 22:38:48.779203  4647 net.cpp:106] Creating Layer res2c_res2c_relu_0_split
I0603 22:38:48.779208  4647 net.cpp:454] res2c_res2c_relu_0_split <- res2c
I0603 22:38:48.779213  4647 net.cpp:411] res2c_res2c_relu_0_split -> res2c_res2c_relu_0_split_0
I0603 22:38:48.779222  4647 net.cpp:411] res2c_res2c_relu_0_split -> res2c_res2c_relu_0_split_1
I0603 22:38:48.779264  4647 net.cpp:150] Setting up res2c_res2c_relu_0_split
I0603 22:38:48.779270  4647 net.cpp:157] Top shape: 1 256 129 129 (4260096)
I0603 22:38:48.779275  4647 net.cpp:157] Top shape: 1 256 129 129 (4260096)
I0603 22:38:48.779278  4647 net.cpp:165] Memory required for data: 609987420
I0603 22:38:48.779283  4647 layer_factory.hpp:77] Creating layer res3a_branch1
I0603 22:38:48.779290  4647 net.cpp:106] Creating Layer res3a_branch1
I0603 22:38:48.779295  4647 net.cpp:454] res3a_branch1 <- res2c_res2c_relu_0_split_0
I0603 22:38:48.779301  4647 net.cpp:411] res3a_branch1 -> res3a_branch1
I0603 22:38:48.781074  4647 net.cpp:150] Setting up res3a_branch1
I0603 22:38:48.781085  4647 net.cpp:157] Top shape: 1 512 65 65 (2163200)
I0603 22:38:48.781090  4647 net.cpp:165] Memory required for data: 618640220
I0603 22:38:48.781110  4647 layer_factory.hpp:77] Creating layer bn3a_branch1
I0603 22:38:48.781117  4647 net.cpp:106] Creating Layer bn3a_branch1
I0603 22:38:48.781121  4647 net.cpp:454] bn3a_branch1 <- res3a_branch1
I0603 22:38:48.781128  4647 net.cpp:397] bn3a_branch1 -> res3a_branch1 (in-place)
I0603 22:38:48.781635  4647 net.cpp:150] Setting up bn3a_branch1
I0603 22:38:48.781643  4647 net.cpp:157] Top shape: 1 512 65 65 (2163200)
I0603 22:38:48.781647  4647 net.cpp:165] Memory required for data: 627293020
I0603 22:38:48.781656  4647 layer_factory.hpp:77] Creating layer scale3a_branch1
I0603 22:38:48.781661  4647 net.cpp:106] Creating Layer scale3a_branch1
I0603 22:38:48.781666  4647 net.cpp:454] scale3a_branch1 <- res3a_branch1
I0603 22:38:48.781671  4647 net.cpp:397] scale3a_branch1 -> res3a_branch1 (in-place)
I0603 22:38:48.781702  4647 layer_factory.hpp:77] Creating layer scale3a_branch1
I0603 22:38:48.781801  4647 net.cpp:150] Setting up scale3a_branch1
I0603 22:38:48.781807  4647 net.cpp:157] Top shape: 1 512 65 65 (2163200)
I0603 22:38:48.781810  4647 net.cpp:165] Memory required for data: 635945820
I0603 22:38:48.781816  4647 layer_factory.hpp:77] Creating layer res3a_branch2a
I0603 22:38:48.781824  4647 net.cpp:106] Creating Layer res3a_branch2a
I0603 22:38:48.781828  4647 net.cpp:454] res3a_branch2a <- res2c_res2c_relu_0_split_1
I0603 22:38:48.781833  4647 net.cpp:411] res3a_branch2a -> res3a_branch2a
I0603 22:38:48.783269  4647 net.cpp:150] Setting up res3a_branch2a
I0603 22:38:48.783280  4647 net.cpp:157] Top shape: 1 128 65 65 (540800)
I0603 22:38:48.783283  4647 net.cpp:165] Memory required for data: 638109020
I0603 22:38:48.783289  4647 layer_factory.hpp:77] Creating layer bn3a_branch2a
I0603 22:38:48.783296  4647 net.cpp:106] Creating Layer bn3a_branch2a
I0603 22:38:48.783300  4647 net.cpp:454] bn3a_branch2a <- res3a_branch2a
I0603 22:38:48.783304  4647 net.cpp:397] bn3a_branch2a -> res3a_branch2a (in-place)
I0603 22:38:48.783464  4647 net.cpp:150] Setting up bn3a_branch2a
I0603 22:38:48.783470  4647 net.cpp:157] Top shape: 1 128 65 65 (540800)
I0603 22:38:48.783473  4647 net.cpp:165] Memory required for data: 640272220
I0603 22:38:48.783479  4647 layer_factory.hpp:77] Creating layer scale3a_branch2a
I0603 22:38:48.783484  4647 net.cpp:106] Creating Layer scale3a_branch2a
I0603 22:38:48.783488  4647 net.cpp:454] scale3a_branch2a <- res3a_branch2a
I0603 22:38:48.783491  4647 net.cpp:397] scale3a_branch2a -> res3a_branch2a (in-place)
I0603 22:38:48.783524  4647 layer_factory.hpp:77] Creating layer scale3a_branch2a
I0603 22:38:48.783620  4647 net.cpp:150] Setting up scale3a_branch2a
I0603 22:38:48.783627  4647 net.cpp:157] Top shape: 1 128 65 65 (540800)
I0603 22:38:48.783629  4647 net.cpp:165] Memory required for data: 642435420
I0603 22:38:48.783634  4647 layer_factory.hpp:77] Creating layer res3a_branch2a_relu
I0603 22:38:48.783640  4647 net.cpp:106] Creating Layer res3a_branch2a_relu
I0603 22:38:48.783643  4647 net.cpp:454] res3a_branch2a_relu <- res3a_branch2a
I0603 22:38:48.783646  4647 net.cpp:397] res3a_branch2a_relu -> res3a_branch2a (in-place)
I0603 22:38:48.784045  4647 net.cpp:150] Setting up res3a_branch2a_relu
I0603 22:38:48.784054  4647 net.cpp:157] Top shape: 1 128 65 65 (540800)
I0603 22:38:48.784057  4647 net.cpp:165] Memory required for data: 644598620
I0603 22:38:48.784060  4647 layer_factory.hpp:77] Creating layer res3a_branch2b
I0603 22:38:48.784068  4647 net.cpp:106] Creating Layer res3a_branch2b
I0603 22:38:48.784071  4647 net.cpp:454] res3a_branch2b <- res3a_branch2a
I0603 22:38:48.784076  4647 net.cpp:411] res3a_branch2b -> res3a_branch2b
I0603 22:38:48.785912  4647 net.cpp:150] Setting up res3a_branch2b
I0603 22:38:48.785923  4647 net.cpp:157] Top shape: 1 128 65 65 (540800)
I0603 22:38:48.785926  4647 net.cpp:165] Memory required for data: 646761820
I0603 22:38:48.785933  4647 layer_factory.hpp:77] Creating layer bn3a_branch2b
I0603 22:38:48.785946  4647 net.cpp:106] Creating Layer bn3a_branch2b
I0603 22:38:48.785950  4647 net.cpp:454] bn3a_branch2b <- res3a_branch2b
I0603 22:38:48.785956  4647 net.cpp:397] bn3a_branch2b -> res3a_branch2b (in-place)
I0603 22:38:48.786124  4647 net.cpp:150] Setting up bn3a_branch2b
I0603 22:38:48.786130  4647 net.cpp:157] Top shape: 1 128 65 65 (540800)
I0603 22:38:48.786134  4647 net.cpp:165] Memory required for data: 648925020
I0603 22:38:48.786139  4647 layer_factory.hpp:77] Creating layer scale3a_branch2b
I0603 22:38:48.786144  4647 net.cpp:106] Creating Layer scale3a_branch2b
I0603 22:38:48.786147  4647 net.cpp:454] scale3a_branch2b <- res3a_branch2b
I0603 22:38:48.786151  4647 net.cpp:397] scale3a_branch2b -> res3a_branch2b (in-place)
I0603 22:38:48.786183  4647 layer_factory.hpp:77] Creating layer scale3a_branch2b
I0603 22:38:48.786279  4647 net.cpp:150] Setting up scale3a_branch2b
I0603 22:38:48.786284  4647 net.cpp:157] Top shape: 1 128 65 65 (540800)
I0603 22:38:48.786286  4647 net.cpp:165] Memory required for data: 651088220
I0603 22:38:48.786291  4647 layer_factory.hpp:77] Creating layer res3a_branch2b_relu
I0603 22:38:48.786296  4647 net.cpp:106] Creating Layer res3a_branch2b_relu
I0603 22:38:48.786299  4647 net.cpp:454] res3a_branch2b_relu <- res3a_branch2b
I0603 22:38:48.786303  4647 net.cpp:397] res3a_branch2b_relu -> res3a_branch2b (in-place)
I0603 22:38:48.786700  4647 net.cpp:150] Setting up res3a_branch2b_relu
I0603 22:38:48.786710  4647 net.cpp:157] Top shape: 1 128 65 65 (540800)
I0603 22:38:48.786712  4647 net.cpp:165] Memory required for data: 653251420
I0603 22:38:48.786715  4647 layer_factory.hpp:77] Creating layer res3a_branch2c
I0603 22:38:48.786721  4647 net.cpp:106] Creating Layer res3a_branch2c
I0603 22:38:48.786739  4647 net.cpp:454] res3a_branch2c <- res3a_branch2b
I0603 22:38:48.786744  4647 net.cpp:411] res3a_branch2c -> res3a_branch2c
I0603 22:38:48.788563  4647 net.cpp:150] Setting up res3a_branch2c
I0603 22:38:48.788575  4647 net.cpp:157] Top shape: 1 512 65 65 (2163200)
I0603 22:38:48.788578  4647 net.cpp:165] Memory required for data: 661904220
I0603 22:38:48.788596  4647 layer_factory.hpp:77] Creating layer bn3a_branch2c
I0603 22:38:48.788615  4647 net.cpp:106] Creating Layer bn3a_branch2c
I0603 22:38:48.788619  4647 net.cpp:454] bn3a_branch2c <- res3a_branch2c
I0603 22:38:48.788625  4647 net.cpp:397] bn3a_branch2c -> res3a_branch2c (in-place)
I0603 22:38:48.788799  4647 net.cpp:150] Setting up bn3a_branch2c
I0603 22:38:48.788803  4647 net.cpp:157] Top shape: 1 512 65 65 (2163200)
I0603 22:38:48.788807  4647 net.cpp:165] Memory required for data: 670557020
I0603 22:38:48.788813  4647 layer_factory.hpp:77] Creating layer scale3a_branch2c
I0603 22:38:48.788820  4647 net.cpp:106] Creating Layer scale3a_branch2c
I0603 22:38:48.788823  4647 net.cpp:454] scale3a_branch2c <- res3a_branch2c
I0603 22:38:48.788827  4647 net.cpp:397] scale3a_branch2c -> res3a_branch2c (in-place)
I0603 22:38:48.788857  4647 layer_factory.hpp:77] Creating layer scale3a_branch2c
I0603 22:38:48.788956  4647 net.cpp:150] Setting up scale3a_branch2c
I0603 22:38:48.788961  4647 net.cpp:157] Top shape: 1 512 65 65 (2163200)
I0603 22:38:48.788964  4647 net.cpp:165] Memory required for data: 679209820
I0603 22:38:48.788970  4647 layer_factory.hpp:77] Creating layer res3a
I0603 22:38:48.788976  4647 net.cpp:106] Creating Layer res3a
I0603 22:38:48.788980  4647 net.cpp:454] res3a <- res3a_branch1
I0603 22:38:48.788985  4647 net.cpp:454] res3a <- res3a_branch2c
I0603 22:38:48.788988  4647 net.cpp:411] res3a -> res3a
I0603 22:38:48.789008  4647 net.cpp:150] Setting up res3a
I0603 22:38:48.789013  4647 net.cpp:157] Top shape: 1 512 65 65 (2163200)
I0603 22:38:48.789016  4647 net.cpp:165] Memory required for data: 687862620
I0603 22:38:48.789021  4647 layer_factory.hpp:77] Creating layer res3a_relu
I0603 22:38:48.789031  4647 net.cpp:106] Creating Layer res3a_relu
I0603 22:38:48.789033  4647 net.cpp:454] res3a_relu <- res3a
I0603 22:38:48.789039  4647 net.cpp:397] res3a_relu -> res3a (in-place)
I0603 22:38:48.789345  4647 net.cpp:150] Setting up res3a_relu
I0603 22:38:48.789351  4647 net.cpp:157] Top shape: 1 512 65 65 (2163200)
I0603 22:38:48.789355  4647 net.cpp:165] Memory required for data: 696515420
I0603 22:38:48.789367  4647 layer_factory.hpp:77] Creating layer res3a_res3a_relu_0_split
I0603 22:38:48.789374  4647 net.cpp:106] Creating Layer res3a_res3a_relu_0_split
I0603 22:38:48.789377  4647 net.cpp:454] res3a_res3a_relu_0_split <- res3a
I0603 22:38:48.789382  4647 net.cpp:411] res3a_res3a_relu_0_split -> res3a_res3a_relu_0_split_0
I0603 22:38:48.789388  4647 net.cpp:411] res3a_res3a_relu_0_split -> res3a_res3a_relu_0_split_1
I0603 22:38:48.789423  4647 net.cpp:150] Setting up res3a_res3a_relu_0_split
I0603 22:38:48.789428  4647 net.cpp:157] Top shape: 1 512 65 65 (2163200)
I0603 22:38:48.789433  4647 net.cpp:157] Top shape: 1 512 65 65 (2163200)
I0603 22:38:48.789435  4647 net.cpp:165] Memory required for data: 713821020
I0603 22:38:48.789438  4647 layer_factory.hpp:77] Creating layer res3b1_branch2a
I0603 22:38:48.789446  4647 net.cpp:106] Creating Layer res3b1_branch2a
I0603 22:38:48.789450  4647 net.cpp:454] res3b1_branch2a <- res3a_res3a_relu_0_split_0
I0603 22:38:48.789455  4647 net.cpp:411] res3b1_branch2a -> res3b1_branch2a
I0603 22:38:48.791200  4647 net.cpp:150] Setting up res3b1_branch2a
I0603 22:38:48.791210  4647 net.cpp:157] Top shape: 1 128 65 65 (540800)
I0603 22:38:48.791214  4647 net.cpp:165] Memory required for data: 715984220
I0603 22:38:48.791220  4647 layer_factory.hpp:77] Creating layer bn3b1_branch2a
I0603 22:38:48.791227  4647 net.cpp:106] Creating Layer bn3b1_branch2a
I0603 22:38:48.791231  4647 net.cpp:454] bn3b1_branch2a <- res3b1_branch2a
I0603 22:38:48.791237  4647 net.cpp:397] bn3b1_branch2a -> res3b1_branch2a (in-place)
I0603 22:38:48.791396  4647 net.cpp:150] Setting up bn3b1_branch2a
I0603 22:38:48.791402  4647 net.cpp:157] Top shape: 1 128 65 65 (540800)
I0603 22:38:48.791405  4647 net.cpp:165] Memory required for data: 718147420
I0603 22:38:48.791412  4647 layer_factory.hpp:77] Creating layer scale3b1_branch2a
I0603 22:38:48.791419  4647 net.cpp:106] Creating Layer scale3b1_branch2a
I0603 22:38:48.791422  4647 net.cpp:454] scale3b1_branch2a <- res3b1_branch2a
I0603 22:38:48.791426  4647 net.cpp:397] scale3b1_branch2a -> res3b1_branch2a (in-place)
I0603 22:38:48.791458  4647 layer_factory.hpp:77] Creating layer scale3b1_branch2a
I0603 22:38:48.791556  4647 net.cpp:150] Setting up scale3b1_branch2a
I0603 22:38:48.802433  4647 net.cpp:157] Top shape: 1 128 65 65 (540800)
I0603 22:38:48.802458  4647 net.cpp:165] Memory required for data: 720310620
I0603 22:38:48.802467  4647 layer_factory.hpp:77] Creating layer res3b1_branch2a_relu
I0603 22:38:48.802474  4647 net.cpp:106] Creating Layer res3b1_branch2a_relu
I0603 22:38:48.802484  4647 net.cpp:454] res3b1_branch2a_relu <- res3b1_branch2a
I0603 22:38:48.802489  4647 net.cpp:397] res3b1_branch2a_relu -> res3b1_branch2a (in-place)
I0603 22:38:48.803002  4647 net.cpp:150] Setting up res3b1_branch2a_relu
I0603 22:38:48.803012  4647 net.cpp:157] Top shape: 1 128 65 65 (540800)
I0603 22:38:48.803016  4647 net.cpp:165] Memory required for data: 722473820
I0603 22:38:48.803020  4647 layer_factory.hpp:77] Creating layer res3b1_branch2b
I0603 22:38:48.803028  4647 net.cpp:106] Creating Layer res3b1_branch2b
I0603 22:38:48.803032  4647 net.cpp:454] res3b1_branch2b <- res3b1_branch2a
I0603 22:38:48.803040  4647 net.cpp:411] res3b1_branch2b -> res3b1_branch2b
I0603 22:38:48.805124  4647 net.cpp:150] Setting up res3b1_branch2b
I0603 22:38:48.805138  4647 net.cpp:157] Top shape: 1 128 65 65 (540800)
I0603 22:38:48.805140  4647 net.cpp:165] Memory required for data: 724637020
I0603 22:38:48.805148  4647 layer_factory.hpp:77] Creating layer bn3b1_branch2b
I0603 22:38:48.805156  4647 net.cpp:106] Creating Layer bn3b1_branch2b
I0603 22:38:48.805160  4647 net.cpp:454] bn3b1_branch2b <- res3b1_branch2b
I0603 22:38:48.805166  4647 net.cpp:397] bn3b1_branch2b -> res3b1_branch2b (in-place)
I0603 22:38:48.805327  4647 net.cpp:150] Setting up bn3b1_branch2b
I0603 22:38:48.805331  4647 net.cpp:157] Top shape: 1 128 65 65 (540800)
I0603 22:38:48.805335  4647 net.cpp:165] Memory required for data: 726800220
I0603 22:38:48.805341  4647 layer_factory.hpp:77] Creating layer scale3b1_branch2b
I0603 22:38:48.805362  4647 net.cpp:106] Creating Layer scale3b1_branch2b
I0603 22:38:48.805366  4647 net.cpp:454] scale3b1_branch2b <- res3b1_branch2b
I0603 22:38:48.805371  4647 net.cpp:397] scale3b1_branch2b -> res3b1_branch2b (in-place)
I0603 22:38:48.805404  4647 layer_factory.hpp:77] Creating layer scale3b1_branch2b
I0603 22:38:48.805505  4647 net.cpp:150] Setting up scale3b1_branch2b
I0603 22:38:48.805508  4647 net.cpp:157] Top shape: 1 128 65 65 (540800)
I0603 22:38:48.805511  4647 net.cpp:165] Memory required for data: 728963420
I0603 22:38:48.805516  4647 layer_factory.hpp:77] Creating layer res3b1_branch2b_relu
I0603 22:38:48.805521  4647 net.cpp:106] Creating Layer res3b1_branch2b_relu
I0603 22:38:48.805524  4647 net.cpp:454] res3b1_branch2b_relu <- res3b1_branch2b
I0603 22:38:48.805528  4647 net.cpp:397] res3b1_branch2b_relu -> res3b1_branch2b (in-place)
I0603 22:38:48.806056  4647 net.cpp:150] Setting up res3b1_branch2b_relu
I0603 22:38:48.806066  4647 net.cpp:157] Top shape: 1 128 65 65 (540800)
I0603 22:38:48.806071  4647 net.cpp:165] Memory required for data: 731126620
I0603 22:38:48.806073  4647 layer_factory.hpp:77] Creating layer res3b1_branch2c
I0603 22:38:48.806082  4647 net.cpp:106] Creating Layer res3b1_branch2c
I0603 22:38:48.806085  4647 net.cpp:454] res3b1_branch2c <- res3b1_branch2b
I0603 22:38:48.806092  4647 net.cpp:411] res3b1_branch2c -> res3b1_branch2c
I0603 22:38:48.807615  4647 net.cpp:150] Setting up res3b1_branch2c
I0603 22:38:48.807626  4647 net.cpp:157] Top shape: 1 512 65 65 (2163200)
I0603 22:38:48.807629  4647 net.cpp:165] Memory required for data: 739779420
I0603 22:38:48.807636  4647 layer_factory.hpp:77] Creating layer bn3b1_branch2c
I0603 22:38:48.807641  4647 net.cpp:106] Creating Layer bn3b1_branch2c
I0603 22:38:48.807646  4647 net.cpp:454] bn3b1_branch2c <- res3b1_branch2c
I0603 22:38:48.807651  4647 net.cpp:397] bn3b1_branch2c -> res3b1_branch2c (in-place)
I0603 22:38:48.807814  4647 net.cpp:150] Setting up bn3b1_branch2c
I0603 22:38:48.807821  4647 net.cpp:157] Top shape: 1 512 65 65 (2163200)
I0603 22:38:48.807823  4647 net.cpp:165] Memory required for data: 748432220
I0603 22:38:48.807831  4647 layer_factory.hpp:77] Creating layer scale3b1_branch2c
I0603 22:38:48.807835  4647 net.cpp:106] Creating Layer scale3b1_branch2c
I0603 22:38:48.807839  4647 net.cpp:454] scale3b1_branch2c <- res3b1_branch2c
I0603 22:38:48.807844  4647 net.cpp:397] scale3b1_branch2c -> res3b1_branch2c (in-place)
I0603 22:38:48.807873  4647 layer_factory.hpp:77] Creating layer scale3b1_branch2c
I0603 22:38:48.807974  4647 net.cpp:150] Setting up scale3b1_branch2c
I0603 22:38:48.807981  4647 net.cpp:157] Top shape: 1 512 65 65 (2163200)
I0603 22:38:48.807983  4647 net.cpp:165] Memory required for data: 757085020
I0603 22:38:48.807989  4647 layer_factory.hpp:77] Creating layer res3b1
I0603 22:38:48.807994  4647 net.cpp:106] Creating Layer res3b1
I0603 22:38:48.807998  4647 net.cpp:454] res3b1 <- res3a_res3a_relu_0_split_1
I0603 22:38:48.808002  4647 net.cpp:454] res3b1 <- res3b1_branch2c
I0603 22:38:48.808007  4647 net.cpp:411] res3b1 -> res3b1
I0603 22:38:48.808028  4647 net.cpp:150] Setting up res3b1
I0603 22:38:48.808033  4647 net.cpp:157] Top shape: 1 512 65 65 (2163200)
I0603 22:38:48.808037  4647 net.cpp:165] Memory required for data: 765737820
I0603 22:38:48.808040  4647 layer_factory.hpp:77] Creating layer res3b1_relu
I0603 22:38:48.808044  4647 net.cpp:106] Creating Layer res3b1_relu
I0603 22:38:48.808048  4647 net.cpp:454] res3b1_relu <- res3b1
I0603 22:38:48.808051  4647 net.cpp:397] res3b1_relu -> res3b1 (in-place)
I0603 22:38:48.808451  4647 net.cpp:150] Setting up res3b1_relu
I0603 22:38:48.808459  4647 net.cpp:157] Top shape: 1 512 65 65 (2163200)
I0603 22:38:48.808463  4647 net.cpp:165] Memory required for data: 774390620
I0603 22:38:48.808466  4647 layer_factory.hpp:77] Creating layer res3b1_res3b1_relu_0_split
I0603 22:38:48.808473  4647 net.cpp:106] Creating Layer res3b1_res3b1_relu_0_split
I0603 22:38:48.808476  4647 net.cpp:454] res3b1_res3b1_relu_0_split <- res3b1
I0603 22:38:48.808490  4647 net.cpp:411] res3b1_res3b1_relu_0_split -> res3b1_res3b1_relu_0_split_0
I0603 22:38:48.808497  4647 net.cpp:411] res3b1_res3b1_relu_0_split -> res3b1_res3b1_relu_0_split_1
I0603 22:38:48.808535  4647 net.cpp:150] Setting up res3b1_res3b1_relu_0_split
I0603 22:38:48.808542  4647 net.cpp:157] Top shape: 1 512 65 65 (2163200)
I0603 22:38:48.808547  4647 net.cpp:157] Top shape: 1 512 65 65 (2163200)
I0603 22:38:48.808549  4647 net.cpp:165] Memory required for data: 791696220
I0603 22:38:48.808553  4647 layer_factory.hpp:77] Creating layer res3b2_branch2a
I0603 22:38:48.808558  4647 net.cpp:106] Creating Layer res3b2_branch2a
I0603 22:38:48.808562  4647 net.cpp:454] res3b2_branch2a <- res3b1_res3b1_relu_0_split_0
I0603 22:38:48.808568  4647 net.cpp:411] res3b2_branch2a -> res3b2_branch2a
I0603 22:38:48.810302  4647 net.cpp:150] Setting up res3b2_branch2a
I0603 22:38:48.810319  4647 net.cpp:157] Top shape: 1 128 65 65 (540800)
I0603 22:38:48.810322  4647 net.cpp:165] Memory required for data: 793859420
I0603 22:38:48.810330  4647 layer_factory.hpp:77] Creating layer bn3b2_branch2a
I0603 22:38:48.810338  4647 net.cpp:106] Creating Layer bn3b2_branch2a
I0603 22:38:48.810343  4647 net.cpp:454] bn3b2_branch2a <- res3b2_branch2a
I0603 22:38:48.810349  4647 net.cpp:397] bn3b2_branch2a -> res3b2_branch2a (in-place)
I0603 22:38:48.810518  4647 net.cpp:150] Setting up bn3b2_branch2a
I0603 22:38:48.810523  4647 net.cpp:157] Top shape: 1 128 65 65 (540800)
I0603 22:38:48.810526  4647 net.cpp:165] Memory required for data: 796022620
I0603 22:38:48.810534  4647 layer_factory.hpp:77] Creating layer scale3b2_branch2a
I0603 22:38:48.810540  4647 net.cpp:106] Creating Layer scale3b2_branch2a
I0603 22:38:48.810544  4647 net.cpp:454] scale3b2_branch2a <- res3b2_branch2a
I0603 22:38:48.810549  4647 net.cpp:397] scale3b2_branch2a -> res3b2_branch2a (in-place)
I0603 22:38:48.810582  4647 layer_factory.hpp:77] Creating layer scale3b2_branch2a
I0603 22:38:48.810684  4647 net.cpp:150] Setting up scale3b2_branch2a
I0603 22:38:48.810690  4647 net.cpp:157] Top shape: 1 128 65 65 (540800)
I0603 22:38:48.810694  4647 net.cpp:165] Memory required for data: 798185820
I0603 22:38:48.810699  4647 layer_factory.hpp:77] Creating layer res3b2_branch2a_relu
I0603 22:38:48.810704  4647 net.cpp:106] Creating Layer res3b2_branch2a_relu
I0603 22:38:48.810708  4647 net.cpp:454] res3b2_branch2a_relu <- res3b2_branch2a
I0603 22:38:48.810714  4647 net.cpp:397] res3b2_branch2a_relu -> res3b2_branch2a (in-place)
I0603 22:38:48.811122  4647 net.cpp:150] Setting up res3b2_branch2a_relu
I0603 22:38:48.811132  4647 net.cpp:157] Top shape: 1 128 65 65 (540800)
I0603 22:38:48.811136  4647 net.cpp:165] Memory required for data: 800349020
I0603 22:38:48.811139  4647 layer_factory.hpp:77] Creating layer res3b2_branch2b
I0603 22:38:48.811146  4647 net.cpp:106] Creating Layer res3b2_branch2b
I0603 22:38:48.811151  4647 net.cpp:454] res3b2_branch2b <- res3b2_branch2a
I0603 22:38:48.811157  4647 net.cpp:411] res3b2_branch2b -> res3b2_branch2b
I0603 22:38:48.812958  4647 net.cpp:150] Setting up res3b2_branch2b
I0603 22:38:48.812969  4647 net.cpp:157] Top shape: 1 128 65 65 (540800)
I0603 22:38:48.812973  4647 net.cpp:165] Memory required for data: 802512220
I0603 22:38:48.812979  4647 layer_factory.hpp:77] Creating layer bn3b2_branch2b
I0603 22:38:48.812985  4647 net.cpp:106] Creating Layer bn3b2_branch2b
I0603 22:38:48.812989  4647 net.cpp:454] bn3b2_branch2b <- res3b2_branch2b
I0603 22:38:48.812995  4647 net.cpp:397] bn3b2_branch2b -> res3b2_branch2b (in-place)
I0603 22:38:48.813201  4647 net.cpp:150] Setting up bn3b2_branch2b
I0603 22:38:48.813206  4647 net.cpp:157] Top shape: 1 128 65 65 (540800)
I0603 22:38:48.813210  4647 net.cpp:165] Memory required for data: 804675420
I0603 22:38:48.813216  4647 layer_factory.hpp:77] Creating layer scale3b2_branch2b
I0603 22:38:48.813222  4647 net.cpp:106] Creating Layer scale3b2_branch2b
I0603 22:38:48.813226  4647 net.cpp:454] scale3b2_branch2b <- res3b2_branch2b
I0603 22:38:48.813246  4647 net.cpp:397] scale3b2_branch2b -> res3b2_branch2b (in-place)
I0603 22:38:48.813280  4647 layer_factory.hpp:77] Creating layer scale3b2_branch2b
I0603 22:38:48.813385  4647 net.cpp:150] Setting up scale3b2_branch2b
I0603 22:38:48.813390  4647 net.cpp:157] Top shape: 1 128 65 65 (540800)
I0603 22:38:48.813393  4647 net.cpp:165] Memory required for data: 806838620
I0603 22:38:48.813400  4647 layer_factory.hpp:77] Creating layer res3b2_branch2b_relu
I0603 22:38:48.813405  4647 net.cpp:106] Creating Layer res3b2_branch2b_relu
I0603 22:38:48.813408  4647 net.cpp:454] res3b2_branch2b_relu <- res3b2_branch2b
I0603 22:38:48.813413  4647 net.cpp:397] res3b2_branch2b_relu -> res3b2_branch2b (in-place)
I0603 22:38:48.813674  4647 net.cpp:150] Setting up res3b2_branch2b_relu
I0603 22:38:48.813683  4647 net.cpp:157] Top shape: 1 128 65 65 (540800)
I0603 22:38:48.813686  4647 net.cpp:165] Memory required for data: 809001820
I0603 22:38:48.813689  4647 layer_factory.hpp:77] Creating layer res3b2_branch2c
I0603 22:38:48.813696  4647 net.cpp:106] Creating Layer res3b2_branch2c
I0603 22:38:48.813700  4647 net.cpp:454] res3b2_branch2c <- res3b2_branch2b
I0603 22:38:48.813706  4647 net.cpp:411] res3b2_branch2c -> res3b2_branch2c
I0603 22:38:48.815253  4647 net.cpp:150] Setting up res3b2_branch2c
I0603 22:38:48.815264  4647 net.cpp:157] Top shape: 1 512 65 65 (2163200)
I0603 22:38:48.815269  4647 net.cpp:165] Memory required for data: 817654620
I0603 22:38:48.815274  4647 layer_factory.hpp:77] Creating layer bn3b2_branch2c
I0603 22:38:48.815281  4647 net.cpp:106] Creating Layer bn3b2_branch2c
I0603 22:38:48.815285  4647 net.cpp:454] bn3b2_branch2c <- res3b2_branch2c
I0603 22:38:48.815290  4647 net.cpp:397] bn3b2_branch2c -> res3b2_branch2c (in-place)
I0603 22:38:48.815456  4647 net.cpp:150] Setting up bn3b2_branch2c
I0603 22:38:48.815462  4647 net.cpp:157] Top shape: 1 512 65 65 (2163200)
I0603 22:38:48.815465  4647 net.cpp:165] Memory required for data: 826307420
I0603 22:38:48.815474  4647 layer_factory.hpp:77] Creating layer scale3b2_branch2c
I0603 22:38:48.815479  4647 net.cpp:106] Creating Layer scale3b2_branch2c
I0603 22:38:48.815481  4647 net.cpp:454] scale3b2_branch2c <- res3b2_branch2c
I0603 22:38:48.815486  4647 net.cpp:397] scale3b2_branch2c -> res3b2_branch2c (in-place)
I0603 22:38:48.815516  4647 layer_factory.hpp:77] Creating layer scale3b2_branch2c
I0603 22:38:48.815623  4647 net.cpp:150] Setting up scale3b2_branch2c
I0603 22:38:48.815629  4647 net.cpp:157] Top shape: 1 512 65 65 (2163200)
I0603 22:38:48.815631  4647 net.cpp:165] Memory required for data: 834960220
I0603 22:38:48.815637  4647 layer_factory.hpp:77] Creating layer res3b2
I0603 22:38:48.815644  4647 net.cpp:106] Creating Layer res3b2
I0603 22:38:48.815647  4647 net.cpp:454] res3b2 <- res3b1_res3b1_relu_0_split_1
I0603 22:38:48.815651  4647 net.cpp:454] res3b2 <- res3b2_branch2c
I0603 22:38:48.815656  4647 net.cpp:411] res3b2 -> res3b2
I0603 22:38:48.815677  4647 net.cpp:150] Setting up res3b2
I0603 22:38:48.815682  4647 net.cpp:157] Top shape: 1 512 65 65 (2163200)
I0603 22:38:48.815685  4647 net.cpp:165] Memory required for data: 843613020
I0603 22:38:48.815690  4647 layer_factory.hpp:77] Creating layer res3b2_relu
I0603 22:38:48.815695  4647 net.cpp:106] Creating Layer res3b2_relu
I0603 22:38:48.815697  4647 net.cpp:454] res3b2_relu <- res3b2
I0603 22:38:48.815701  4647 net.cpp:397] res3b2_relu -> res3b2 (in-place)
I0603 22:38:48.816102  4647 net.cpp:150] Setting up res3b2_relu
I0603 22:38:48.816109  4647 net.cpp:157] Top shape: 1 512 65 65 (2163200)
I0603 22:38:48.816113  4647 net.cpp:165] Memory required for data: 852265820
I0603 22:38:48.816117  4647 layer_factory.hpp:77] Creating layer res3b2_res3b2_relu_0_split
I0603 22:38:48.816123  4647 net.cpp:106] Creating Layer res3b2_res3b2_relu_0_split
I0603 22:38:48.816128  4647 net.cpp:454] res3b2_res3b2_relu_0_split <- res3b2
I0603 22:38:48.816131  4647 net.cpp:411] res3b2_res3b2_relu_0_split -> res3b2_res3b2_relu_0_split_0
I0603 22:38:48.816138  4647 net.cpp:411] res3b2_res3b2_relu_0_split -> res3b2_res3b2_relu_0_split_1
I0603 22:38:48.816184  4647 net.cpp:150] Setting up res3b2_res3b2_relu_0_split
I0603 22:38:48.816190  4647 net.cpp:157] Top shape: 1 512 65 65 (2163200)
I0603 22:38:48.816192  4647 net.cpp:157] Top shape: 1 512 65 65 (2163200)
I0603 22:38:48.816195  4647 net.cpp:165] Memory required for data: 869571420
I0603 22:38:48.816200  4647 layer_factory.hpp:77] Creating layer res3b3_branch2a
I0603 22:38:48.816206  4647 net.cpp:106] Creating Layer res3b3_branch2a
I0603 22:38:48.816210  4647 net.cpp:454] res3b3_branch2a <- res3b2_res3b2_relu_0_split_0
I0603 22:38:48.816216  4647 net.cpp:411] res3b3_branch2a -> res3b3_branch2a
I0603 22:38:48.817824  4647 net.cpp:150] Setting up res3b3_branch2a
I0603 22:38:48.817834  4647 net.cpp:157] Top shape: 1 128 65 65 (540800)
I0603 22:38:48.817838  4647 net.cpp:165] Memory required for data: 871734620
I0603 22:38:48.817844  4647 layer_factory.hpp:77] Creating layer bn3b3_branch2a
I0603 22:38:48.817852  4647 net.cpp:106] Creating Layer bn3b3_branch2a
I0603 22:38:48.817855  4647 net.cpp:454] bn3b3_branch2a <- res3b3_branch2a
I0603 22:38:48.817862  4647 net.cpp:397] bn3b3_branch2a -> res3b3_branch2a (in-place)
I0603 22:38:48.818028  4647 net.cpp:150] Setting up bn3b3_branch2a
I0603 22:38:48.818034  4647 net.cpp:157] Top shape: 1 128 65 65 (540800)
I0603 22:38:48.818037  4647 net.cpp:165] Memory required for data: 873897820
I0603 22:38:48.818061  4647 layer_factory.hpp:77] Creating layer scale3b3_branch2a
I0603 22:38:48.818068  4647 net.cpp:106] Creating Layer scale3b3_branch2a
I0603 22:38:48.818071  4647 net.cpp:454] scale3b3_branch2a <- res3b3_branch2a
I0603 22:38:48.818075  4647 net.cpp:397] scale3b3_branch2a -> res3b3_branch2a (in-place)
I0603 22:38:48.818112  4647 layer_factory.hpp:77] Creating layer scale3b3_branch2a
I0603 22:38:48.818217  4647 net.cpp:150] Setting up scale3b3_branch2a
I0603 22:38:48.818223  4647 net.cpp:157] Top shape: 1 128 65 65 (540800)
I0603 22:38:48.818226  4647 net.cpp:165] Memory required for data: 876061020
I0603 22:38:48.818231  4647 layer_factory.hpp:77] Creating layer res3b3_branch2a_relu
I0603 22:38:48.818236  4647 net.cpp:106] Creating Layer res3b3_branch2a_relu
I0603 22:38:48.818240  4647 net.cpp:454] res3b3_branch2a_relu <- res3b3_branch2a
I0603 22:38:48.818245  4647 net.cpp:397] res3b3_branch2a_relu -> res3b3_branch2a (in-place)
I0603 22:38:48.833957  4647 net.cpp:150] Setting up res3b3_branch2a_relu
I0603 22:38:48.834003  4647 net.cpp:157] Top shape: 1 128 65 65 (540800)
I0603 22:38:48.834012  4647 net.cpp:165] Memory required for data: 878224220
I0603 22:38:48.834020  4647 layer_factory.hpp:77] Creating layer res3b3_branch2b
I0603 22:38:48.834043  4647 net.cpp:106] Creating Layer res3b3_branch2b
I0603 22:38:48.834051  4647 net.cpp:454] res3b3_branch2b <- res3b3_branch2a
I0603 22:38:48.834061  4647 net.cpp:411] res3b3_branch2b -> res3b3_branch2b
I0603 22:38:48.836292  4647 net.cpp:150] Setting up res3b3_branch2b
I0603 22:38:48.836314  4647 net.cpp:157] Top shape: 1 128 65 65 (540800)
I0603 22:38:48.836318  4647 net.cpp:165] Memory required for data: 880387420
I0603 22:38:48.836343  4647 layer_factory.hpp:77] Creating layer bn3b3_branch2b
I0603 22:38:48.836365  4647 net.cpp:106] Creating Layer bn3b3_branch2b
I0603 22:38:48.836370  4647 net.cpp:454] bn3b3_branch2b <- res3b3_branch2b
I0603 22:38:48.836377  4647 net.cpp:397] bn3b3_branch2b -> res3b3_branch2b (in-place)
I0603 22:38:48.836573  4647 net.cpp:150] Setting up bn3b3_branch2b
I0603 22:38:48.836580  4647 net.cpp:157] Top shape: 1 128 65 65 (540800)
I0603 22:38:48.836581  4647 net.cpp:165] Memory required for data: 882550620
I0603 22:38:48.836589  4647 layer_factory.hpp:77] Creating layer scale3b3_branch2b
I0603 22:38:48.836608  4647 net.cpp:106] Creating Layer scale3b3_branch2b
I0603 22:38:48.836611  4647 net.cpp:454] scale3b3_branch2b <- res3b3_branch2b
I0603 22:38:48.836617  4647 net.cpp:397] scale3b3_branch2b -> res3b3_branch2b (in-place)
I0603 22:38:48.836658  4647 layer_factory.hpp:77] Creating layer scale3b3_branch2b
I0603 22:38:48.837308  4647 net.cpp:150] Setting up scale3b3_branch2b
I0603 22:38:48.837329  4647 net.cpp:157] Top shape: 1 128 65 65 (540800)
I0603 22:38:48.837332  4647 net.cpp:165] Memory required for data: 884713820
I0603 22:38:48.837340  4647 layer_factory.hpp:77] Creating layer res3b3_branch2b_relu
I0603 22:38:48.837348  4647 net.cpp:106] Creating Layer res3b3_branch2b_relu
I0603 22:38:48.837352  4647 net.cpp:454] res3b3_branch2b_relu <- res3b3_branch2b
I0603 22:38:48.837357  4647 net.cpp:397] res3b3_branch2b_relu -> res3b3_branch2b (in-place)
I0603 22:38:48.837841  4647 net.cpp:150] Setting up res3b3_branch2b_relu
I0603 22:38:48.837852  4647 net.cpp:157] Top shape: 1 128 65 65 (540800)
I0603 22:38:48.837854  4647 net.cpp:165] Memory required for data: 886877020
I0603 22:38:48.837858  4647 layer_factory.hpp:77] Creating layer res3b3_branch2c
I0603 22:38:48.837869  4647 net.cpp:106] Creating Layer res3b3_branch2c
I0603 22:38:48.837874  4647 net.cpp:454] res3b3_branch2c <- res3b3_branch2b
I0603 22:38:48.837879  4647 net.cpp:411] res3b3_branch2c -> res3b3_branch2c
I0603 22:38:48.839979  4647 net.cpp:150] Setting up res3b3_branch2c
I0603 22:38:48.839995  4647 net.cpp:157] Top shape: 1 512 65 65 (2163200)
I0603 22:38:48.840000  4647 net.cpp:165] Memory required for data: 895529820
I0603 22:38:48.840008  4647 layer_factory.hpp:77] Creating layer bn3b3_branch2c
I0603 22:38:48.840016  4647 net.cpp:106] Creating Layer bn3b3_branch2c
I0603 22:38:48.840020  4647 net.cpp:454] bn3b3_branch2c <- res3b3_branch2c
I0603 22:38:48.840028  4647 net.cpp:397] bn3b3_branch2c -> res3b3_branch2c (in-place)
I0603 22:38:48.840204  4647 net.cpp:150] Setting up bn3b3_branch2c
I0603 22:38:48.840209  4647 net.cpp:157] Top shape: 1 512 65 65 (2163200)
I0603 22:38:48.840212  4647 net.cpp:165] Memory required for data: 904182620
I0603 22:38:48.840220  4647 layer_factory.hpp:77] Creating layer scale3b3_branch2c
I0603 22:38:48.840227  4647 net.cpp:106] Creating Layer scale3b3_branch2c
I0603 22:38:48.840230  4647 net.cpp:454] scale3b3_branch2c <- res3b3_branch2c
I0603 22:38:48.840235  4647 net.cpp:397] scale3b3_branch2c -> res3b3_branch2c (in-place)
I0603 22:38:48.840268  4647 layer_factory.hpp:77] Creating layer scale3b3_branch2c
I0603 22:38:48.840371  4647 net.cpp:150] Setting up scale3b3_branch2c
I0603 22:38:48.840378  4647 net.cpp:157] Top shape: 1 512 65 65 (2163200)
I0603 22:38:48.840380  4647 net.cpp:165] Memory required for data: 912835420
I0603 22:38:48.840386  4647 layer_factory.hpp:77] Creating layer res3b3
I0603 22:38:48.840391  4647 net.cpp:106] Creating Layer res3b3
I0603 22:38:48.840395  4647 net.cpp:454] res3b3 <- res3b2_res3b2_relu_0_split_1
I0603 22:38:48.840399  4647 net.cpp:454] res3b3 <- res3b3_branch2c
I0603 22:38:48.840405  4647 net.cpp:411] res3b3 -> res3b3
I0603 22:38:48.840426  4647 net.cpp:150] Setting up res3b3
I0603 22:38:48.840431  4647 net.cpp:157] Top shape: 1 512 65 65 (2163200)
I0603 22:38:48.840435  4647 net.cpp:165] Memory required for data: 921488220
I0603 22:38:48.840438  4647 layer_factory.hpp:77] Creating layer res3b3_relu
I0603 22:38:48.840445  4647 net.cpp:106] Creating Layer res3b3_relu
I0603 22:38:48.840448  4647 net.cpp:454] res3b3_relu <- res3b3
I0603 22:38:48.840452  4647 net.cpp:397] res3b3_relu -> res3b3 (in-place)
I0603 22:38:48.840857  4647 net.cpp:150] Setting up res3b3_relu
I0603 22:38:48.840865  4647 net.cpp:157] Top shape: 1 512 65 65 (2163200)
I0603 22:38:48.840868  4647 net.cpp:165] Memory required for data: 930141020
I0603 22:38:48.840873  4647 layer_factory.hpp:77] Creating layer res3b3_res3b3_relu_0_split
I0603 22:38:48.840878  4647 net.cpp:106] Creating Layer res3b3_res3b3_relu_0_split
I0603 22:38:48.840883  4647 net.cpp:454] res3b3_res3b3_relu_0_split <- res3b3
I0603 22:38:48.840888  4647 net.cpp:411] res3b3_res3b3_relu_0_split -> res3b3_res3b3_relu_0_split_0
I0603 22:38:48.840893  4647 net.cpp:411] res3b3_res3b3_relu_0_split -> res3b3_res3b3_relu_0_split_1
I0603 22:38:48.840932  4647 net.cpp:150] Setting up res3b3_res3b3_relu_0_split
I0603 22:38:48.840937  4647 net.cpp:157] Top shape: 1 512 65 65 (2163200)
I0603 22:38:48.840941  4647 net.cpp:157] Top shape: 1 512 65 65 (2163200)
I0603 22:38:48.840958  4647 net.cpp:165] Memory required for data: 947446620
I0603 22:38:48.840962  4647 layer_factory.hpp:77] Creating layer res4a_branch1
I0603 22:38:48.840970  4647 net.cpp:106] Creating Layer res4a_branch1
I0603 22:38:48.840973  4647 net.cpp:454] res4a_branch1 <- res3b3_res3b3_relu_0_split_0
I0603 22:38:48.840979  4647 net.cpp:411] res4a_branch1 -> res4a_branch1
I0603 22:38:48.875591  4647 net.cpp:150] Setting up res4a_branch1
I0603 22:38:48.875629  4647 net.cpp:157] Top shape: 1 1024 65 65 (4326400)
I0603 22:38:48.875633  4647 net.cpp:165] Memory required for data: 964752220
I0603 22:38:48.875674  4647 layer_factory.hpp:77] Creating layer bn4a_branch1
I0603 22:38:48.875697  4647 net.cpp:106] Creating Layer bn4a_branch1
I0603 22:38:48.875702  4647 net.cpp:454] bn4a_branch1 <- res4a_branch1
I0603 22:38:48.875708  4647 net.cpp:397] bn4a_branch1 -> res4a_branch1 (in-place)
I0603 22:38:48.875932  4647 net.cpp:150] Setting up bn4a_branch1
I0603 22:38:48.875938  4647 net.cpp:157] Top shape: 1 1024 65 65 (4326400)
I0603 22:38:48.875942  4647 net.cpp:165] Memory required for data: 982057820
I0603 22:38:48.875948  4647 layer_factory.hpp:77] Creating layer scale4a_branch1
I0603 22:38:48.875955  4647 net.cpp:106] Creating Layer scale4a_branch1
I0603 22:38:48.875959  4647 net.cpp:454] scale4a_branch1 <- res4a_branch1
I0603 22:38:48.875963  4647 net.cpp:397] scale4a_branch1 -> res4a_branch1 (in-place)
I0603 22:38:48.875998  4647 layer_factory.hpp:77] Creating layer scale4a_branch1
I0603 22:38:48.876104  4647 net.cpp:150] Setting up scale4a_branch1
I0603 22:38:48.876111  4647 net.cpp:157] Top shape: 1 1024 65 65 (4326400)
I0603 22:38:48.876113  4647 net.cpp:165] Memory required for data: 999363420
I0603 22:38:48.876119  4647 layer_factory.hpp:77] Creating layer res4a_branch2a
I0603 22:38:48.876127  4647 net.cpp:106] Creating Layer res4a_branch2a
I0603 22:38:48.876132  4647 net.cpp:454] res4a_branch2a <- res3b3_res3b3_relu_0_split_1
I0603 22:38:48.876137  4647 net.cpp:411] res4a_branch2a -> res4a_branch2a
I0603 22:38:48.877843  4647 net.cpp:150] Setting up res4a_branch2a
I0603 22:38:48.877871  4647 net.cpp:157] Top shape: 1 256 65 65 (1081600)
I0603 22:38:48.877876  4647 net.cpp:165] Memory required for data: 1003689820
I0603 22:38:48.877887  4647 layer_factory.hpp:77] Creating layer bn4a_branch2a
I0603 22:38:48.877898  4647 net.cpp:106] Creating Layer bn4a_branch2a
I0603 22:38:48.877903  4647 net.cpp:454] bn4a_branch2a <- res4a_branch2a
I0603 22:38:48.877912  4647 net.cpp:397] bn4a_branch2a -> res4a_branch2a (in-place)
I0603 22:38:48.878109  4647 net.cpp:150] Setting up bn4a_branch2a
I0603 22:38:48.878129  4647 net.cpp:157] Top shape: 1 256 65 65 (1081600)
I0603 22:38:48.878131  4647 net.cpp:165] Memory required for data: 1008016220
I0603 22:38:48.878139  4647 layer_factory.hpp:77] Creating layer scale4a_branch2a
I0603 22:38:48.878162  4647 net.cpp:106] Creating Layer scale4a_branch2a
I0603 22:38:48.878167  4647 net.cpp:454] scale4a_branch2a <- res4a_branch2a
I0603 22:38:48.878185  4647 net.cpp:397] scale4a_branch2a -> res4a_branch2a (in-place)
I0603 22:38:48.878226  4647 layer_factory.hpp:77] Creating layer scale4a_branch2a
I0603 22:38:48.878365  4647 net.cpp:150] Setting up scale4a_branch2a
I0603 22:38:48.878370  4647 net.cpp:157] Top shape: 1 256 65 65 (1081600)
I0603 22:38:48.878372  4647 net.cpp:165] Memory required for data: 1012342620
I0603 22:38:48.878379  4647 layer_factory.hpp:77] Creating layer res4a_branch2a_relu
I0603 22:38:48.878401  4647 net.cpp:106] Creating Layer res4a_branch2a_relu
I0603 22:38:48.878406  4647 net.cpp:454] res4a_branch2a_relu <- res4a_branch2a
I0603 22:38:48.878409  4647 net.cpp:397] res4a_branch2a_relu -> res4a_branch2a (in-place)
I0603 22:38:48.878952  4647 net.cpp:150] Setting up res4a_branch2a_relu
I0603 22:38:48.878962  4647 net.cpp:157] Top shape: 1 256 65 65 (1081600)
I0603 22:38:48.878965  4647 net.cpp:165] Memory required for data: 1016669020
I0603 22:38:48.878968  4647 layer_factory.hpp:77] Creating layer res4a_branch2b
I0603 22:38:48.879037  4647 net.cpp:106] Creating Layer res4a_branch2b
I0603 22:38:48.879041  4647 net.cpp:454] res4a_branch2b <- res4a_branch2a
I0603 22:38:48.879060  4647 net.cpp:411] res4a_branch2b -> res4a_branch2b
I0603 22:38:48.880249  4647 net.cpp:150] Setting up res4a_branch2b
I0603 22:38:48.880278  4647 net.cpp:157] Top shape: 1 256 65 65 (1081600)
I0603 22:38:48.880282  4647 net.cpp:165] Memory required for data: 1020995420
I0603 22:38:48.880295  4647 layer_factory.hpp:77] Creating layer bn4a_branch2b
I0603 22:38:48.880304  4647 net.cpp:106] Creating Layer bn4a_branch2b
I0603 22:38:48.880311  4647 net.cpp:454] bn4a_branch2b <- res4a_branch2b
I0603 22:38:48.880319  4647 net.cpp:397] bn4a_branch2b -> res4a_branch2b (in-place)
I0603 22:38:48.880558  4647 net.cpp:150] Setting up bn4a_branch2b
I0603 22:38:48.880564  4647 net.cpp:157] Top shape: 1 256 65 65 (1081600)
I0603 22:38:48.880568  4647 net.cpp:165] Memory required for data: 1025321820
I0603 22:38:48.880578  4647 layer_factory.hpp:77] Creating layer scale4a_branch2b
I0603 22:38:48.880584  4647 net.cpp:106] Creating Layer scale4a_branch2b
I0603 22:38:48.880589  4647 net.cpp:454] scale4a_branch2b <- res4a_branch2b
I0603 22:38:48.880594  4647 net.cpp:397] scale4a_branch2b -> res4a_branch2b (in-place)
I0603 22:38:48.880640  4647 layer_factory.hpp:77] Creating layer scale4a_branch2b
I0603 22:38:48.880756  4647 net.cpp:150] Setting up scale4a_branch2b
I0603 22:38:48.880762  4647 net.cpp:157] Top shape: 1 256 65 65 (1081600)
I0603 22:38:48.880766  4647 net.cpp:165] Memory required for data: 1029648220
I0603 22:38:48.880774  4647 layer_factory.hpp:77] Creating layer res4a_branch2b_relu
I0603 22:38:48.880782  4647 net.cpp:106] Creating Layer res4a_branch2b_relu
I0603 22:38:48.880786  4647 net.cpp:454] res4a_branch2b_relu <- res4a_branch2b
I0603 22:38:48.880791  4647 net.cpp:397] res4a_branch2b_relu -> res4a_branch2b (in-place)
I0603 22:38:48.881431  4647 net.cpp:150] Setting up res4a_branch2b_relu
I0603 22:38:48.881443  4647 net.cpp:157] Top shape: 1 256 65 65 (1081600)
I0603 22:38:48.881445  4647 net.cpp:165] Memory required for data: 1033974620
I0603 22:38:48.881448  4647 layer_factory.hpp:77] Creating layer res4a_branch2c
I0603 22:38:48.881471  4647 net.cpp:106] Creating Layer res4a_branch2c
I0603 22:38:48.881477  4647 net.cpp:454] res4a_branch2c <- res4a_branch2b
I0603 22:38:48.881484  4647 net.cpp:411] res4a_branch2c -> res4a_branch2c
I0603 22:38:48.883535  4647 net.cpp:150] Setting up res4a_branch2c
I0603 22:38:48.883560  4647 net.cpp:157] Top shape: 1 1024 65 65 (4326400)
I0603 22:38:48.883564  4647 net.cpp:165] Memory required for data: 1051280220
I0603 22:38:48.883574  4647 layer_factory.hpp:77] Creating layer bn4a_branch2c
I0603 22:38:48.883584  4647 net.cpp:106] Creating Layer bn4a_branch2c
I0603 22:38:48.883589  4647 net.cpp:454] bn4a_branch2c <- res4a_branch2c
I0603 22:38:48.883594  4647 net.cpp:397] bn4a_branch2c -> res4a_branch2c (in-place)
I0603 22:38:48.883782  4647 net.cpp:150] Setting up bn4a_branch2c
I0603 22:38:48.883790  4647 net.cpp:157] Top shape: 1 1024 65 65 (4326400)
I0603 22:38:48.883792  4647 net.cpp:165] Memory required for data: 1068585820
I0603 22:38:48.883800  4647 layer_factory.hpp:77] Creating layer scale4a_branch2c
I0603 22:38:48.883819  4647 net.cpp:106] Creating Layer scale4a_branch2c
I0603 22:38:48.883823  4647 net.cpp:454] scale4a_branch2c <- res4a_branch2c
I0603 22:38:48.883828  4647 net.cpp:397] scale4a_branch2c -> res4a_branch2c (in-place)
I0603 22:38:48.883864  4647 layer_factory.hpp:77] Creating layer scale4a_branch2c
I0603 22:38:48.883976  4647 net.cpp:150] Setting up scale4a_branch2c
I0603 22:38:48.883982  4647 net.cpp:157] Top shape: 1 1024 65 65 (4326400)
I0603 22:38:48.883985  4647 net.cpp:165] Memory required for data: 1085891420
I0603 22:38:48.883992  4647 layer_factory.hpp:77] Creating layer res4a
I0603 22:38:48.883998  4647 net.cpp:106] Creating Layer res4a
I0603 22:38:48.884002  4647 net.cpp:454] res4a <- res4a_branch1
I0603 22:38:48.884006  4647 net.cpp:454] res4a <- res4a_branch2c
I0603 22:38:48.884011  4647 net.cpp:411] res4a -> res4a
I0603 22:38:48.884052  4647 net.cpp:150] Setting up res4a
I0603 22:38:48.884058  4647 net.cpp:157] Top shape: 1 1024 65 65 (4326400)
I0603 22:38:48.884061  4647 net.cpp:165] Memory required for data: 1103197020
I0603 22:38:48.884064  4647 layer_factory.hpp:77] Creating layer res4a_relu
I0603 22:38:48.884071  4647 net.cpp:106] Creating Layer res4a_relu
I0603 22:38:48.884075  4647 net.cpp:454] res4a_relu <- res4a
I0603 22:38:48.884079  4647 net.cpp:397] res4a_relu -> res4a (in-place)
I0603 22:38:48.884531  4647 net.cpp:150] Setting up res4a_relu
I0603 22:38:48.884541  4647 net.cpp:157] Top shape: 1 1024 65 65 (4326400)
I0603 22:38:48.884546  4647 net.cpp:165] Memory required for data: 1120502620
I0603 22:38:48.884548  4647 layer_factory.hpp:77] Creating layer res4a_res4a_relu_0_split
I0603 22:38:48.884554  4647 net.cpp:106] Creating Layer res4a_res4a_relu_0_split
I0603 22:38:48.884557  4647 net.cpp:454] res4a_res4a_relu_0_split <- res4a
I0603 22:38:48.884563  4647 net.cpp:411] res4a_res4a_relu_0_split -> res4a_res4a_relu_0_split_0
I0603 22:38:48.884569  4647 net.cpp:411] res4a_res4a_relu_0_split -> res4a_res4a_relu_0_split_1
I0603 22:38:48.884618  4647 net.cpp:150] Setting up res4a_res4a_relu_0_split
I0603 22:38:48.884624  4647 net.cpp:157] Top shape: 1 1024 65 65 (4326400)
I0603 22:38:48.884629  4647 net.cpp:157] Top shape: 1 1024 65 65 (4326400)
I0603 22:38:48.884630  4647 net.cpp:165] Memory required for data: 1155113820
I0603 22:38:48.884634  4647 layer_factory.hpp:77] Creating layer res4b1_branch2a
I0603 22:38:48.884642  4647 net.cpp:106] Creating Layer res4b1_branch2a
I0603 22:38:48.884646  4647 net.cpp:454] res4b1_branch2a <- res4a_res4a_relu_0_split_0
I0603 22:38:48.884652  4647 net.cpp:411] res4b1_branch2a -> res4b1_branch2a
I0603 22:38:48.886739  4647 net.cpp:150] Setting up res4b1_branch2a
I0603 22:38:48.886762  4647 net.cpp:157] Top shape: 1 256 65 65 (1081600)
I0603 22:38:48.886766  4647 net.cpp:165] Memory required for data: 1159440220
I0603 22:38:48.886775  4647 layer_factory.hpp:77] Creating layer bn4b1_branch2a
I0603 22:38:48.886847  4647 net.cpp:106] Creating Layer bn4b1_branch2a
I0603 22:38:48.886852  4647 net.cpp:454] bn4b1_branch2a <- res4b1_branch2a
I0603 22:38:48.886858  4647 net.cpp:397] bn4b1_branch2a -> res4b1_branch2a (in-place)
I0603 22:38:48.887049  4647 net.cpp:150] Setting up bn4b1_branch2a
I0603 22:38:48.887054  4647 net.cpp:157] Top shape: 1 256 65 65 (1081600)
I0603 22:38:48.887058  4647 net.cpp:165] Memory required for data: 1163766620
I0603 22:38:48.887065  4647 layer_factory.hpp:77] Creating layer scale4b1_branch2a
I0603 22:38:48.887071  4647 net.cpp:106] Creating Layer scale4b1_branch2a
I0603 22:38:48.887074  4647 net.cpp:454] scale4b1_branch2a <- res4b1_branch2a
I0603 22:38:48.887079  4647 net.cpp:397] scale4b1_branch2a -> res4b1_branch2a (in-place)
I0603 22:38:48.887120  4647 layer_factory.hpp:77] Creating layer scale4b1_branch2a
I0603 22:38:48.887230  4647 net.cpp:150] Setting up scale4b1_branch2a
I0603 22:38:48.887236  4647 net.cpp:157] Top shape: 1 256 65 65 (1081600)
I0603 22:38:48.887239  4647 net.cpp:165] Memory required for data: 1168093020
I0603 22:38:48.887246  4647 layer_factory.hpp:77] Creating layer res4b1_branch2a_relu
I0603 22:38:48.887251  4647 net.cpp:106] Creating Layer res4b1_branch2a_relu
I0603 22:38:48.887255  4647 net.cpp:454] res4b1_branch2a_relu <- res4b1_branch2a
I0603 22:38:48.887259  4647 net.cpp:397] res4b1_branch2a_relu -> res4b1_branch2a (in-place)
I0603 22:38:48.887709  4647 net.cpp:150] Setting up res4b1_branch2a_relu
I0603 22:38:48.887719  4647 net.cpp:157] Top shape: 1 256 65 65 (1081600)
I0603 22:38:48.887722  4647 net.cpp:165] Memory required for data: 1172419420
I0603 22:38:48.887727  4647 layer_factory.hpp:77] Creating layer res4b1_branch2b
I0603 22:38:48.887735  4647 net.cpp:106] Creating Layer res4b1_branch2b
I0603 22:38:48.887740  4647 net.cpp:454] res4b1_branch2b <- res4b1_branch2a
I0603 22:38:48.887745  4647 net.cpp:411] res4b1_branch2b -> res4b1_branch2b
I0603 22:38:48.888811  4647 net.cpp:150] Setting up res4b1_branch2b
I0603 22:38:48.888852  4647 net.cpp:157] Top shape: 1 256 65 65 (1081600)
I0603 22:38:48.888856  4647 net.cpp:165] Memory required for data: 1176745820
I0603 22:38:48.888866  4647 layer_factory.hpp:77] Creating layer bn4b1_branch2b
I0603 22:38:48.888875  4647 net.cpp:106] Creating Layer bn4b1_branch2b
I0603 22:38:48.888880  4647 net.cpp:454] bn4b1_branch2b <- res4b1_branch2b
I0603 22:38:48.888885  4647 net.cpp:397] bn4b1_branch2b -> res4b1_branch2b (in-place)
I0603 22:38:48.889117  4647 net.cpp:150] Setting up bn4b1_branch2b
I0603 22:38:48.889122  4647 net.cpp:157] Top shape: 1 256 65 65 (1081600)
I0603 22:38:48.889127  4647 net.cpp:165] Memory required for data: 1181072220
I0603 22:38:48.889134  4647 layer_factory.hpp:77] Creating layer scale4b1_branch2b
I0603 22:38:48.889140  4647 net.cpp:106] Creating Layer scale4b1_branch2b
I0603 22:38:48.889143  4647 net.cpp:454] scale4b1_branch2b <- res4b1_branch2b
I0603 22:38:48.889149  4647 net.cpp:397] scale4b1_branch2b -> res4b1_branch2b (in-place)
I0603 22:38:48.889189  4647 layer_factory.hpp:77] Creating layer scale4b1_branch2b
I0603 22:38:48.889298  4647 net.cpp:150] Setting up scale4b1_branch2b
I0603 22:38:48.889304  4647 net.cpp:157] Top shape: 1 256 65 65 (1081600)
I0603 22:38:48.889307  4647 net.cpp:165] Memory required for data: 1185398620
I0603 22:38:48.889314  4647 layer_factory.hpp:77] Creating layer res4b1_branch2b_relu
I0603 22:38:48.889320  4647 net.cpp:106] Creating Layer res4b1_branch2b_relu
I0603 22:38:48.889323  4647 net.cpp:454] res4b1_branch2b_relu <- res4b1_branch2b
I0603 22:38:48.889329  4647 net.cpp:397] res4b1_branch2b_relu -> res4b1_branch2b (in-place)
I0603 22:38:48.889683  4647 net.cpp:150] Setting up res4b1_branch2b_relu
I0603 22:38:48.889690  4647 net.cpp:157] Top shape: 1 256 65 65 (1081600)
I0603 22:38:48.889693  4647 net.cpp:165] Memory required for data: 1189725020
I0603 22:38:48.889698  4647 layer_factory.hpp:77] Creating layer res4b1_branch2c
I0603 22:38:48.889705  4647 net.cpp:106] Creating Layer res4b1_branch2c
I0603 22:38:48.889709  4647 net.cpp:454] res4b1_branch2c <- res4b1_branch2b
I0603 22:38:48.889714  4647 net.cpp:411] res4b1_branch2c -> res4b1_branch2c
I0603 22:38:48.892051  4647 net.cpp:150] Setting up res4b1_branch2c
I0603 22:38:48.892073  4647 net.cpp:157] Top shape: 1 1024 65 65 (4326400)
I0603 22:38:48.892077  4647 net.cpp:165] Memory required for data: 1207030620
I0603 22:38:48.892087  4647 layer_factory.hpp:77] Creating layer bn4b1_branch2c
I0603 22:38:48.892097  4647 net.cpp:106] Creating Layer bn4b1_branch2c
I0603 22:38:48.892102  4647 net.cpp:454] bn4b1_branch2c <- res4b1_branch2c
I0603 22:38:48.892108  4647 net.cpp:397] bn4b1_branch2c -> res4b1_branch2c (in-place)
I0603 22:38:48.892312  4647 net.cpp:150] Setting up bn4b1_branch2c
I0603 22:38:48.892318  4647 net.cpp:157] Top shape: 1 1024 65 65 (4326400)
I0603 22:38:48.892321  4647 net.cpp:165] Memory required for data: 1224336220
I0603 22:38:48.892328  4647 layer_factory.hpp:77] Creating layer scale4b1_branch2c
I0603 22:38:48.892335  4647 net.cpp:106] Creating Layer scale4b1_branch2c
I0603 22:38:48.892340  4647 net.cpp:454] scale4b1_branch2c <- res4b1_branch2c
I0603 22:38:48.892344  4647 net.cpp:397] scale4b1_branch2c -> res4b1_branch2c (in-place)
I0603 22:38:48.892395  4647 layer_factory.hpp:77] Creating layer scale4b1_branch2c
I0603 22:38:48.892510  4647 net.cpp:150] Setting up scale4b1_branch2c
I0603 22:38:48.892516  4647 net.cpp:157] Top shape: 1 1024 65 65 (4326400)
I0603 22:38:48.892519  4647 net.cpp:165] Memory required for data: 1241641820
I0603 22:38:48.892525  4647 layer_factory.hpp:77] Creating layer res4b1
I0603 22:38:48.892530  4647 net.cpp:106] Creating Layer res4b1
I0603 22:38:48.892535  4647 net.cpp:454] res4b1 <- res4a_res4a_relu_0_split_1
I0603 22:38:48.892539  4647 net.cpp:454] res4b1 <- res4b1_branch2c
I0603 22:38:48.892544  4647 net.cpp:411] res4b1 -> res4b1
I0603 22:38:48.892567  4647 net.cpp:150] Setting up res4b1
I0603 22:38:48.892573  4647 net.cpp:157] Top shape: 1 1024 65 65 (4326400)
I0603 22:38:48.892576  4647 net.cpp:165] Memory required for data: 1258947420
I0603 22:38:48.892596  4647 layer_factory.hpp:77] Creating layer res4b1_relu
I0603 22:38:48.892602  4647 net.cpp:106] Creating Layer res4b1_relu
I0603 22:38:48.892606  4647 net.cpp:454] res4b1_relu <- res4b1
I0603 22:38:48.892611  4647 net.cpp:397] res4b1_relu -> res4b1 (in-place)
I0603 22:38:48.893067  4647 net.cpp:150] Setting up res4b1_relu
I0603 22:38:48.893077  4647 net.cpp:157] Top shape: 1 1024 65 65 (4326400)
I0603 22:38:48.893081  4647 net.cpp:165] Memory required for data: 1276253020
I0603 22:38:48.893085  4647 layer_factory.hpp:77] Creating layer res4b1_res4b1_relu_0_split
I0603 22:38:48.893090  4647 net.cpp:106] Creating Layer res4b1_res4b1_relu_0_split
I0603 22:38:48.893095  4647 net.cpp:454] res4b1_res4b1_relu_0_split <- res4b1
I0603 22:38:48.893100  4647 net.cpp:411] res4b1_res4b1_relu_0_split -> res4b1_res4b1_relu_0_split_0
I0603 22:38:48.893106  4647 net.cpp:411] res4b1_res4b1_relu_0_split -> res4b1_res4b1_relu_0_split_1
I0603 22:38:48.893149  4647 net.cpp:150] Setting up res4b1_res4b1_relu_0_split
I0603 22:38:48.893154  4647 net.cpp:157] Top shape: 1 1024 65 65 (4326400)
I0603 22:38:48.893159  4647 net.cpp:157] Top shape: 1 1024 65 65 (4326400)
I0603 22:38:48.893162  4647 net.cpp:165] Memory required for data: 1310864220
I0603 22:38:48.893165  4647 layer_factory.hpp:77] Creating layer res4b2_branch2a
I0603 22:38:48.893173  4647 net.cpp:106] Creating Layer res4b2_branch2a
I0603 22:38:48.893178  4647 net.cpp:454] res4b2_branch2a <- res4b1_res4b1_relu_0_split_0
I0603 22:38:48.893183  4647 net.cpp:411] res4b2_branch2a -> res4b2_branch2a
I0603 22:38:48.895057  4647 net.cpp:150] Setting up res4b2_branch2a
I0603 22:38:48.895073  4647 net.cpp:157] Top shape: 1 256 65 65 (1081600)
I0603 22:38:48.895076  4647 net.cpp:165] Memory required for data: 1315190620
I0603 22:38:48.895087  4647 layer_factory.hpp:77] Creating layer bn4b2_branch2a
I0603 22:38:48.895097  4647 net.cpp:106] Creating Layer bn4b2_branch2a
I0603 22:38:48.895102  4647 net.cpp:454] bn4b2_branch2a <- res4b2_branch2a
I0603 22:38:48.895108  4647 net.cpp:397] bn4b2_branch2a -> res4b2_branch2a (in-place)
I0603 22:38:48.895305  4647 net.cpp:150] Setting up bn4b2_branch2a
I0603 22:38:48.895313  4647 net.cpp:157] Top shape: 1 256 65 65 (1081600)
I0603 22:38:48.895315  4647 net.cpp:165] Memory required for data: 1319517020
I0603 22:38:48.895328  4647 layer_factory.hpp:77] Creating layer scale4b2_branch2a
I0603 22:38:48.895334  4647 net.cpp:106] Creating Layer scale4b2_branch2a
I0603 22:38:48.895339  4647 net.cpp:454] scale4b2_branch2a <- res4b2_branch2a
I0603 22:38:48.895344  4647 net.cpp:397] scale4b2_branch2a -> res4b2_branch2a (in-place)
I0603 22:38:48.895402  4647 layer_factory.hpp:77] Creating layer scale4b2_branch2a
I0603 22:38:48.895524  4647 net.cpp:150] Setting up scale4b2_branch2a
I0603 22:38:48.895530  4647 net.cpp:157] Top shape: 1 256 65 65 (1081600)
I0603 22:38:48.895534  4647 net.cpp:165] Memory required for data: 1323843420
I0603 22:38:48.895541  4647 layer_factory.hpp:77] Creating layer res4b2_branch2a_relu
I0603 22:38:48.895547  4647 net.cpp:106] Creating Layer res4b2_branch2a_relu
I0603 22:38:48.895551  4647 net.cpp:454] res4b2_branch2a_relu <- res4b2_branch2a
I0603 22:38:48.895556  4647 net.cpp:397] res4b2_branch2a_relu -> res4b2_branch2a (in-place)
I0603 22:38:48.896173  4647 net.cpp:150] Setting up res4b2_branch2a_relu
I0603 22:38:48.896189  4647 net.cpp:157] Top shape: 1 256 65 65 (1081600)
I0603 22:38:48.896193  4647 net.cpp:165] Memory required for data: 1328169820
I0603 22:38:48.896198  4647 layer_factory.hpp:77] Creating layer res4b2_branch2b
I0603 22:38:48.896214  4647 net.cpp:106] Creating Layer res4b2_branch2b
I0603 22:38:48.896219  4647 net.cpp:454] res4b2_branch2b <- res4b2_branch2a
I0603 22:38:48.896225  4647 net.cpp:411] res4b2_branch2b -> res4b2_branch2b
I0603 22:38:48.897433  4647 net.cpp:150] Setting up res4b2_branch2b
I0603 22:38:48.897451  4647 net.cpp:157] Top shape: 1 256 65 65 (1081600)
I0603 22:38:48.897454  4647 net.cpp:165] Memory required for data: 1332496220
I0603 22:38:48.897464  4647 layer_factory.hpp:77] Creating layer bn4b2_branch2b
I0603 22:38:48.897490  4647 net.cpp:106] Creating Layer bn4b2_branch2b
I0603 22:38:48.897495  4647 net.cpp:454] bn4b2_branch2b <- res4b2_branch2b
I0603 22:38:48.897501  4647 net.cpp:397] bn4b2_branch2b -> res4b2_branch2b (in-place)
I0603 22:38:48.897711  4647 net.cpp:150] Setting up bn4b2_branch2b
I0603 22:38:48.897717  4647 net.cpp:157] Top shape: 1 256 65 65 (1081600)
I0603 22:38:48.897722  4647 net.cpp:165] Memory required for data: 1336822620
I0603 22:38:48.897729  4647 layer_factory.hpp:77] Creating layer scale4b2_branch2b
I0603 22:38:48.897737  4647 net.cpp:106] Creating Layer scale4b2_branch2b
I0603 22:38:48.897742  4647 net.cpp:454] scale4b2_branch2b <- res4b2_branch2b
I0603 22:38:48.897748  4647 net.cpp:397] scale4b2_branch2b -> res4b2_branch2b (in-place)
I0603 22:38:48.897791  4647 layer_factory.hpp:77] Creating layer scale4b2_branch2b
I0603 22:38:48.897917  4647 net.cpp:150] Setting up scale4b2_branch2b
I0603 22:38:48.897922  4647 net.cpp:157] Top shape: 1 256 65 65 (1081600)
I0603 22:38:48.897927  4647 net.cpp:165] Memory required for data: 1341149020
I0603 22:38:48.897934  4647 layer_factory.hpp:77] Creating layer res4b2_branch2b_relu
I0603 22:38:48.897940  4647 net.cpp:106] Creating Layer res4b2_branch2b_relu
I0603 22:38:48.897943  4647 net.cpp:454] res4b2_branch2b_relu <- res4b2_branch2b
I0603 22:38:48.897950  4647 net.cpp:397] res4b2_branch2b_relu -> res4b2_branch2b (in-place)
I0603 22:38:48.898810  4647 net.cpp:150] Setting up res4b2_branch2b_relu
I0603 22:38:48.898828  4647 net.cpp:157] Top shape: 1 256 65 65 (1081600)
I0603 22:38:48.898833  4647 net.cpp:165] Memory required for data: 1345475420
I0603 22:38:48.898838  4647 layer_factory.hpp:77] Creating layer res4b2_branch2c
I0603 22:38:48.898847  4647 net.cpp:106] Creating Layer res4b2_branch2c
I0603 22:38:48.898852  4647 net.cpp:454] res4b2_branch2c <- res4b2_branch2b
I0603 22:38:48.898859  4647 net.cpp:411] res4b2_branch2c -> res4b2_branch2c
I0603 22:38:48.901501  4647 net.cpp:150] Setting up res4b2_branch2c
I0603 22:38:48.901523  4647 net.cpp:157] Top shape: 1 1024 65 65 (4326400)
I0603 22:38:48.901527  4647 net.cpp:165] Memory required for data: 1362781020
I0603 22:38:48.901537  4647 layer_factory.hpp:77] Creating layer bn4b2_branch2c
I0603 22:38:48.901546  4647 net.cpp:106] Creating Layer bn4b2_branch2c
I0603 22:38:48.901551  4647 net.cpp:454] bn4b2_branch2c <- res4b2_branch2c
I0603 22:38:48.901558  4647 net.cpp:397] bn4b2_branch2c -> res4b2_branch2c (in-place)
I0603 22:38:48.901767  4647 net.cpp:150] Setting up bn4b2_branch2c
I0603 22:38:48.901772  4647 net.cpp:157] Top shape: 1 1024 65 65 (4326400)
I0603 22:38:48.901775  4647 net.cpp:165] Memory required for data: 1380086620
I0603 22:38:48.901784  4647 layer_factory.hpp:77] Creating layer scale4b2_branch2c
I0603 22:38:48.901792  4647 net.cpp:106] Creating Layer scale4b2_branch2c
I0603 22:38:48.901795  4647 net.cpp:454] scale4b2_branch2c <- res4b2_branch2c
I0603 22:38:48.901800  4647 net.cpp:397] scale4b2_branch2c -> res4b2_branch2c (in-place)
I0603 22:38:48.901839  4647 layer_factory.hpp:77] Creating layer scale4b2_branch2c
I0603 22:38:48.901960  4647 net.cpp:150] Setting up scale4b2_branch2c
I0603 22:38:48.901967  4647 net.cpp:157] Top shape: 1 1024 65 65 (4326400)
I0603 22:38:48.901969  4647 net.cpp:165] Memory required for data: 1397392220
I0603 22:38:48.901976  4647 layer_factory.hpp:77] Creating layer res4b2
I0603 22:38:48.901983  4647 net.cpp:106] Creating Layer res4b2
I0603 22:38:48.901988  4647 net.cpp:454] res4b2 <- res4b1_res4b1_relu_0_split_1
I0603 22:38:48.901991  4647 net.cpp:454] res4b2 <- res4b2_branch2c
I0603 22:38:48.901996  4647 net.cpp:411] res4b2 -> res4b2
I0603 22:38:48.902022  4647 net.cpp:150] Setting up res4b2
I0603 22:38:48.902029  4647 net.cpp:157] Top shape: 1 1024 65 65 (4326400)
I0603 22:38:48.902031  4647 net.cpp:165] Memory required for data: 1414697820
I0603 22:38:48.902034  4647 layer_factory.hpp:77] Creating layer res4b2_relu
I0603 22:38:48.902040  4647 net.cpp:106] Creating Layer res4b2_relu
I0603 22:38:48.902045  4647 net.cpp:454] res4b2_relu <- res4b2
I0603 22:38:48.902060  4647 net.cpp:397] res4b2_relu -> res4b2 (in-place)
I0603 22:38:48.902370  4647 net.cpp:150] Setting up res4b2_relu
I0603 22:38:48.902379  4647 net.cpp:157] Top shape: 1 1024 65 65 (4326400)
I0603 22:38:48.902382  4647 net.cpp:165] Memory required for data: 1432003420
I0603 22:38:48.902386  4647 layer_factory.hpp:77] Creating layer res4b2_res4b2_relu_0_split
I0603 22:38:48.902393  4647 net.cpp:106] Creating Layer res4b2_res4b2_relu_0_split
I0603 22:38:48.902397  4647 net.cpp:454] res4b2_res4b2_relu_0_split <- res4b2
I0603 22:38:48.902402  4647 net.cpp:411] res4b2_res4b2_relu_0_split -> res4b2_res4b2_relu_0_split_0
I0603 22:38:48.902408  4647 net.cpp:411] res4b2_res4b2_relu_0_split -> res4b2_res4b2_relu_0_split_1
I0603 22:38:48.902452  4647 net.cpp:150] Setting up res4b2_res4b2_relu_0_split
I0603 22:38:48.902457  4647 net.cpp:157] Top shape: 1 1024 65 65 (4326400)
I0603 22:38:48.902462  4647 net.cpp:157] Top shape: 1 1024 65 65 (4326400)
I0603 22:38:48.902465  4647 net.cpp:165] Memory required for data: 1466614620
I0603 22:38:48.902468  4647 layer_factory.hpp:77] Creating layer res4b3_branch2a
I0603 22:38:48.902477  4647 net.cpp:106] Creating Layer res4b3_branch2a
I0603 22:38:48.902482  4647 net.cpp:454] res4b3_branch2a <- res4b2_res4b2_relu_0_split_0
I0603 22:38:48.902487  4647 net.cpp:411] res4b3_branch2a -> res4b3_branch2a
I0603 22:38:48.904749  4647 net.cpp:150] Setting up res4b3_branch2a
I0603 22:38:48.904765  4647 net.cpp:157] Top shape: 1 256 65 65 (1081600)
I0603 22:38:48.904769  4647 net.cpp:165] Memory required for data: 1470941020
I0603 22:38:48.904778  4647 layer_factory.hpp:77] Creating layer bn4b3_branch2a
I0603 22:38:48.904786  4647 net.cpp:106] Creating Layer bn4b3_branch2a
I0603 22:38:48.904791  4647 net.cpp:454] bn4b3_branch2a <- res4b3_branch2a
I0603 22:38:48.904798  4647 net.cpp:397] bn4b3_branch2a -> res4b3_branch2a (in-place)
I0603 22:38:48.904996  4647 net.cpp:150] Setting up bn4b3_branch2a
I0603 22:38:48.905001  4647 net.cpp:157] Top shape: 1 256 65 65 (1081600)
I0603 22:38:48.905004  4647 net.cpp:165] Memory required for data: 1475267420
I0603 22:38:48.905014  4647 layer_factory.hpp:77] Creating layer scale4b3_branch2a
I0603 22:38:48.905019  4647 net.cpp:106] Creating Layer scale4b3_branch2a
I0603 22:38:48.905035  4647 net.cpp:454] scale4b3_branch2a <- res4b3_branch2a
I0603 22:38:48.905041  4647 net.cpp:397] scale4b3_branch2a -> res4b3_branch2a (in-place)
I0603 22:38:48.905083  4647 layer_factory.hpp:77] Creating layer scale4b3_branch2a
I0603 22:38:48.905200  4647 net.cpp:150] Setting up scale4b3_branch2a
I0603 22:38:48.905205  4647 net.cpp:157] Top shape: 1 256 65 65 (1081600)
I0603 22:38:48.905208  4647 net.cpp:165] Memory required for data: 1479593820
I0603 22:38:48.905215  4647 layer_factory.hpp:77] Creating layer res4b3_branch2a_relu
I0603 22:38:48.905220  4647 net.cpp:106] Creating Layer res4b3_branch2a_relu
I0603 22:38:48.905225  4647 net.cpp:454] res4b3_branch2a_relu <- res4b3_branch2a
I0603 22:38:48.905230  4647 net.cpp:397] res4b3_branch2a_relu -> res4b3_branch2a (in-place)
I0603 22:38:48.905676  4647 net.cpp:150] Setting up res4b3_branch2a_relu
I0603 22:38:48.905685  4647 net.cpp:157] Top shape: 1 256 65 65 (1081600)
I0603 22:38:48.905689  4647 net.cpp:165] Memory required for data: 1483920220
I0603 22:38:48.905692  4647 layer_factory.hpp:77] Creating layer res4b3_branch2b
I0603 22:38:48.905700  4647 net.cpp:106] Creating Layer res4b3_branch2b
I0603 22:38:48.905704  4647 net.cpp:454] res4b3_branch2b <- res4b3_branch2a
I0603 22:38:48.905711  4647 net.cpp:411] res4b3_branch2b -> res4b3_branch2b
I0603 22:38:48.906879  4647 net.cpp:150] Setting up res4b3_branch2b
I0603 22:38:48.906903  4647 net.cpp:157] Top shape: 1 256 65 65 (1081600)
I0603 22:38:48.906906  4647 net.cpp:165] Memory required for data: 1488246620
I0603 22:38:48.906916  4647 layer_factory.hpp:77] Creating layer bn4b3_branch2b
I0603 22:38:48.906924  4647 net.cpp:106] Creating Layer bn4b3_branch2b
I0603 22:38:48.906929  4647 net.cpp:454] bn4b3_branch2b <- res4b3_branch2b
I0603 22:38:48.906950  4647 net.cpp:397] bn4b3_branch2b -> res4b3_branch2b (in-place)
I0603 22:38:48.907157  4647 net.cpp:150] Setting up bn4b3_branch2b
I0603 22:38:48.907163  4647 net.cpp:157] Top shape: 1 256 65 65 (1081600)
I0603 22:38:48.907167  4647 net.cpp:165] Memory required for data: 1492573020
I0603 22:38:48.907176  4647 layer_factory.hpp:77] Creating layer scale4b3_branch2b
I0603 22:38:48.907181  4647 net.cpp:106] Creating Layer scale4b3_branch2b
I0603 22:38:48.907186  4647 net.cpp:454] scale4b3_branch2b <- res4b3_branch2b
I0603 22:38:48.907191  4647 net.cpp:397] scale4b3_branch2b -> res4b3_branch2b (in-place)
I0603 22:38:48.907233  4647 layer_factory.hpp:77] Creating layer scale4b3_branch2b
I0603 22:38:48.907351  4647 net.cpp:150] Setting up scale4b3_branch2b
I0603 22:38:48.907356  4647 net.cpp:157] Top shape: 1 256 65 65 (1081600)
I0603 22:38:48.907359  4647 net.cpp:165] Memory required for data: 1496899420
I0603 22:38:48.907366  4647 layer_factory.hpp:77] Creating layer res4b3_branch2b_relu
I0603 22:38:48.907371  4647 net.cpp:106] Creating Layer res4b3_branch2b_relu
I0603 22:38:48.907374  4647 net.cpp:454] res4b3_branch2b_relu <- res4b3_branch2b
I0603 22:38:48.907380  4647 net.cpp:397] res4b3_branch2b_relu -> res4b3_branch2b (in-place)
I0603 22:38:48.907918  4647 net.cpp:150] Setting up res4b3_branch2b_relu
I0603 22:38:48.907928  4647 net.cpp:157] Top shape: 1 256 65 65 (1081600)
I0603 22:38:48.907932  4647 net.cpp:165] Memory required for data: 1501225820
I0603 22:38:48.907937  4647 layer_factory.hpp:77] Creating layer res4b3_branch2c
I0603 22:38:48.907944  4647 net.cpp:106] Creating Layer res4b3_branch2c
I0603 22:38:48.907948  4647 net.cpp:454] res4b3_branch2c <- res4b3_branch2b
I0603 22:38:48.907954  4647 net.cpp:411] res4b3_branch2c -> res4b3_branch2c
I0603 22:38:48.910236  4647 net.cpp:150] Setting up res4b3_branch2c
I0603 22:38:48.910257  4647 net.cpp:157] Top shape: 1 1024 65 65 (4326400)
I0603 22:38:48.910260  4647 net.cpp:165] Memory required for data: 1518531420
I0603 22:38:48.910270  4647 layer_factory.hpp:77] Creating layer bn4b3_branch2c
I0603 22:38:48.910280  4647 net.cpp:106] Creating Layer bn4b3_branch2c
I0603 22:38:48.910285  4647 net.cpp:454] bn4b3_branch2c <- res4b3_branch2c
I0603 22:38:48.910292  4647 net.cpp:397] bn4b3_branch2c -> res4b3_branch2c (in-place)
I0603 22:38:48.910506  4647 net.cpp:150] Setting up bn4b3_branch2c
I0603 22:38:48.910512  4647 net.cpp:157] Top shape: 1 1024 65 65 (4326400)
I0603 22:38:48.910516  4647 net.cpp:165] Memory required for data: 1535837020
I0603 22:38:48.910523  4647 layer_factory.hpp:77] Creating layer scale4b3_branch2c
I0603 22:38:48.910528  4647 net.cpp:106] Creating Layer scale4b3_branch2c
I0603 22:38:48.910532  4647 net.cpp:454] scale4b3_branch2c <- res4b3_branch2c
I0603 22:38:48.910538  4647 net.cpp:397] scale4b3_branch2c -> res4b3_branch2c (in-place)
I0603 22:38:48.910575  4647 layer_factory.hpp:77] Creating layer scale4b3_branch2c
I0603 22:38:48.910696  4647 net.cpp:150] Setting up scale4b3_branch2c
I0603 22:38:48.910703  4647 net.cpp:157] Top shape: 1 1024 65 65 (4326400)
I0603 22:38:48.910706  4647 net.cpp:165] Memory required for data: 1553142620
I0603 22:38:48.910713  4647 layer_factory.hpp:77] Creating layer res4b3
I0603 22:38:48.910718  4647 net.cpp:106] Creating Layer res4b3
I0603 22:38:48.910722  4647 net.cpp:454] res4b3 <- res4b2_res4b2_relu_0_split_1
I0603 22:38:48.910727  4647 net.cpp:454] res4b3 <- res4b3_branch2c
I0603 22:38:48.910732  4647 net.cpp:411] res4b3 -> res4b3
I0603 22:38:48.910755  4647 net.cpp:150] Setting up res4b3
I0603 22:38:48.910761  4647 net.cpp:157] Top shape: 1 1024 65 65 (4326400)
I0603 22:38:48.910764  4647 net.cpp:165] Memory required for data: 1570448220
I0603 22:38:48.910768  4647 layer_factory.hpp:77] Creating layer res4b3_relu
I0603 22:38:48.910773  4647 net.cpp:106] Creating Layer res4b3_relu
I0603 22:38:48.910776  4647 net.cpp:454] res4b3_relu <- res4b3
I0603 22:38:48.910780  4647 net.cpp:397] res4b3_relu -> res4b3 (in-place)
I0603 22:38:48.911224  4647 net.cpp:150] Setting up res4b3_relu
I0603 22:38:48.911233  4647 net.cpp:157] Top shape: 1 1024 65 65 (4326400)
I0603 22:38:48.911250  4647 net.cpp:165] Memory required for data: 1587753820
I0603 22:38:48.911254  4647 layer_factory.hpp:77] Creating layer res4b3_res4b3_relu_0_split
I0603 22:38:48.911262  4647 net.cpp:106] Creating Layer res4b3_res4b3_relu_0_split
I0603 22:38:48.911265  4647 net.cpp:454] res4b3_res4b3_relu_0_split <- res4b3
I0603 22:38:48.911272  4647 net.cpp:411] res4b3_res4b3_relu_0_split -> res4b3_res4b3_relu_0_split_0
I0603 22:38:48.911278  4647 net.cpp:411] res4b3_res4b3_relu_0_split -> res4b3_res4b3_relu_0_split_1
I0603 22:38:48.911321  4647 net.cpp:150] Setting up res4b3_res4b3_relu_0_split
I0603 22:38:48.911327  4647 net.cpp:157] Top shape: 1 1024 65 65 (4326400)
I0603 22:38:48.911332  4647 net.cpp:157] Top shape: 1 1024 65 65 (4326400)
I0603 22:38:48.911335  4647 net.cpp:165] Memory required for data: 1622365020
I0603 22:38:48.911339  4647 layer_factory.hpp:77] Creating layer res4b4_branch2a
I0603 22:38:48.911345  4647 net.cpp:106] Creating Layer res4b4_branch2a
I0603 22:38:48.911350  4647 net.cpp:454] res4b4_branch2a <- res4b3_res4b3_relu_0_split_0
I0603 22:38:48.911355  4647 net.cpp:411] res4b4_branch2a -> res4b4_branch2a
I0603 22:38:48.913391  4647 net.cpp:150] Setting up res4b4_branch2a
I0603 22:38:48.913416  4647 net.cpp:157] Top shape: 1 256 65 65 (1081600)
I0603 22:38:48.913419  4647 net.cpp:165] Memory required for data: 1626691420
I0603 22:38:48.913425  4647 layer_factory.hpp:77] Creating layer bn4b4_branch2a
I0603 22:38:48.925114  4647 net.cpp:106] Creating Layer bn4b4_branch2a
I0603 22:38:48.925127  4647 net.cpp:454] bn4b4_branch2a <- res4b4_branch2a
I0603 22:38:48.925134  4647 net.cpp:397] bn4b4_branch2a -> res4b4_branch2a (in-place)
I0603 22:38:48.925398  4647 net.cpp:150] Setting up bn4b4_branch2a
I0603 22:38:48.925405  4647 net.cpp:157] Top shape: 1 256 65 65 (1081600)
I0603 22:38:48.925408  4647 net.cpp:165] Memory required for data: 1631017820
I0603 22:38:48.925416  4647 layer_factory.hpp:77] Creating layer scale4b4_branch2a
I0603 22:38:48.925437  4647 net.cpp:106] Creating Layer scale4b4_branch2a
I0603 22:38:48.925441  4647 net.cpp:454] scale4b4_branch2a <- res4b4_branch2a
I0603 22:38:48.925446  4647 net.cpp:397] scale4b4_branch2a -> res4b4_branch2a (in-place)
I0603 22:38:48.925501  4647 layer_factory.hpp:77] Creating layer scale4b4_branch2a
I0603 22:38:48.925645  4647 net.cpp:150] Setting up scale4b4_branch2a
I0603 22:38:48.925650  4647 net.cpp:157] Top shape: 1 256 65 65 (1081600)
I0603 22:38:48.925653  4647 net.cpp:165] Memory required for data: 1635344220
I0603 22:38:48.925659  4647 layer_factory.hpp:77] Creating layer res4b4_branch2a_relu
I0603 22:38:48.925679  4647 net.cpp:106] Creating Layer res4b4_branch2a_relu
I0603 22:38:48.925683  4647 net.cpp:454] res4b4_branch2a_relu <- res4b4_branch2a
I0603 22:38:48.925689  4647 net.cpp:397] res4b4_branch2a_relu -> res4b4_branch2a (in-place)
I0603 22:38:48.926043  4647 net.cpp:150] Setting up res4b4_branch2a_relu
I0603 22:38:48.926051  4647 net.cpp:157] Top shape: 1 256 65 65 (1081600)
I0603 22:38:48.926054  4647 net.cpp:165] Memory required for data: 1639670620
I0603 22:38:48.926056  4647 layer_factory.hpp:77] Creating layer res4b4_branch2b
I0603 22:38:48.926079  4647 net.cpp:106] Creating Layer res4b4_branch2b
I0603 22:38:48.926082  4647 net.cpp:454] res4b4_branch2b <- res4b4_branch2a
I0603 22:38:48.926087  4647 net.cpp:411] res4b4_branch2b -> res4b4_branch2b
I0603 22:38:48.927206  4647 net.cpp:150] Setting up res4b4_branch2b
I0603 22:38:48.927222  4647 net.cpp:157] Top shape: 1 256 65 65 (1081600)
I0603 22:38:48.927223  4647 net.cpp:165] Memory required for data: 1643997020
I0603 22:38:48.927232  4647 layer_factory.hpp:77] Creating layer bn4b4_branch2b
I0603 22:38:48.927253  4647 net.cpp:106] Creating Layer bn4b4_branch2b
I0603 22:38:48.927258  4647 net.cpp:454] bn4b4_branch2b <- res4b4_branch2b
I0603 22:38:48.927263  4647 net.cpp:397] bn4b4_branch2b -> res4b4_branch2b (in-place)
I0603 22:38:48.927589  4647 net.cpp:150] Setting up bn4b4_branch2b
I0603 22:38:48.927598  4647 net.cpp:157] Top shape: 1 256 65 65 (1081600)
I0603 22:38:48.927623  4647 net.cpp:165] Memory required for data: 1648323420
I0603 22:38:48.927633  4647 layer_factory.hpp:77] Creating layer scale4b4_branch2b
I0603 22:38:48.927641  4647 net.cpp:106] Creating Layer scale4b4_branch2b
I0603 22:38:48.927646  4647 net.cpp:454] scale4b4_branch2b <- res4b4_branch2b
I0603 22:38:48.927651  4647 net.cpp:397] scale4b4_branch2b -> res4b4_branch2b (in-place)
I0603 22:38:48.927700  4647 layer_factory.hpp:77] Creating layer scale4b4_branch2b
I0603 22:38:48.927829  4647 net.cpp:150] Setting up scale4b4_branch2b
I0603 22:38:48.927835  4647 net.cpp:157] Top shape: 1 256 65 65 (1081600)
I0603 22:38:48.927839  4647 net.cpp:165] Memory required for data: 1652649820
I0603 22:38:48.927845  4647 layer_factory.hpp:77] Creating layer res4b4_branch2b_relu
I0603 22:38:48.927852  4647 net.cpp:106] Creating Layer res4b4_branch2b_relu
I0603 22:38:48.927855  4647 net.cpp:454] res4b4_branch2b_relu <- res4b4_branch2b
I0603 22:38:48.927860  4647 net.cpp:397] res4b4_branch2b_relu -> res4b4_branch2b (in-place)
I0603 22:38:48.928431  4647 net.cpp:150] Setting up res4b4_branch2b_relu
I0603 22:38:48.928441  4647 net.cpp:157] Top shape: 1 256 65 65 (1081600)
I0603 22:38:48.928444  4647 net.cpp:165] Memory required for data: 1656976220
I0603 22:38:48.928448  4647 layer_factory.hpp:77] Creating layer res4b4_branch2c
I0603 22:38:48.928457  4647 net.cpp:106] Creating Layer res4b4_branch2c
I0603 22:38:48.928462  4647 net.cpp:454] res4b4_branch2c <- res4b4_branch2b
I0603 22:38:48.928467  4647 net.cpp:411] res4b4_branch2c -> res4b4_branch2c
I0603 22:38:48.930680  4647 net.cpp:150] Setting up res4b4_branch2c
I0603 22:38:48.930691  4647 net.cpp:157] Top shape: 1 1024 65 65 (4326400)
I0603 22:38:48.930694  4647 net.cpp:165] Memory required for data: 1674281820
I0603 22:38:48.930701  4647 layer_factory.hpp:77] Creating layer bn4b4_branch2c
I0603 22:38:48.930709  4647 net.cpp:106] Creating Layer bn4b4_branch2c
I0603 22:38:48.930713  4647 net.cpp:454] bn4b4_branch2c <- res4b4_branch2c
I0603 22:38:48.930718  4647 net.cpp:397] bn4b4_branch2c -> res4b4_branch2c (in-place)
I0603 22:38:48.930927  4647 net.cpp:150] Setting up bn4b4_branch2c
I0603 22:38:48.930932  4647 net.cpp:157] Top shape: 1 1024 65 65 (4326400)
I0603 22:38:48.930935  4647 net.cpp:165] Memory required for data: 1691587420
I0603 22:38:48.930943  4647 layer_factory.hpp:77] Creating layer scale4b4_branch2c
I0603 22:38:48.930948  4647 net.cpp:106] Creating Layer scale4b4_branch2c
I0603 22:38:48.930950  4647 net.cpp:454] scale4b4_branch2c <- res4b4_branch2c
I0603 22:38:48.930955  4647 net.cpp:397] scale4b4_branch2c -> res4b4_branch2c (in-place)
I0603 22:38:48.930991  4647 layer_factory.hpp:77] Creating layer scale4b4_branch2c
I0603 22:38:48.931113  4647 net.cpp:150] Setting up scale4b4_branch2c
I0603 22:38:48.931118  4647 net.cpp:157] Top shape: 1 1024 65 65 (4326400)
I0603 22:38:48.931121  4647 net.cpp:165] Memory required for data: 1708893020
I0603 22:38:48.931128  4647 layer_factory.hpp:77] Creating layer res4b4
I0603 22:38:48.931131  4647 net.cpp:106] Creating Layer res4b4
I0603 22:38:48.931135  4647 net.cpp:454] res4b4 <- res4b3_res4b3_relu_0_split_1
I0603 22:38:48.931138  4647 net.cpp:454] res4b4 <- res4b4_branch2c
I0603 22:38:48.931143  4647 net.cpp:411] res4b4 -> res4b4
I0603 22:38:48.931169  4647 net.cpp:150] Setting up res4b4
I0603 22:38:48.931174  4647 net.cpp:157] Top shape: 1 1024 65 65 (4326400)
I0603 22:38:48.931176  4647 net.cpp:165] Memory required for data: 1726198620
I0603 22:38:48.931179  4647 layer_factory.hpp:77] Creating layer res4b4_relu
I0603 22:38:48.931183  4647 net.cpp:106] Creating Layer res4b4_relu
I0603 22:38:48.931186  4647 net.cpp:454] res4b4_relu <- res4b4
I0603 22:38:48.931190  4647 net.cpp:397] res4b4_relu -> res4b4 (in-place)
I0603 22:38:48.931644  4647 net.cpp:150] Setting up res4b4_relu
I0603 22:38:48.931653  4647 net.cpp:157] Top shape: 1 1024 65 65 (4326400)
I0603 22:38:48.931656  4647 net.cpp:165] Memory required for data: 1743504220
I0603 22:38:48.931660  4647 layer_factory.hpp:77] Creating layer res4b4_res4b4_relu_0_split
I0603 22:38:48.931680  4647 net.cpp:106] Creating Layer res4b4_res4b4_relu_0_split
I0603 22:38:48.931684  4647 net.cpp:454] res4b4_res4b4_relu_0_split <- res4b4
I0603 22:38:48.931691  4647 net.cpp:411] res4b4_res4b4_relu_0_split -> res4b4_res4b4_relu_0_split_0
I0603 22:38:48.931697  4647 net.cpp:411] res4b4_res4b4_relu_0_split -> res4b4_res4b4_relu_0_split_1
I0603 22:38:48.931742  4647 net.cpp:150] Setting up res4b4_res4b4_relu_0_split
I0603 22:38:48.931747  4647 net.cpp:157] Top shape: 1 1024 65 65 (4326400)
I0603 22:38:48.931751  4647 net.cpp:157] Top shape: 1 1024 65 65 (4326400)
I0603 22:38:48.931753  4647 net.cpp:165] Memory required for data: 1778115420
I0603 22:38:48.931756  4647 layer_factory.hpp:77] Creating layer res4b5_branch2a
I0603 22:38:48.931762  4647 net.cpp:106] Creating Layer res4b5_branch2a
I0603 22:38:48.931766  4647 net.cpp:454] res4b5_branch2a <- res4b4_res4b4_relu_0_split_0
I0603 22:38:48.931771  4647 net.cpp:411] res4b5_branch2a -> res4b5_branch2a
I0603 22:38:48.934239  4647 net.cpp:150] Setting up res4b5_branch2a
I0603 22:38:48.934260  4647 net.cpp:157] Top shape: 1 256 65 65 (1081600)
I0603 22:38:48.934262  4647 net.cpp:165] Memory required for data: 1782441820
I0603 22:38:48.934286  4647 layer_factory.hpp:77] Creating layer bn4b5_branch2a
I0603 22:38:48.934298  4647 net.cpp:106] Creating Layer bn4b5_branch2a
I0603 22:38:48.934301  4647 net.cpp:454] bn4b5_branch2a <- res4b5_branch2a
I0603 22:38:48.934322  4647 net.cpp:397] bn4b5_branch2a -> res4b5_branch2a (in-place)
I0603 22:38:48.934574  4647 net.cpp:150] Setting up bn4b5_branch2a
I0603 22:38:48.934579  4647 net.cpp:157] Top shape: 1 256 65 65 (1081600)
I0603 22:38:48.934582  4647 net.cpp:165] Memory required for data: 1786768220
I0603 22:38:48.934588  4647 layer_factory.hpp:77] Creating layer scale4b5_branch2a
I0603 22:38:48.934609  4647 net.cpp:106] Creating Layer scale4b5_branch2a
I0603 22:38:48.934614  4647 net.cpp:454] scale4b5_branch2a <- res4b5_branch2a
I0603 22:38:48.934618  4647 net.cpp:397] scale4b5_branch2a -> res4b5_branch2a (in-place)
I0603 22:38:48.934672  4647 layer_factory.hpp:77] Creating layer scale4b5_branch2a
I0603 22:38:48.934804  4647 net.cpp:150] Setting up scale4b5_branch2a
I0603 22:38:48.934810  4647 net.cpp:157] Top shape: 1 256 65 65 (1081600)
I0603 22:38:48.934813  4647 net.cpp:165] Memory required for data: 1791094620
I0603 22:38:48.934819  4647 layer_factory.hpp:77] Creating layer res4b5_branch2a_relu
I0603 22:38:48.934826  4647 net.cpp:106] Creating Layer res4b5_branch2a_relu
I0603 22:38:48.934830  4647 net.cpp:454] res4b5_branch2a_relu <- res4b5_branch2a
I0603 22:38:48.934835  4647 net.cpp:397] res4b5_branch2a_relu -> res4b5_branch2a (in-place)
I0603 22:38:48.935269  4647 net.cpp:150] Setting up res4b5_branch2a_relu
I0603 22:38:48.935279  4647 net.cpp:157] Top shape: 1 256 65 65 (1081600)
I0603 22:38:48.935282  4647 net.cpp:165] Memory required for data: 1795421020
I0603 22:38:48.935286  4647 layer_factory.hpp:77] Creating layer res4b5_branch2b
I0603 22:38:48.935294  4647 net.cpp:106] Creating Layer res4b5_branch2b
I0603 22:38:48.935298  4647 net.cpp:454] res4b5_branch2b <- res4b5_branch2a
I0603 22:38:48.935303  4647 net.cpp:411] res4b5_branch2b -> res4b5_branch2b
I0603 22:38:48.936349  4647 net.cpp:150] Setting up res4b5_branch2b
I0603 22:38:48.936359  4647 net.cpp:157] Top shape: 1 256 65 65 (1081600)
I0603 22:38:48.936363  4647 net.cpp:165] Memory required for data: 1799747420
I0603 22:38:48.936369  4647 layer_factory.hpp:77] Creating layer bn4b5_branch2b
I0603 22:38:48.936377  4647 net.cpp:106] Creating Layer bn4b5_branch2b
I0603 22:38:48.936380  4647 net.cpp:454] bn4b5_branch2b <- res4b5_branch2b
I0603 22:38:48.936385  4647 net.cpp:397] bn4b5_branch2b -> res4b5_branch2b (in-place)
I0603 22:38:48.936583  4647 net.cpp:150] Setting up bn4b5_branch2b
I0603 22:38:48.936589  4647 net.cpp:157] Top shape: 1 256 65 65 (1081600)
I0603 22:38:48.936591  4647 net.cpp:165] Memory required for data: 1804073820
I0603 22:38:48.936599  4647 layer_factory.hpp:77] Creating layer scale4b5_branch2b
I0603 22:38:48.936619  4647 net.cpp:106] Creating Layer scale4b5_branch2b
I0603 22:38:48.936622  4647 net.cpp:454] scale4b5_branch2b <- res4b5_branch2b
I0603 22:38:48.936626  4647 net.cpp:397] scale4b5_branch2b -> res4b5_branch2b (in-place)
I0603 22:38:48.936669  4647 layer_factory.hpp:77] Creating layer scale4b5_branch2b
I0603 22:38:48.936846  4647 net.cpp:150] Setting up scale4b5_branch2b
I0603 22:38:48.936853  4647 net.cpp:157] Top shape: 1 256 65 65 (1081600)
I0603 22:38:48.936856  4647 net.cpp:165] Memory required for data: 1808400220
I0603 22:38:48.936863  4647 layer_factory.hpp:77] Creating layer res4b5_branch2b_relu
I0603 22:38:48.936869  4647 net.cpp:106] Creating Layer res4b5_branch2b_relu
I0603 22:38:48.936872  4647 net.cpp:454] res4b5_branch2b_relu <- res4b5_branch2b
I0603 22:38:48.936877  4647 net.cpp:397] res4b5_branch2b_relu -> res4b5_branch2b (in-place)
I0603 22:38:48.937377  4647 net.cpp:150] Setting up res4b5_branch2b_relu
I0603 22:38:48.937387  4647 net.cpp:157] Top shape: 1 256 65 65 (1081600)
I0603 22:38:48.937391  4647 net.cpp:165] Memory required for data: 1812726620
I0603 22:38:48.937394  4647 layer_factory.hpp:77] Creating layer res4b5_branch2c
I0603 22:38:48.937402  4647 net.cpp:106] Creating Layer res4b5_branch2c
I0603 22:38:48.937407  4647 net.cpp:454] res4b5_branch2c <- res4b5_branch2b
I0603 22:38:48.937412  4647 net.cpp:411] res4b5_branch2c -> res4b5_branch2c
I0603 22:38:48.939605  4647 net.cpp:150] Setting up res4b5_branch2c
I0603 22:38:48.939620  4647 net.cpp:157] Top shape: 1 1024 65 65 (4326400)
I0603 22:38:48.939622  4647 net.cpp:165] Memory required for data: 1830032220
I0603 22:38:48.939630  4647 layer_factory.hpp:77] Creating layer bn4b5_branch2c
I0603 22:38:48.939637  4647 net.cpp:106] Creating Layer bn4b5_branch2c
I0603 22:38:48.939642  4647 net.cpp:454] bn4b5_branch2c <- res4b5_branch2c
I0603 22:38:48.939648  4647 net.cpp:397] bn4b5_branch2c -> res4b5_branch2c (in-place)
I0603 22:38:48.939857  4647 net.cpp:150] Setting up bn4b5_branch2c
I0603 22:38:48.939863  4647 net.cpp:157] Top shape: 1 1024 65 65 (4326400)
I0603 22:38:48.939867  4647 net.cpp:165] Memory required for data: 1847337820
I0603 22:38:48.939874  4647 layer_factory.hpp:77] Creating layer scale4b5_branch2c
I0603 22:38:48.939882  4647 net.cpp:106] Creating Layer scale4b5_branch2c
I0603 22:38:48.939884  4647 net.cpp:454] scale4b5_branch2c <- res4b5_branch2c
I0603 22:38:48.939889  4647 net.cpp:397] scale4b5_branch2c -> res4b5_branch2c (in-place)
I0603 22:38:48.939927  4647 layer_factory.hpp:77] Creating layer scale4b5_branch2c
I0603 22:38:48.940392  4647 net.cpp:150] Setting up scale4b5_branch2c
I0603 22:38:48.940402  4647 net.cpp:157] Top shape: 1 1024 65 65 (4326400)
I0603 22:38:48.940407  4647 net.cpp:165] Memory required for data: 1864643420
I0603 22:38:48.940452  4647 layer_factory.hpp:77] Creating layer res4b5
I0603 22:38:48.940459  4647 net.cpp:106] Creating Layer res4b5
I0603 22:38:48.940462  4647 net.cpp:454] res4b5 <- res4b4_res4b4_relu_0_split_1
I0603 22:38:48.940467  4647 net.cpp:454] res4b5 <- res4b5_branch2c
I0603 22:38:48.940472  4647 net.cpp:411] res4b5 -> res4b5
I0603 22:38:48.940500  4647 net.cpp:150] Setting up res4b5
I0603 22:38:48.940506  4647 net.cpp:157] Top shape: 1 1024 65 65 (4326400)
I0603 22:38:48.940510  4647 net.cpp:165] Memory required for data: 1881949020
I0603 22:38:48.940513  4647 layer_factory.hpp:77] Creating layer res4b5_relu
I0603 22:38:48.940518  4647 net.cpp:106] Creating Layer res4b5_relu
I0603 22:38:48.940521  4647 net.cpp:454] res4b5_relu <- res4b5
I0603 22:38:48.940526  4647 net.cpp:397] res4b5_relu -> res4b5 (in-place)
I0603 22:38:48.940979  4647 net.cpp:150] Setting up res4b5_relu
I0603 22:38:48.940989  4647 net.cpp:157] Top shape: 1 1024 65 65 (4326400)
I0603 22:38:48.940991  4647 net.cpp:165] Memory required for data: 1899254620
I0603 22:38:48.940995  4647 layer_factory.hpp:77] Creating layer res4b5_res4b5_relu_0_split
I0603 22:38:48.941002  4647 net.cpp:106] Creating Layer res4b5_res4b5_relu_0_split
I0603 22:38:48.941005  4647 net.cpp:454] res4b5_res4b5_relu_0_split <- res4b5
I0603 22:38:48.941035  4647 net.cpp:411] res4b5_res4b5_relu_0_split -> res4b5_res4b5_relu_0_split_0
I0603 22:38:48.941058  4647 net.cpp:411] res4b5_res4b5_relu_0_split -> res4b5_res4b5_relu_0_split_1
I0603 22:38:48.941130  4647 net.cpp:150] Setting up res4b5_res4b5_relu_0_split
I0603 22:38:48.941136  4647 net.cpp:157] Top shape: 1 1024 65 65 (4326400)
I0603 22:38:48.941154  4647 net.cpp:157] Top shape: 1 1024 65 65 (4326400)
I0603 22:38:48.941157  4647 net.cpp:165] Memory required for data: 1933865820
I0603 22:38:48.941160  4647 layer_factory.hpp:77] Creating layer res4b6_branch2a
I0603 22:38:48.941166  4647 net.cpp:106] Creating Layer res4b6_branch2a
I0603 22:38:48.941170  4647 net.cpp:454] res4b6_branch2a <- res4b5_res4b5_relu_0_split_0
I0603 22:38:48.941176  4647 net.cpp:411] res4b6_branch2a -> res4b6_branch2a
I0603 22:38:48.943164  4647 net.cpp:150] Setting up res4b6_branch2a
I0603 22:38:48.943176  4647 net.cpp:157] Top shape: 1 256 65 65 (1081600)
I0603 22:38:48.943178  4647 net.cpp:165] Memory required for data: 1938192220
I0603 22:38:48.943186  4647 layer_factory.hpp:77] Creating layer bn4b6_branch2a
I0603 22:38:48.943192  4647 net.cpp:106] Creating Layer bn4b6_branch2a
I0603 22:38:48.943197  4647 net.cpp:454] bn4b6_branch2a <- res4b6_branch2a
I0603 22:38:48.943202  4647 net.cpp:397] bn4b6_branch2a -> res4b6_branch2a (in-place)
I0603 22:38:48.943470  4647 net.cpp:150] Setting up bn4b6_branch2a
I0603 22:38:48.943477  4647 net.cpp:157] Top shape: 1 256 65 65 (1081600)
I0603 22:38:48.943480  4647 net.cpp:165] Memory required for data: 1942518620
I0603 22:38:48.955713  4647 layer_factory.hpp:77] Creating layer scale4b6_branch2a
I0603 22:38:48.955732  4647 net.cpp:106] Creating Layer scale4b6_branch2a
I0603 22:38:48.955737  4647 net.cpp:454] scale4b6_branch2a <- res4b6_branch2a
I0603 22:38:48.955757  4647 net.cpp:397] scale4b6_branch2a -> res4b6_branch2a (in-place)
I0603 22:38:48.955879  4647 layer_factory.hpp:77] Creating layer scale4b6_branch2a
I0603 22:38:48.956046  4647 net.cpp:150] Setting up scale4b6_branch2a
I0603 22:38:48.956053  4647 net.cpp:157] Top shape: 1 256 65 65 (1081600)
I0603 22:38:48.956055  4647 net.cpp:165] Memory required for data: 1946845020
I0603 22:38:48.956063  4647 layer_factory.hpp:77] Creating layer res4b6_branch2a_relu
I0603 22:38:48.956082  4647 net.cpp:106] Creating Layer res4b6_branch2a_relu
I0603 22:38:48.956085  4647 net.cpp:454] res4b6_branch2a_relu <- res4b6_branch2a
I0603 22:38:48.956091  4647 net.cpp:397] res4b6_branch2a_relu -> res4b6_branch2a (in-place)
I0603 22:38:48.956643  4647 net.cpp:150] Setting up res4b6_branch2a_relu
I0603 22:38:48.956653  4647 net.cpp:157] Top shape: 1 256 65 65 (1081600)
I0603 22:38:48.956656  4647 net.cpp:165] Memory required for data: 1951171420
I0603 22:38:48.956660  4647 layer_factory.hpp:77] Creating layer res4b6_branch2b
I0603 22:38:48.956681  4647 net.cpp:106] Creating Layer res4b6_branch2b
I0603 22:38:48.956686  4647 net.cpp:454] res4b6_branch2b <- res4b6_branch2a
I0603 22:38:48.956692  4647 net.cpp:411] res4b6_branch2b -> res4b6_branch2b
I0603 22:38:48.957897  4647 net.cpp:150] Setting up res4b6_branch2b
I0603 22:38:48.957927  4647 net.cpp:157] Top shape: 1 256 65 65 (1081600)
I0603 22:38:48.957931  4647 net.cpp:165] Memory required for data: 1955497820
I0603 22:38:48.957942  4647 layer_factory.hpp:77] Creating layer bn4b6_branch2b
I0603 22:38:48.957952  4647 net.cpp:106] Creating Layer bn4b6_branch2b
I0603 22:38:48.957958  4647 net.cpp:454] bn4b6_branch2b <- res4b6_branch2b
I0603 22:38:48.957964  4647 net.cpp:397] bn4b6_branch2b -> res4b6_branch2b (in-place)
I0603 22:38:48.958204  4647 net.cpp:150] Setting up bn4b6_branch2b
I0603 22:38:48.958209  4647 net.cpp:157] Top shape: 1 256 65 65 (1081600)
I0603 22:38:48.958212  4647 net.cpp:165] Memory required for data: 1959824220
I0603 22:38:48.958221  4647 layer_factory.hpp:77] Creating layer scale4b6_branch2b
I0603 22:38:48.958226  4647 net.cpp:106] Creating Layer scale4b6_branch2b
I0603 22:38:48.958230  4647 net.cpp:454] scale4b6_branch2b <- res4b6_branch2b
I0603 22:38:48.958235  4647 net.cpp:397] scale4b6_branch2b -> res4b6_branch2b (in-place)
I0603 22:38:48.958308  4647 layer_factory.hpp:77] Creating layer scale4b6_branch2b
I0603 22:38:48.958432  4647 net.cpp:150] Setting up scale4b6_branch2b
I0603 22:38:48.958437  4647 net.cpp:157] Top shape: 1 256 65 65 (1081600)
I0603 22:38:48.958441  4647 net.cpp:165] Memory required for data: 1964150620
I0603 22:38:48.958447  4647 layer_factory.hpp:77] Creating layer res4b6_branch2b_relu
I0603 22:38:48.958453  4647 net.cpp:106] Creating Layer res4b6_branch2b_relu
I0603 22:38:48.958456  4647 net.cpp:454] res4b6_branch2b_relu <- res4b6_branch2b
I0603 22:38:48.958461  4647 net.cpp:397] res4b6_branch2b_relu -> res4b6_branch2b (in-place)
I0603 22:38:48.958854  4647 net.cpp:150] Setting up res4b6_branch2b_relu
I0603 22:38:48.958863  4647 net.cpp:157] Top shape: 1 256 65 65 (1081600)
I0603 22:38:48.958865  4647 net.cpp:165] Memory required for data: 1968477020
I0603 22:38:48.958869  4647 layer_factory.hpp:77] Creating layer res4b6_branch2c
I0603 22:38:48.958876  4647 net.cpp:106] Creating Layer res4b6_branch2c
I0603 22:38:48.958880  4647 net.cpp:454] res4b6_branch2c <- res4b6_branch2b
I0603 22:38:48.958886  4647 net.cpp:411] res4b6_branch2c -> res4b6_branch2c
I0603 22:38:48.961925  4647 net.cpp:150] Setting up res4b6_branch2c
…
I0603 22:38:51.006660  4647 net.cpp:157] Top shape: 1 1024 49 49 (2458624)
I0603 22:38:51.006665  4647 net.cpp:157] Top shape: 1 1024 49 49 (2458624)
I0603 22:38:51.006669  4647 net.cpp:165] Memory required for data: 9739858268
I0603 22:38:51.006675  4647 layer_factory.hpp:77] Creating layer res5a_branch1_res075
I0603 22:38:51.006686  4647 net.cpp:106] Creating Layer res5a_branch1_res075
I0603 22:38:51.006690  4647 net.cpp:454] res5a_branch1_res075 <- res4b22_res075_res4b22_relu_res075_0_split_0
I0603 22:38:51.006698  4647 net.cpp:411] res5a_branch1_res075 -> res5a_branch1_res075
I0603 22:38:51.015319  4647 net.cpp:150] Setting up res5a_branch1_res075
I0603 22:38:51.015345  4647 net.cpp:157] Top shape: 1 2048 49 49 (4917248)
I0603 22:38:51.015349  4647 net.cpp:165] Memory required for data: 9759527260
I0603 22:38:51.015358  4647 net.cpp:514] Sharing parameters 'res5a_branch1_0' owned by layer 'res5a_branch1', param index 0
I0603 22:38:51.025599  4647 layer_factory.hpp:77] Creating layer bn5a_branch1_res075
I0603 22:38:51.025617  4647 net.cpp:106] Creating Layer bn5a_branch1_res075
I0603 22:38:51.025625  4647 net.cpp:454] bn5a_branch1_res075 <- res5a_branch1_res075
I0603 22:38:51.025635  4647 net.cpp:397] bn5a_branch1_res075 -> res5a_branch1_res075 (in-place)
I0603 22:38:51.025897  4647 net.cpp:150] Setting up bn5a_branch1_res075
I0603 22:38:51.025904  4647 net.cpp:157] Top shape: 1 2048 49 49 (4917248)
I0603 22:38:51.025908  4647 net.cpp:165] Memory required for data: 9779196252
I0603 22:38:51.174334  4647 net.cpp:514] Sharing parameters 'bn5a_branch1_0' owned by layer 'bn5a_branch1', param index 0
I0603 22:38:51.174355  4647 net.cpp:514] Sharing parameters 'bn5a_branch1_1' owned by layer 'bn5a_branch1', param index 1
I0603 22:38:51.174363  4647 net.cpp:514] Sharing parameters 'bn5a_branch1_2' owned by layer 'bn5a_branch1', param index 2
I0603 22:38:51.174371  4647 layer_factory.hpp:77] Creating layer scale5a_branch1_res075
I0603 22:38:51.174384  4647 net.cpp:106] Creating Layer scale5a_branch1_res075
I0603 22:38:51.174394  4647 net.cpp:454] scale5a_branch1_res075 <- res5a_branch1_res075
I0603 22:38:51.174410  4647 net.cpp:397] scale5a_branch1_res075 -> res5a_branch1_res075 (in-place)
I0603 22:38:51.174580  4647 layer_factory.hpp:77] Creating layer scale5a_branch1_res075
I0603 22:38:51.174818  4647 net.cpp:150] Setting up scale5a_branch1_res075
I0603 22:38:51.174830  4647 net.cpp:157] Top shape: 1 2048 49 49 (4917248)
I0603 22:38:51.174836  4647 net.cpp:165] Memory required for data: 9798865244
I0603 22:38:51.174845  4647 net.cpp:514] Sharing parameters 'scale5a_branch1_0' owned by layer 'scale5a_branch1', param index 0
I0603 22:38:51.174854  4647 net.cpp:514] Sharing parameters 'scale5a_branch1_1' owned by layer 'scale5a_branch1', param index 1
I0603 22:38:51.174861  4647 layer_factory.hpp:77] Creating layer res5a_branch2a_res075
I0603 22:38:51.174875  4647 net.cpp:106] Creating Layer res5a_branch2a_res075
I0603 22:38:51.174883  4647 net.cpp:454] res5a_branch2a_res075 <- res4b22_res075_res4b22_relu_res075_0_split_1
I0603 22:38:51.174896  4647 net.cpp:411] res5a_branch2a_res075 -> res5a_branch2a_res075
I0603 22:38:51.180486  4647 net.cpp:150] Setting up res5a_branch2a_res075
I0603 22:38:51.180514  4647 net.cpp:157] Top shape: 1 512 49 49 (1229312)
I0603 22:38:51.180519  4647 net.cpp:165] Memory required for data: 9803782492
I0603 22:38:51.180531  4647 net.cpp:514] Sharing parameters 'res5a_branch2a_0' owned by layer 'res5a_branch2a', param index 0
I0603 22:38:51.180537  4647 layer_factory.hpp:77] Creating layer bn5a_branch2a_res075
I0603 22:38:51.180549  4647 net.cpp:106] Creating Layer bn5a_branch2a_res075
I0603 22:38:51.180557  4647 net.cpp:454] bn5a_branch2a_res075 <- res5a_branch2a_res075
I0603 22:38:51.180564  4647 net.cpp:397] bn5a_branch2a_res075 -> res5a_branch2a_res075 (in-place)
I0603 22:38:51.180878  4647 net.cpp:150] Setting up bn5a_branch2a_res075
I0603 22:38:51.180887  4647 net.cpp:157] Top shape: 1 512 49 49 (1229312)
I0603 22:38:51.180891  4647 net.cpp:165] Memory required for data: 9808699740
I0603 22:38:51.180898  4647 net.cpp:514] Sharing parameters 'bn5a_branch2a_0' owned by layer 'bn5a_branch2a', param index 0
I0603 22:38:51.180904  4647 net.cpp:514] Sharing parameters 'bn5a_branch2a_1' owned by layer 'bn5a_branch2a', param index 1
I0603 22:38:51.180908  4647 net.cpp:514] Sharing parameters 'bn5a_branch2a_2' owned by layer 'bn5a_branch2a', param index 2
I0603 22:38:51.180913  4647 layer_factory.hpp:77] Creating layer scale5a_branch2a_res075
I0603 22:38:51.180922  4647 net.cpp:106] Creating Layer scale5a_branch2a_res075
I0603 22:38:51.180928  4647 net.cpp:454] scale5a_branch2a_res075 <- res5a_branch2a_res075
I0603 22:38:51.180934  4647 net.cpp:397] scale5a_branch2a_res075 -> res5a_branch2a_res075 (in-place)
I0603 22:38:51.180997  4647 layer_factory.hpp:77] Creating layer scale5a_branch2a_res075
I0603 22:38:51.181191  4647 net.cpp:150] Setting up scale5a_branch2a_res075
I0603 22:38:51.181200  4647 net.cpp:157] Top shape: 1 512 49 49 (1229312)
I0603 22:38:51.181205  4647 net.cpp:165] Memory required for data: 9813616988
I0603 22:38:51.181212  4647 net.cpp:514] Sharing parameters 'scale5a_branch2a_0' owned by layer 'scale5a_branch2a', param index 0
I0603 22:38:51.181221  4647 net.cpp:514] Sharing parameters 'scale5a_branch2a_1' owned by layer 'scale5a_branch2a', param index 1
I0603 22:38:51.181226  4647 layer_factory.hpp:77] Creating layer res5a_branch2a_relu_res075
I0603 22:38:51.181234  4647 net.cpp:106] Creating Layer res5a_branch2a_relu_res075
I0603 22:38:51.181241  4647 net.cpp:454] res5a_branch2a_relu_res075 <- res5a_branch2a_res075
I0603 22:38:51.181262  4647 net.cpp:397] res5a_branch2a_relu_res075 -> res5a_branch2a_res075 (in-place)
I0603 22:38:51.182122  4647 net.cpp:150] Setting up res5a_branch2a_relu_res075
I0603 22:38:51.182137  4647 net.cpp:157] Top shape: 1 512 49 49 (1229312)
I0603 22:38:51.182142  4647 net.cpp:165] Memory required for data: 9818534236
I0603 22:38:51.182148  4647 layer_factory.hpp:77] Creating layer res5a_branch2b_res075
I0603 22:38:51.182160  4647 net.cpp:106] Creating Layer res5a_branch2b_res075
I0603 22:38:51.182166  4647 net.cpp:454] res5a_branch2b_res075 <- res5a_branch2a_res075
I0603 22:38:51.182175  4647 net.cpp:411] res5a_branch2b_res075 -> res5a_branch2b_res075
I0603 22:38:51.187204  4647 net.cpp:150] Setting up res5a_branch2b_res075
I0603 22:38:51.187247  4647 net.cpp:157] Top shape: 1 512 49 49 (1229312)
I0603 22:38:51.187252  4647 net.cpp:165] Memory required for data: 9823451484
I0603 22:38:51.187266  4647 net.cpp:514] Sharing parameters 'res5a_branch2b_0' owned by layer 'res5a_branch2b', param index 0
I0603 22:38:51.187276  4647 layer_factory.hpp:77] Creating layer bn5a_branch2b_res075
I0603 22:38:51.187291  4647 net.cpp:106] Creating Layer bn5a_branch2b_res075
I0603 22:38:51.187300  4647 net.cpp:454] bn5a_branch2b_res075 <- res5a_branch2b_res075
I0603 22:38:51.187309  4647 net.cpp:397] bn5a_branch2b_res075 -> res5a_branch2b_res075 (in-place)
I0603 22:38:51.187614  4647 net.cpp:150] Setting up bn5a_branch2b_res075
I0603 22:38:51.187621  4647 net.cpp:157] Top shape: 1 512 49 49 (1229312)
I0603 22:38:51.187625  4647 net.cpp:165] Memory required for data: 9828368732
I0603 22:38:51.187633  4647 net.cpp:514] Sharing parameters 'bn5a_branch2b_0' owned by layer 'bn5a_branch2b', param index 0
I0603 22:38:51.187638  4647 net.cpp:514] Sharing parameters 'bn5a_branch2b_1' owned by layer 'bn5a_branch2b', param index 1
I0603 22:38:51.187642  4647 net.cpp:514] Sharing parameters 'bn5a_branch2b_2' owned by layer 'bn5a_branch2b', param index 2
I0603 22:38:51.187647  4647 layer_factory.hpp:77] Creating layer scale5a_branch2b_res075
I0603 22:38:51.187654  4647 net.cpp:106] Creating Layer scale5a_branch2b_res075
I0603 22:38:51.187659  4647 net.cpp:454] scale5a_branch2b_res075 <- res5a_branch2b_res075
I0603 22:38:51.187665  4647 net.cpp:397] scale5a_branch2b_res075 -> res5a_branch2b_res075 (in-place)
I0603 22:38:51.187716  4647 layer_factory.hpp:77] Creating layer scale5a_branch2b_res075
I0603 22:38:51.187865  4647 net.cpp:150] Setting up scale5a_branch2b_res075
I0603 22:38:51.187871  4647 net.cpp:157] Top shape: 1 512 49 49 (1229312)
I0603 22:38:51.187875  4647 net.cpp:165] Memory required for data: 9833285980
I0603 22:38:51.187880  4647 net.cpp:514] Sharing parameters 'scale5a_branch2b_0' owned by layer 'scale5a_branch2b', param index 0
I0603 22:38:51.187886  4647 net.cpp:514] Sharing parameters 'scale5a_branch2b_1' owned by layer 'scale5a_branch2b', param index 1
I0603 22:38:51.187891  4647 layer_factory.hpp:77] Creating layer res5a_branch2b_relu_res075
I0603 22:38:51.187897  4647 net.cpp:106] Creating Layer res5a_branch2b_relu_res075
I0603 22:38:51.187901  4647 net.cpp:454] res5a_branch2b_relu_res075 <- res5a_branch2b_res075
I0603 22:38:51.187907  4647 net.cpp:397] res5a_branch2b_relu_res075 -> res5a_branch2b_res075 (in-place)
I0603 22:38:51.189018  4647 net.cpp:150] Setting up res5a_branch2b_relu_res075
I0603 22:38:51.189043  4647 net.cpp:157] Top shape: 1 512 49 49 (1229312)
I0603 22:38:51.189052  4647 net.cpp:165] Memory required for data: 9838203228
I0603 22:38:51.189062  4647 layer_factory.hpp:77] Creating layer res5a_branch2c_res075
I0603 22:38:51.189074  4647 net.cpp:106] Creating Layer res5a_branch2c_res075
I0603 22:38:51.189080  4647 net.cpp:454] res5a_branch2c_res075 <- res5a_branch2b_res075
I0603 22:38:51.189088  4647 net.cpp:411] res5a_branch2c_res075 -> res5a_branch2c_res075
I0603 22:38:51.193243  4647 net.cpp:150] Setting up res5a_branch2c_res075
I0603 22:38:51.193271  4647 net.cpp:157] Top shape: 1 2048 49 49 (4917248)
I0603 22:38:51.193275  4647 net.cpp:165] Memory required for data: 9857872220
I0603 22:38:51.193310  4647 net.cpp:514] Sharing parameters 'res5a_branch2c_0' owned by layer 'res5a_branch2c', param index 0
I0603 22:38:51.193318  4647 layer_factory.hpp:77] Creating layer bn5a_branch2c_res075
I0603 22:38:51.193331  4647 net.cpp:106] Creating Layer bn5a_branch2c_res075
I0603 22:38:51.193338  4647 net.cpp:454] bn5a_branch2c_res075 <- res5a_branch2c_res075
I0603 22:38:51.193347  4647 net.cpp:397] bn5a_branch2c_res075 -> res5a_branch2c_res075 (in-place)
I0603 22:38:51.193589  4647 net.cpp:150] Setting up bn5a_branch2c_res075
I0603 22:38:51.193595  4647 net.cpp:157] Top shape: 1 2048 49 49 (4917248)
I0603 22:38:51.193600  4647 net.cpp:165] Memory required for data: 9877541212
I0603 22:38:51.193608  4647 net.cpp:514] Sharing parameters 'bn5a_branch2c_0' owned by layer 'bn5a_branch2c', param index 0
I0603 22:38:51.193614  4647 net.cpp:514] Sharing parameters 'bn5a_branch2c_1' owned by layer 'bn5a_branch2c', param index 1
I0603 22:38:51.193617  4647 net.cpp:514] Sharing parameters 'bn5a_branch2c_2' owned by layer 'bn5a_branch2c', param index 2
I0603 22:38:51.193622  4647 layer_factory.hpp:77] Creating layer scale5a_branch2c_res075
I0603 22:38:51.193629  4647 net.cpp:106] Creating Layer scale5a_branch2c_res075
I0603 22:38:51.193634  4647 net.cpp:454] scale5a_branch2c_res075 <- res5a_branch2c_res075
I0603 22:38:51.193639  4647 net.cpp:397] scale5a_branch2c_res075 -> res5a_branch2c_res075 (in-place)
I0603 22:38:51.193689  4647 layer_factory.hpp:77] Creating layer scale5a_branch2c_res075
I0603 22:38:51.194344  4647 net.cpp:150] Setting up scale5a_branch2c_res075
I0603 22:38:51.194355  4647 net.cpp:157] Top shape: 1 2048 49 49 (4917248)
I0603 22:38:51.194360  4647 net.cpp:165] Memory required for data: 9897210204
I0603 22:38:51.194366  4647 net.cpp:514] Sharing parameters 'scale5a_branch2c_0' owned by layer 'scale5a_branch2c', param index 0
I0603 22:38:51.194371  4647 net.cpp:514] Sharing parameters 'scale5a_branch2c_1' owned by layer 'scale5a_branch2c', param index 1
I0603 22:38:51.194376  4647 layer_factory.hpp:77] Creating layer res5a_res075
I0603 22:38:51.194383  4647 net.cpp:106] Creating Layer res5a_res075
I0603 22:38:51.194389  4647 net.cpp:454] res5a_res075 <- res5a_branch1_res075
I0603 22:38:51.194394  4647 net.cpp:454] res5a_res075 <- res5a_branch2c_res075
I0603 22:38:51.194399  4647 net.cpp:411] res5a_res075 -> res5a_res075
I0603 22:38:51.194427  4647 net.cpp:150] Setting up res5a_res075
I0603 22:38:51.194434  4647 net.cpp:157] Top shape: 1 2048 49 49 (4917248)
I0603 22:38:51.194437  4647 net.cpp:165] Memory required for data: 9916879196
I0603 22:38:51.194442  4647 layer_factory.hpp:77] Creating layer res5a_relu_res075
I0603 22:38:51.194447  4647 net.cpp:106] Creating Layer res5a_relu_res075
I0603 22:38:51.194452  4647 net.cpp:454] res5a_relu_res075 <- res5a_res075
I0603 22:38:51.194458  4647 net.cpp:397] res5a_relu_res075 -> res5a_res075 (in-place)
I0603 22:38:51.195225  4647 net.cpp:150] Setting up res5a_relu_res075
I0603 22:38:51.195236  4647 net.cpp:157] Top shape: 1 2048 49 49 (4917248)
I0603 22:38:51.195241  4647 net.cpp:165] Memory required for data: 9936548188
I0603 22:38:51.195245  4647 layer_factory.hpp:77] Creating layer res5a_res075_res5a_relu_res075_0_split
I0603 22:38:51.195252  4647 net.cpp:106] Creating Layer res5a_res075_res5a_relu_res075_0_split
I0603 22:38:51.195257  4647 net.cpp:454] res5a_res075_res5a_relu_res075_0_split <- res5a_res075
I0603 22:38:51.195263  4647 net.cpp:411] res5a_res075_res5a_relu_res075_0_split -> res5a_res075_res5a_relu_res075_0_split_0
I0603 22:38:51.195271  4647 net.cpp:411] res5a_res075_res5a_relu_res075_0_split -> res5a_res075_res5a_relu_res075_0_split_1
I0603 22:38:51.195320  4647 net.cpp:150] Setting up res5a_res075_res5a_relu_res075_0_split
I0603 22:38:51.195327  4647 net.cpp:157] Top shape: 1 2048 49 49 (4917248)
I0603 22:38:51.195331  4647 net.cpp:157] Top shape: 1 2048 49 49 (4917248)
I0603 22:38:51.195334  4647 net.cpp:165] Memory required for data: 9975886172
I0603 22:38:51.195338  4647 layer_factory.hpp:77] Creating layer res5b_branch2a_res075
I0603 22:38:51.195358  4647 net.cpp:106] Creating Layer res5b_branch2a_res075
I0603 22:38:51.195363  4647 net.cpp:454] res5b_branch2a_res075 <- res5a_res075_res5a_relu_res075_0_split_0
I0603 22:38:51.195371  4647 net.cpp:411] res5b_branch2a_res075 -> res5b_branch2a_res075
I0603 22:38:51.199491  4647 net.cpp:150] Setting up res5b_branch2a_res075
I0603 22:38:51.199517  4647 net.cpp:157] Top shape: 1 512 49 49 (1229312)
I0603 22:38:51.199522  4647 net.cpp:165] Memory required for data: 9980803420
I0603 22:38:51.199532  4647 net.cpp:514] Sharing parameters 'res5b_branch2a_0' owned by layer 'res5b_branch2a', param index 0
I0603 22:38:51.199537  4647 layer_factory.hpp:77] Creating layer bn5b_branch2a_res075
I0603 22:38:51.199548  4647 net.cpp:106] Creating Layer bn5b_branch2a_res075
I0603 22:38:51.199554  4647 net.cpp:454] bn5b_branch2a_res075 <- res5b_branch2a_res075
I0603 22:38:51.199563  4647 net.cpp:397] bn5b_branch2a_res075 -> res5b_branch2a_res075 (in-place)
I0603 22:38:51.199827  4647 net.cpp:150] Setting up bn5b_branch2a_res075
I0603 22:38:51.199834  4647 net.cpp:157] Top shape: 1 512 49 49 (1229312)
I0603 22:38:51.199838  4647 net.cpp:165] Memory required for data: 9985720668
I0603 22:38:51.199844  4647 net.cpp:514] Sharing parameters 'bn5b_branch2a_0' owned by layer 'bn5b_branch2a', param index 0
I0603 22:38:51.199849  4647 net.cpp:514] Sharing parameters 'bn5b_branch2a_1' owned by layer 'bn5b_branch2a', param index 1
I0603 22:38:51.199854  4647 net.cpp:514] Sharing parameters 'bn5b_branch2a_2' owned by layer 'bn5b_branch2a', param index 2
I0603 22:38:51.199858  4647 layer_factory.hpp:77] Creating layer scale5b_branch2a_res075
I0603 22:38:51.199865  4647 net.cpp:106] Creating Layer scale5b_branch2a_res075
I0603 22:38:51.199870  4647 net.cpp:454] scale5b_branch2a_res075 <- res5b_branch2a_res075
I0603 22:38:51.199877  4647 net.cpp:397] scale5b_branch2a_res075 -> res5b_branch2a_res075 (in-place)
I0603 22:38:51.199928  4647 layer_factory.hpp:77] Creating layer scale5b_branch2a_res075
I0603 22:38:51.200075  4647 net.cpp:150] Setting up scale5b_branch2a_res075
I0603 22:38:51.200083  4647 net.cpp:157] Top shape: 1 512 49 49 (1229312)
I0603 22:38:51.200088  4647 net.cpp:165] Memory required for data: 9990637916
I0603 22:38:51.200093  4647 net.cpp:514] Sharing parameters 'scale5b_branch2a_0' owned by layer 'scale5b_branch2a', param index 0
I0603 22:38:51.200099  4647 net.cpp:514] Sharing parameters 'scale5b_branch2a_1' owned by layer 'scale5b_branch2a', param index 1
I0603 22:38:51.200104  4647 layer_factory.hpp:77] Creating layer res5b_branch2a_relu_res075
I0603 22:38:51.200110  4647 net.cpp:106] Creating Layer res5b_branch2a_relu_res075
I0603 22:38:51.200114  4647 net.cpp:454] res5b_branch2a_relu_res075 <- res5b_branch2a_res075
I0603 22:38:51.200119  4647 net.cpp:397] res5b_branch2a_relu_res075 -> res5b_branch2a_res075 (in-place)
I0603 22:38:51.200824  4647 net.cpp:150] Setting up res5b_branch2a_relu_res075
I0603 22:38:51.200835  4647 net.cpp:157] Top shape: 1 512 49 49 (1229312)
I0603 22:38:51.200840  4647 net.cpp:165] Memory required for data: 9995555164
I0603 22:38:51.200845  4647 layer_factory.hpp:77] Creating layer res5b_branch2b_res075
I0603 22:38:51.200855  4647 net.cpp:106] Creating Layer res5b_branch2b_res075
I0603 22:38:51.200860  4647 net.cpp:454] res5b_branch2b_res075 <- res5b_branch2a_res075
I0603 22:38:51.200866  4647 net.cpp:411] res5b_branch2b_res075 -> res5b_branch2b_res075
I0603 22:38:51.207165  4647 net.cpp:150] Setting up res5b_branch2b_res075
I0603 22:38:51.207198  4647 net.cpp:157] Top shape: 1 512 49 49 (1229312)
I0603 22:38:51.207202  4647 net.cpp:165] Memory required for data: 10000472412
I0603 22:38:51.207213  4647 net.cpp:514] Sharing parameters 'res5b_branch2b_0' owned by layer 'res5b_branch2b', param index 0
I0603 22:38:51.207221  4647 layer_factory.hpp:77] Creating layer bn5b_branch2b_res075
I0603 22:38:51.207234  4647 net.cpp:106] Creating Layer bn5b_branch2b_res075
I0603 22:38:51.207243  4647 net.cpp:454] bn5b_branch2b_res075 <- res5b_branch2b_res075
I0603 22:38:51.207278  4647 net.cpp:397] bn5b_branch2b_res075 -> res5b_branch2b_res075 (in-place)
I0603 22:38:51.207569  4647 net.cpp:150] Setting up bn5b_branch2b_res075
I0603 22:38:51.207576  4647 net.cpp:157] Top shape: 1 512 49 49 (1229312)
I0603 22:38:51.207581  4647 net.cpp:165] Memory required for data: 10005389660
I0603 22:38:51.207587  4647 net.cpp:514] Sharing parameters 'bn5b_branch2b_0' owned by layer 'bn5b_branch2b', param index 0
I0603 22:38:51.207592  4647 net.cpp:514] Sharing parameters 'bn5b_branch2b_1' owned by layer 'bn5b_branch2b', param index 1
I0603 22:38:51.207597  4647 net.cpp:514] Sharing parameters 'bn5b_branch2b_2' owned by layer 'bn5b_branch2b', param index 2
I0603 22:38:51.207602  4647 layer_factory.hpp:77] Creating layer scale5b_branch2b_res075
I0603 22:38:51.207609  4647 net.cpp:106] Creating Layer scale5b_branch2b_res075
I0603 22:38:51.207614  4647 net.cpp:454] scale5b_branch2b_res075 <- res5b_branch2b_res075
I0603 22:38:51.207619  4647 net.cpp:397] scale5b_branch2b_res075 -> res5b_branch2b_res075 (in-place)
I0603 22:38:51.207672  4647 layer_factory.hpp:77] Creating layer scale5b_branch2b_res075
I0603 22:38:51.207825  4647 net.cpp:150] Setting up scale5b_branch2b_res075
I0603 22:38:51.207831  4647 net.cpp:157] Top shape: 1 512 49 49 (1229312)
I0603 22:38:51.207835  4647 net.cpp:165] Memory required for data: 10010306908
I0603 22:38:51.207841  4647 net.cpp:514] Sharing parameters 'scale5b_branch2b_0' owned by layer 'scale5b_branch2b', param index 0
I0603 22:38:51.207849  4647 net.cpp:514] Sharing parameters 'scale5b_branch2b_1' owned by layer 'scale5b_branch2b', param index 1
I0603 22:38:51.207852  4647 layer_factory.hpp:77] Creating layer res5b_branch2b_relu_res075
I0603 22:38:51.207859  4647 net.cpp:106] Creating Layer res5b_branch2b_relu_res075
I0603 22:38:51.207864  4647 net.cpp:454] res5b_branch2b_relu_res075 <- res5b_branch2b_res075
I0603 22:38:51.207870  4647 net.cpp:397] res5b_branch2b_relu_res075 -> res5b_branch2b_res075 (in-place)
I0603 22:38:51.208293  4647 net.cpp:150] Setting up res5b_branch2b_relu_res075
I0603 22:38:51.208302  4647 net.cpp:157] Top shape: 1 512 49 49 (1229312)
I0603 22:38:51.208307  4647 net.cpp:165] Memory required for data: 10015224156
I0603 22:38:51.208312  4647 layer_factory.hpp:77] Creating layer res5b_branch2c_res075
I0603 22:38:51.208323  4647 net.cpp:106] Creating Layer res5b_branch2c_res075
I0603 22:38:51.208326  4647 net.cpp:454] res5b_branch2c_res075 <- res5b_branch2b_res075
I0603 22:38:51.208333  4647 net.cpp:411] res5b_branch2c_res075 -> res5b_branch2c_res075
I0603 22:38:51.213429  4647 net.cpp:150] Setting up res5b_branch2c_res075
I0603 22:38:51.213452  4647 net.cpp:157] Top shape: 1 2048 49 49 (4917248)
I0603 22:38:51.213456  4647 net.cpp:165] Memory required for data: 10034893148
I0603 22:38:51.213466  4647 net.cpp:514] Sharing parameters 'res5b_branch2c_0' owned by layer 'res5b_branch2c', param index 0
I0603 22:38:51.213474  4647 layer_factory.hpp:77] Creating layer bn5b_branch2c_res075
I0603 22:38:51.213484  4647 net.cpp:106] Creating Layer bn5b_branch2c_res075
I0603 22:38:51.213490  4647 net.cpp:454] bn5b_branch2c_res075 <- res5b_branch2c_res075
I0603 22:38:51.213498  4647 net.cpp:397] bn5b_branch2c_res075 -> res5b_branch2c_res075 (in-place)
I0603 22:38:51.213732  4647 net.cpp:150] Setting up bn5b_branch2c_res075
I0603 22:38:51.213738  4647 net.cpp:157] Top shape: 1 2048 49 49 (4917248)
I0603 22:38:51.213742  4647 net.cpp:165] Memory required for data: 10054562140
I0603 22:38:51.213748  4647 net.cpp:514] Sharing parameters 'bn5b_branch2c_0' owned by layer 'bn5b_branch2c', param index 0
I0603 22:38:51.213754  4647 net.cpp:514] Sharing parameters 'bn5b_branch2c_1' owned by layer 'bn5b_branch2c', param index 1
I0603 22:38:51.213759  4647 net.cpp:514] Sharing parameters 'bn5b_branch2c_2' owned by layer 'bn5b_branch2c', param index 2
I0603 22:38:51.213762  4647 layer_factory.hpp:77] Creating layer scale5b_branch2c_res075
I0603 22:38:51.213769  4647 net.cpp:106] Creating Layer scale5b_branch2c_res075
I0603 22:38:51.213774  4647 net.cpp:454] scale5b_branch2c_res075 <- res5b_branch2c_res075
I0603 22:38:51.213795  4647 net.cpp:397] scale5b_branch2c_res075 -> res5b_branch2c_res075 (in-place)
I0603 22:38:51.213842  4647 layer_factory.hpp:77] Creating layer scale5b_branch2c_res075
I0603 22:38:51.213974  4647 net.cpp:150] Setting up scale5b_branch2c_res075
I0603 22:38:51.213981  4647 net.cpp:157] Top shape: 1 2048 49 49 (4917248)
I0603 22:38:51.213985  4647 net.cpp:165] Memory required for data: 10074231132
I0603 22:38:51.213990  4647 net.cpp:514] Sharing parameters 'scale5b_branch2c_0' owned by layer 'scale5b_branch2c', param index 0
I0603 22:38:51.213996  4647 net.cpp:514] Sharing parameters 'scale5b_branch2c_1' owned by layer 'scale5b_branch2c', param index 1
I0603 22:38:51.214001  4647 layer_factory.hpp:77] Creating layer res5b_res075
I0603 22:38:51.214007  4647 net.cpp:106] Creating Layer res5b_res075
I0603 22:38:51.214012  4647 net.cpp:454] res5b_res075 <- res5a_res075_res5a_relu_res075_0_split_1
I0603 22:38:51.214017  4647 net.cpp:454] res5b_res075 <- res5b_branch2c_res075
I0603 22:38:51.214025  4647 net.cpp:411] res5b_res075 -> res5b_res075
I0603 22:38:51.214053  4647 net.cpp:150] Setting up res5b_res075
I0603 22:38:51.214061  4647 net.cpp:157] Top shape: 1 2048 49 49 (4917248)
I0603 22:38:51.214064  4647 net.cpp:165] Memory required for data: 10093900124
I0603 22:38:51.214068  4647 layer_factory.hpp:77] Creating layer res5b_relu_res075
I0603 22:38:51.214073  4647 net.cpp:106] Creating Layer res5b_relu_res075
I0603 22:38:51.214078  4647 net.cpp:454] res5b_relu_res075 <- res5b_res075
I0603 22:38:51.214082  4647 net.cpp:397] res5b_relu_res075 -> res5b_res075 (in-place)
I0603 22:38:51.214768  4647 net.cpp:150] Setting up res5b_relu_res075
I0603 22:38:51.214779  4647 net.cpp:157] Top shape: 1 2048 49 49 (4917248)
I0603 22:38:51.214783  4647 net.cpp:165] Memory required for data: 10113569116
I0603 22:38:51.214787  4647 layer_factory.hpp:77] Creating layer res5b_res075_res5b_relu_res075_0_split
I0603 22:38:51.214793  4647 net.cpp:106] Creating Layer res5b_res075_res5b_relu_res075_0_split
I0603 22:38:51.214797  4647 net.cpp:454] res5b_res075_res5b_relu_res075_0_split <- res5b_res075
I0603 22:38:51.214804  4647 net.cpp:411] res5b_res075_res5b_relu_res075_0_split -> res5b_res075_res5b_relu_res075_0_split_0
I0603 22:38:51.214812  4647 net.cpp:411] res5b_res075_res5b_relu_res075_0_split -> res5b_res075_res5b_relu_res075_0_split_1
I0603 22:38:51.214861  4647 net.cpp:150] Setting up res5b_res075_res5b_relu_res075_0_split
I0603 22:38:51.214867  4647 net.cpp:157] Top shape: 1 2048 49 49 (4917248)
I0603 22:38:51.214871  4647 net.cpp:157] Top shape: 1 2048 49 49 (4917248)
I0603 22:38:51.214874  4647 net.cpp:165] Memory required for data: 10152907100
I0603 22:38:51.214879  4647 layer_factory.hpp:77] Creating layer res5c_branch2a_res075
I0603 22:38:51.214887  4647 net.cpp:106] Creating Layer res5c_branch2a_res075
I0603 22:38:51.214891  4647 net.cpp:454] res5c_branch2a_res075 <- res5b_res075_res5b_relu_res075_0_split_0
I0603 22:38:51.214897  4647 net.cpp:411] res5c_branch2a_res075 -> res5c_branch2a_res075
I0603 22:38:51.218710  4647 net.cpp:150] Setting up res5c_branch2a_res075
I0603 22:38:51.218736  4647 net.cpp:157] Top shape: 1 512 49 49 (1229312)
I0603 22:38:51.218740  4647 net.cpp:165] Memory required for data: 10157824348
I0603 22:38:51.218750  4647 net.cpp:514] Sharing parameters 'res5c_branch2a_0' owned by layer 'res5c_branch2a', param index 0
I0603 22:38:51.218757  4647 layer_factory.hpp:77] Creating layer bn5c_branch2a_res075
I0603 22:38:51.218767  4647 net.cpp:106] Creating Layer bn5c_branch2a_res075
I0603 22:38:51.218773  4647 net.cpp:454] bn5c_branch2a_res075 <- res5c_branch2a_res075
I0603 22:38:51.218780  4647 net.cpp:397] bn5c_branch2a_res075 -> res5c_branch2a_res075 (in-place)
I0603 22:38:51.219033  4647 net.cpp:150] Setting up bn5c_branch2a_res075
I0603 22:38:51.219039  4647 net.cpp:157] Top shape: 1 512 49 49 (1229312)
I0603 22:38:51.219043  4647 net.cpp:165] Memory required for data: 10162741596
I0603 22:38:51.219048  4647 net.cpp:514] Sharing parameters 'bn5c_branch2a_0' owned by layer 'bn5c_branch2a', param index 0
I0603 22:38:51.219072  4647 net.cpp:514] Sharing parameters 'bn5c_branch2a_1' owned by layer 'bn5c_branch2a', param index 1
I0603 22:38:51.219076  4647 net.cpp:514] Sharing parameters 'bn5c_branch2a_2' owned by layer 'bn5c_branch2a', param index 2
I0603 22:38:51.219080  4647 layer_factory.hpp:77] Creating layer scale5c_branch2a_res075
I0603 22:38:51.219087  4647 net.cpp:106] Creating Layer scale5c_branch2a_res075
I0603 22:38:51.219092  4647 net.cpp:454] scale5c_branch2a_res075 <- res5c_branch2a_res075
I0603 22:38:51.219099  4647 net.cpp:397] scale5c_branch2a_res075 -> res5c_branch2a_res075 (in-place)
I0603 22:38:51.219149  4647 layer_factory.hpp:77] Creating layer scale5c_branch2a_res075
I0603 22:38:51.219292  4647 net.cpp:150] Setting up scale5c_branch2a_res075
I0603 22:38:51.219300  4647 net.cpp:157] Top shape: 1 512 49 49 (1229312)
I0603 22:38:51.219303  4647 net.cpp:165] Memory required for data: 10167658844
I0603 22:38:51.219310  4647 net.cpp:514] Sharing parameters 'scale5c_branch2a_0' owned by layer 'scale5c_branch2a', param index 0
I0603 22:38:51.219314  4647 net.cpp:514] Sharing parameters 'scale5c_branch2a_1' owned by layer 'scale5c_branch2a', param index 1
I0603 22:38:51.219318  4647 layer_factory.hpp:77] Creating layer res5c_branch2a_relu_res075
I0603 22:38:51.219324  4647 net.cpp:106] Creating Layer res5c_branch2a_relu_res075
I0603 22:38:51.219328  4647 net.cpp:454] res5c_branch2a_relu_res075 <- res5c_branch2a_res075
I0603 22:38:51.219334  4647 net.cpp:397] res5c_branch2a_relu_res075 -> res5c_branch2a_res075 (in-place)
I0603 22:38:51.219985  4647 net.cpp:150] Setting up res5c_branch2a_relu_res075
I0603 22:38:51.219995  4647 net.cpp:157] Top shape: 1 512 49 49 (1229312)
I0603 22:38:51.219998  4647 net.cpp:165] Memory required for data: 10172576092
I0603 22:38:51.220002  4647 layer_factory.hpp:77] Creating layer res5c_branch2b_res075
I0603 22:38:51.220011  4647 net.cpp:106] Creating Layer res5c_branch2b_res075
I0603 22:38:51.220016  4647 net.cpp:454] res5c_branch2b_res075 <- res5c_branch2a_res075
I0603 22:38:51.220024  4647 net.cpp:411] res5c_branch2b_res075 -> res5c_branch2b_res075
I0603 22:38:51.224202  4647 net.cpp:150] Setting up res5c_branch2b_res075
I0603 22:38:51.224233  4647 net.cpp:157] Top shape: 1 512 49 49 (1229312)
I0603 22:38:51.224237  4647 net.cpp:165] Memory required for data: 10177493340
I0603 22:38:51.224247  4647 net.cpp:514] Sharing parameters 'res5c_branch2b_0' owned by layer 'res5c_branch2b', param index 0
I0603 22:38:51.224253  4647 layer_factory.hpp:77] Creating layer bn5c_branch2b_res075
I0603 22:38:51.224263  4647 net.cpp:106] Creating Layer bn5c_branch2b_res075
I0603 22:38:51.224269  4647 net.cpp:454] bn5c_branch2b_res075 <- res5c_branch2b_res075
I0603 22:38:51.224277  4647 net.cpp:397] bn5c_branch2b_res075 -> res5c_branch2b_res075 (in-place)
I0603 22:38:51.224553  4647 net.cpp:150] Setting up bn5c_branch2b_res075
I0603 22:38:51.224560  4647 net.cpp:157] Top shape: 1 512 49 49 (1229312)
I0603 22:38:51.224563  4647 net.cpp:165] Memory required for data: 10182410588
I0603 22:38:51.224570  4647 net.cpp:514] Sharing parameters 'bn5c_branch2b_0' owned by layer 'bn5c_branch2b', param index 0
I0603 22:38:51.224575  4647 net.cpp:514] Sharing parameters 'bn5c_branch2b_1' owned by layer 'bn5c_branch2b', param index 1
I0603 22:38:51.224578  4647 net.cpp:514] Sharing parameters 'bn5c_branch2b_2' owned by layer 'bn5c_branch2b', param index 2
I0603 22:38:51.224582  4647 layer_factory.hpp:77] Creating layer scale5c_branch2b_res075
I0603 22:38:51.224589  4647 net.cpp:106] Creating Layer scale5c_branch2b_res075
I0603 22:38:51.224594  4647 net.cpp:454] scale5c_branch2b_res075 <- res5c_branch2b_res075
I0603 22:38:51.224599  4647 net.cpp:397] scale5c_branch2b_res075 -> res5c_branch2b_res075 (in-place)
I0603 22:38:51.224648  4647 layer_factory.hpp:77] Creating layer scale5c_branch2b_res075
I0603 22:38:51.224792  4647 net.cpp:150] Setting up scale5c_branch2b_res075
I0603 22:38:51.224797  4647 net.cpp:157] Top shape: 1 512 49 49 (1229312)
I0603 22:38:51.224802  4647 net.cpp:165] Memory required for data: 10187327836
I0603 22:38:51.224826  4647 net.cpp:514] Sharing parameters 'scale5c_branch2b_0' owned by layer 'scale5c_branch2b', param index 0
I0603 22:38:51.224833  4647 net.cpp:514] Sharing parameters 'scale5c_branch2b_1' owned by layer 'scale5c_branch2b', param index 1
I0603 22:38:51.224836  4647 layer_factory.hpp:77] Creating layer res5c_branch2b_relu_res075
I0603 22:38:51.224843  4647 net.cpp:106] Creating Layer res5c_branch2b_relu_res075
I0603 22:38:51.224846  4647 net.cpp:454] res5c_branch2b_relu_res075 <- res5c_branch2b_res075
I0603 22:38:51.224853  4647 net.cpp:397] res5c_branch2b_relu_res075 -> res5c_branch2b_res075 (in-place)
I0603 22:38:51.225787  4647 net.cpp:150] Setting up res5c_branch2b_relu_res075
I0603 22:38:51.225797  4647 net.cpp:157] Top shape: 1 512 49 49 (1229312)
I0603 22:38:51.225801  4647 net.cpp:165] Memory required for data: 10192245084
I0603 22:38:51.225805  4647 layer_factory.hpp:77] Creating layer res5c_branch2c_res075
I0603 22:38:51.225814  4647 net.cpp:106] Creating Layer res5c_branch2c_res075
I0603 22:38:51.225819  4647 net.cpp:454] res5c_branch2c_res075 <- res5c_branch2b_res075
I0603 22:38:51.225826  4647 net.cpp:411] res5c_branch2c_res075 -> res5c_branch2c_res075
I0603 22:38:51.229951  4647 net.cpp:150] Setting up res5c_branch2c_res075
I0603 22:38:51.229980  4647 net.cpp:157] Top shape: 1 2048 49 49 (4917248)
I0603 22:38:51.229985  4647 net.cpp:165] Memory required for data: 10211914076
I0603 22:38:51.229995  4647 net.cpp:514] Sharing parameters 'res5c_branch2c_0' owned by layer 'res5c_branch2c', param index 0
I0603 22:38:51.230000  4647 layer_factory.hpp:77] Creating layer bn5c_branch2c_res075
I0603 22:38:51.230010  4647 net.cpp:106] Creating Layer bn5c_branch2c_res075
I0603 22:38:51.230016  4647 net.cpp:454] bn5c_branch2c_res075 <- res5c_branch2c_res075
I0603 22:38:51.230023  4647 net.cpp:397] bn5c_branch2c_res075 -> res5c_branch2c_res075 (in-place)
I0603 22:38:51.230253  4647 net.cpp:150] Setting up bn5c_branch2c_res075
I0603 22:38:51.230260  4647 net.cpp:157] Top shape: 1 2048 49 49 (4917248)
I0603 22:38:51.230264  4647 net.cpp:165] Memory required for data: 10231583068
I0603 22:38:51.230269  4647 net.cpp:514] Sharing parameters 'bn5c_branch2c_0' owned by layer 'bn5c_branch2c', param index 0
I0603 22:38:51.230275  4647 net.cpp:514] Sharing parameters 'bn5c_branch2c_1' owned by layer 'bn5c_branch2c', param index 1
I0603 22:38:51.230279  4647 net.cpp:514] Sharing parameters 'bn5c_branch2c_2' owned by layer 'bn5c_branch2c', param index 2
I0603 22:38:51.230283  4647 layer_factory.hpp:77] Creating layer scale5c_branch2c_res075
I0603 22:38:51.230290  4647 net.cpp:106] Creating Layer scale5c_branch2c_res075
I0603 22:38:51.230294  4647 net.cpp:454] scale5c_branch2c_res075 <- res5c_branch2c_res075
I0603 22:38:51.230299  4647 net.cpp:397] scale5c_branch2c_res075 -> res5c_branch2c_res075 (in-place)
I0603 22:38:51.230345  4647 layer_factory.hpp:77] Creating layer scale5c_branch2c_res075
I0603 22:38:51.230473  4647 net.cpp:150] Setting up scale5c_branch2c_res075
I0603 22:38:51.230479  4647 net.cpp:157] Top shape: 1 2048 49 49 (4917248)
I0603 22:38:51.230481  4647 net.cpp:165] Memory required for data: 10251252060
I0603 22:38:51.230487  4647 net.cpp:514] Sharing parameters 'scale5c_branch2c_0' owned by layer 'scale5c_branch2c', param index 0
I0603 22:38:51.230492  4647 net.cpp:514] Sharing parameters 'scale5c_branch2c_1' owned by layer 'scale5c_branch2c', param index 1
I0603 22:38:51.230496  4647 layer_factory.hpp:77] Creating layer res5c_res075
I0603 22:38:51.230502  4647 net.cpp:106] Creating Layer res5c_res075
I0603 22:38:51.230507  4647 net.cpp:454] res5c_res075 <- res5b_res075_res5b_relu_res075_0_split_1
I0603 22:38:51.230514  4647 net.cpp:454] res5c_res075 <- res5c_branch2c_res075
I0603 22:38:51.230518  4647 net.cpp:411] res5c_res075 -> res5c_res075
I0603 22:38:51.230545  4647 net.cpp:150] Setting up res5c_res075
I0603 22:38:51.230551  4647 net.cpp:157] Top shape: 1 2048 49 49 (4917248)
I0603 22:38:51.230554  4647 net.cpp:165] Memory required for data: 10270921052
I0603 22:38:51.230576  4647 layer_factory.hpp:77] Creating layer res5c_relu_res075
I0603 22:38:51.230583  4647 net.cpp:106] Creating Layer res5c_relu_res075
I0603 22:38:51.230588  4647 net.cpp:454] res5c_relu_res075 <- res5c_res075
I0603 22:38:51.230593  4647 net.cpp:397] res5c_relu_res075 -> res5c_res075 (in-place)
I0603 22:38:51.230916  4647 net.cpp:150] Setting up res5c_relu_res075
I0603 22:38:51.230924  4647 net.cpp:157] Top shape: 1 2048 49 49 (4917248)
I0603 22:38:51.230928  4647 net.cpp:165] Memory required for data: 10290590044
I0603 22:38:51.230932  4647 layer_factory.hpp:77] Creating layer res5c_res075_res5c_relu_res075_0_split
I0603 22:38:51.230938  4647 net.cpp:106] Creating Layer res5c_res075_res5c_relu_res075_0_split
I0603 22:38:51.230943  4647 net.cpp:454] res5c_res075_res5c_relu_res075_0_split <- res5c_res075
I0603 22:38:51.230948  4647 net.cpp:411] res5c_res075_res5c_relu_res075_0_split -> res5c_res075_res5c_relu_res075_0_split_0
I0603 22:38:51.230955  4647 net.cpp:411] res5c_res075_res5c_relu_res075_0_split -> res5c_res075_res5c_relu_res075_0_split_1
I0603 22:38:51.230962  4647 net.cpp:411] res5c_res075_res5c_relu_res075_0_split -> res5c_res075_res5c_relu_res075_0_split_2
I0603 22:38:51.230968  4647 net.cpp:411] res5c_res075_res5c_relu_res075_0_split -> res5c_res075_res5c_relu_res075_0_split_3
I0603 22:38:51.231046  4647 net.cpp:150] Setting up res5c_res075_res5c_relu_res075_0_split
I0603 22:38:51.231052  4647 net.cpp:157] Top shape: 1 2048 49 49 (4917248)
I0603 22:38:51.231056  4647 net.cpp:157] Top shape: 1 2048 49 49 (4917248)
I0603 22:38:51.231060  4647 net.cpp:157] Top shape: 1 2048 49 49 (4917248)
I0603 22:38:51.231065  4647 net.cpp:157] Top shape: 1 2048 49 49 (4917248)
I0603 22:38:51.231067  4647 net.cpp:165] Memory required for data: 10369266012
I0603 22:38:51.231070  4647 layer_factory.hpp:77] Creating layer fc1_voc12_c0
I0603 22:38:51.231079  4647 net.cpp:106] Creating Layer fc1_voc12_c0
I0603 22:38:51.231086  4647 net.cpp:454] fc1_voc12_c0 <- res5c_res5c_relu_0_split_0
I0603 22:38:51.231091  4647 net.cpp:411] fc1_voc12_c0 -> fc1_voc12_c0
I0603 22:38:51.232139  4647 net.cpp:150] Setting up fc1_voc12_c0
I0603 22:38:51.232149  4647 net.cpp:157] Top shape: 1 21 65 65 (88725)
I0603 22:38:51.232154  4647 net.cpp:165] Memory required for data: 10369620912
I0603 22:38:51.232161  4647 layer_factory.hpp:77] Creating layer fc1_voc12_c1
I0603 22:38:51.232168  4647 net.cpp:106] Creating Layer fc1_voc12_c1
I0603 22:38:51.232173  4647 net.cpp:454] fc1_voc12_c1 <- res5c_res5c_relu_0_split_1
I0603 22:38:51.232180  4647 net.cpp:411] fc1_voc12_c1 -> fc1_voc12_c1
I0603 22:38:51.233232  4647 net.cpp:150] Setting up fc1_voc12_c1
I0603 22:38:51.233243  4647 net.cpp:157] Top shape: 1 21 65 65 (88725)
I0603 22:38:51.235391  4647 net.cpp:165] Memory required for data: 10369975812
I0603 22:38:51.235416  4647 layer_factory.hpp:77] Creating layer fc1_voc12_c2
I0603 22:38:51.235437  4647 net.cpp:106] Creating Layer fc1_voc12_c2
I0603 22:38:51.235445  4647 net.cpp:454] fc1_voc12_c2 <- res5c_res5c_relu_0_split_2
I0603 22:38:51.235457  4647 net.cpp:411] fc1_voc12_c2 -> fc1_voc12_c2
I0603 22:38:51.236791  4647 net.cpp:150] Setting up fc1_voc12_c2
I0603 22:38:51.236807  4647 net.cpp:157] Top shape: 1 21 65 65 (88725)
I0603 22:38:51.236811  4647 net.cpp:165] Memory required for data: 10370330712
I0603 22:38:51.236819  4647 layer_factory.hpp:77] Creating layer fc1_voc12_c3
I0603 22:38:51.236829  4647 net.cpp:106] Creating Layer fc1_voc12_c3
I0603 22:38:51.236832  4647 net.cpp:454] fc1_voc12_c3 <- res5c_res5c_relu_0_split_3
I0603 22:38:51.236840  4647 net.cpp:411] fc1_voc12_c3 -> fc1_voc12_c3
I0603 22:38:51.238154  4647 net.cpp:150] Setting up fc1_voc12_c3
I0603 22:38:51.238180  4647 net.cpp:157] Top shape: 1 21 65 65 (88725)
I0603 22:38:51.238184  4647 net.cpp:165] Memory required for data: 10370685612
I0603 22:38:51.238194  4647 layer_factory.hpp:77] Creating layer fc1_voc12
I0603 22:38:51.238204  4647 net.cpp:106] Creating Layer fc1_voc12
I0603 22:38:51.238210  4647 net.cpp:454] fc1_voc12 <- fc1_voc12_c0
I0603 22:38:51.238235  4647 net.cpp:454] fc1_voc12 <- fc1_voc12_c1
I0603 22:38:51.238240  4647 net.cpp:454] fc1_voc12 <- fc1_voc12_c2
I0603 22:38:51.238245  4647 net.cpp:454] fc1_voc12 <- fc1_voc12_c3
I0603 22:38:51.238250  4647 net.cpp:411] fc1_voc12 -> fc1_voc12
I0603 22:38:51.238288  4647 net.cpp:150] Setting up fc1_voc12
I0603 22:38:51.238294  4647 net.cpp:157] Top shape: 1 21 65 65 (88725)
I0603 22:38:51.238298  4647 net.cpp:165] Memory required for data: 10371040512
I0603 22:38:51.238302  4647 layer_factory.hpp:77] Creating layer fc1_voc12_res05_c0
I0603 22:38:51.238310  4647 net.cpp:106] Creating Layer fc1_voc12_res05_c0
I0603 22:38:51.238314  4647 net.cpp:454] fc1_voc12_res05_c0 <- res5c_res05_res5c_relu_res05_0_split_0
I0603 22:38:51.238322  4647 net.cpp:411] fc1_voc12_res05_c0 -> fc1_voc12_res05_c0
I0603 22:38:51.239547  4647 net.cpp:150] Setting up fc1_voc12_res05_c0
I0603 22:38:51.239559  4647 net.cpp:157] Top shape: 1 21 33 33 (22869)
I0603 22:38:51.239563  4647 net.cpp:165] Memory required for data: 10371131988
I0603 22:38:51.239569  4647 net.cpp:514] Sharing parameters 'fc1_voc12_c0_w' owned by layer 'fc1_voc12_c0', param index 0
I0603 22:38:51.239575  4647 net.cpp:514] Sharing parameters 'fc1_voc12_c0_b' owned by layer 'fc1_voc12_c0', param index 1
I0603 22:38:51.239579  4647 layer_factory.hpp:77] Creating layer fc1_voc12_res05_c1
I0603 22:38:51.239586  4647 net.cpp:106] Creating Layer fc1_voc12_res05_c1
I0603 22:38:51.239591  4647 net.cpp:454] fc1_voc12_res05_c1 <- res5c_res05_res5c_relu_res05_0_split_1
I0603 22:38:51.239599  4647 net.cpp:411] fc1_voc12_res05_c1 -> fc1_voc12_res05_c1
I0603 22:38:51.240730  4647 net.cpp:150] Setting up fc1_voc12_res05_c1
I0603 22:38:51.240742  4647 net.cpp:157] Top shape: 1 21 33 33 (22869)
I0603 22:38:51.240746  4647 net.cpp:165] Memory required for data: 10371223464
I0603 22:38:51.240752  4647 net.cpp:514] Sharing parameters 'fc1_voc12_c1_w' owned by layer 'fc1_voc12_c1', param index 0
I0603 22:38:51.240757  4647 net.cpp:514] Sharing parameters 'fc1_voc12_c1_b' owned by layer 'fc1_voc12_c1', param index 1
I0603 22:38:51.240761  4647 layer_factory.hpp:77] Creating layer fc1_voc12_res05_c2
I0603 22:38:51.240768  4647 net.cpp:106] Creating Layer fc1_voc12_res05_c2
I0603 22:38:51.240773  4647 net.cpp:454] fc1_voc12_res05_c2 <- res5c_res05_res5c_relu_res05_0_split_2
I0603 22:38:51.240780  4647 net.cpp:411] fc1_voc12_res05_c2 -> fc1_voc12_res05_c2
I0603 22:38:51.241859  4647 net.cpp:150] Setting up fc1_voc12_res05_c2
I0603 22:38:51.241873  4647 net.cpp:157] Top shape: 1 21 33 33 (22869)
I0603 22:38:51.241876  4647 net.cpp:165] Memory required for data: 10371314940
I0603 22:38:51.241883  4647 net.cpp:514] Sharing parameters 'fc1_voc12_c2_w' owned by layer 'fc1_voc12_c2', param index 0
I0603 22:38:51.241888  4647 net.cpp:514] Sharing parameters 'fc1_voc12_c2_b' owned by layer 'fc1_voc12_c2', param index 1
I0603 22:38:51.241891  4647 layer_factory.hpp:77] Creating layer fc1_voc12_res05_c3
I0603 22:38:51.241899  4647 net.cpp:106] Creating Layer fc1_voc12_res05_c3
I0603 22:38:51.241904  4647 net.cpp:454] fc1_voc12_res05_c3 <- res5c_res05_res5c_relu_res05_0_split_3
I0603 22:38:51.241911  4647 net.cpp:411] fc1_voc12_res05_c3 -> fc1_voc12_res05_c3
I0603 22:38:51.242983  4647 net.cpp:150] Setting up fc1_voc12_res05_c3
I0603 22:38:51.242995  4647 net.cpp:157] Top shape: 1 21 33 33 (22869)
I0603 22:38:51.242998  4647 net.cpp:165] Memory required for data: 10371406416
I0603 22:38:51.243003  4647 net.cpp:514] Sharing parameters 'fc1_voc12_c3_w' owned by layer 'fc1_voc12_c3', param index 0
I0603 22:38:51.243007  4647 net.cpp:514] Sharing parameters 'fc1_voc12_c3_b' owned by layer 'fc1_voc12_c3', param index 1
I0603 22:38:51.243012  4647 layer_factory.hpp:77] Creating layer fc1_voc12_res05
I0603 22:38:51.243019  4647 net.cpp:106] Creating Layer fc1_voc12_res05
I0603 22:38:51.243023  4647 net.cpp:454] fc1_voc12_res05 <- fc1_voc12_res05_c0
I0603 22:38:51.243028  4647 net.cpp:454] fc1_voc12_res05 <- fc1_voc12_res05_c1
I0603 22:38:51.243032  4647 net.cpp:454] fc1_voc12_res05 <- fc1_voc12_res05_c2
I0603 22:38:51.243053  4647 net.cpp:454] fc1_voc12_res05 <- fc1_voc12_res05_c3
I0603 22:38:51.243058  4647 net.cpp:411] fc1_voc12_res05 -> fc1_voc12_res05
I0603 22:38:51.243088  4647 net.cpp:150] Setting up fc1_voc12_res05
I0603 22:38:51.243094  4647 net.cpp:157] Top shape: 1 21 33 33 (22869)
I0603 22:38:51.243098  4647 net.cpp:165] Memory required for data: 10371497892
I0603 22:38:51.243101  4647 layer_factory.hpp:77] Creating layer fc1_voc12_res075_c0
I0603 22:38:51.243108  4647 net.cpp:106] Creating Layer fc1_voc12_res075_c0
I0603 22:38:51.243113  4647 net.cpp:454] fc1_voc12_res075_c0 <- res5c_res075_res5c_relu_res075_0_split_0
I0603 22:38:51.243120  4647 net.cpp:411] fc1_voc12_res075_c0 -> fc1_voc12_res075_c0
I0603 22:38:51.244194  4647 net.cpp:150] Setting up fc1_voc12_res075_c0
I0603 22:38:51.244205  4647 net.cpp:157] Top shape: 1 21 49 49 (50421)
I0603 22:38:51.244210  4647 net.cpp:165] Memory required for data: 10371699576
I0603 22:38:51.244215  4647 net.cpp:514] Sharing parameters 'fc1_voc12_c0_w' owned by layer 'fc1_voc12_c0', param index 0
I0603 22:38:51.244220  4647 net.cpp:514] Sharing parameters 'fc1_voc12_c0_b' owned by layer 'fc1_voc12_c0', param index 1
I0603 22:38:51.244223  4647 layer_factory.hpp:77] Creating layer fc1_voc12_res075_c1
I0603 22:38:51.244231  4647 net.cpp:106] Creating Layer fc1_voc12_res075_c1
I0603 22:38:51.244236  4647 net.cpp:454] fc1_voc12_res075_c1 <- res5c_res075_res5c_relu_res075_0_split_1
I0603 22:38:51.244244  4647 net.cpp:411] fc1_voc12_res075_c1 -> fc1_voc12_res075_c1
I0603 22:38:51.245337  4647 net.cpp:150] Setting up fc1_voc12_res075_c1
I0603 22:38:51.245348  4647 net.cpp:157] Top shape: 1 21 49 49 (50421)
I0603 22:38:51.245352  4647 net.cpp:165] Memory required for data: 10371901260
I0603 22:38:51.245357  4647 net.cpp:514] Sharing parameters 'fc1_voc12_c1_w' owned by layer 'fc1_voc12_c1', param index 0
I0603 22:38:51.245362  4647 net.cpp:514] Sharing parameters 'fc1_voc12_c1_b' owned by layer 'fc1_voc12_c1', param index 1
I0603 22:38:51.245366  4647 layer_factory.hpp:77] Creating layer fc1_voc12_res075_c2
I0603 22:38:51.245374  4647 net.cpp:106] Creating Layer fc1_voc12_res075_c2
I0603 22:38:51.245379  4647 net.cpp:454] fc1_voc12_res075_c2 <- res5c_res075_res5c_relu_res075_0_split_2
I0603 22:38:51.245386  4647 net.cpp:411] fc1_voc12_res075_c2 -> fc1_voc12_res075_c2
I0603 22:38:51.246469  4647 net.cpp:150] Setting up fc1_voc12_res075_c2
I0603 22:38:51.246480  4647 net.cpp:157] Top shape: 1 21 49 49 (50421)
I0603 22:38:51.246484  4647 net.cpp:165] Memory required for data: 10372102944
I0603 22:38:51.246490  4647 net.cpp:514] Sharing parameters 'fc1_voc12_c2_w' owned by layer 'fc1_voc12_c2', param index 0
I0603 22:38:51.246495  4647 net.cpp:514] Sharing parameters 'fc1_voc12_c2_b' owned by layer 'fc1_voc12_c2', param index 1
I0603 22:38:51.246498  4647 layer_factory.hpp:77] Creating layer fc1_voc12_res075_c3
I0603 22:38:51.246506  4647 net.cpp:106] Creating Layer fc1_voc12_res075_c3
I0603 22:38:51.246511  4647 net.cpp:454] fc1_voc12_res075_c3 <- res5c_res075_res5c_relu_res075_0_split_3
I0603 22:38:51.246520  4647 net.cpp:411] fc1_voc12_res075_c3 -> fc1_voc12_res075_c3
I0603 22:38:51.247627  4647 net.cpp:150] Setting up fc1_voc12_res075_c3
I0603 22:38:51.247642  4647 net.cpp:157] Top shape: 1 21 49 49 (50421)
I0603 22:38:51.247647  4647 net.cpp:165] Memory required for data: 10372304628
I0603 22:38:51.247653  4647 net.cpp:514] Sharing parameters 'fc1_voc12_c3_w' owned by layer 'fc1_voc12_c3', param index 0
I0603 22:38:51.247658  4647 net.cpp:514] Sharing parameters 'fc1_voc12_c3_b' owned by layer 'fc1_voc12_c3', param index 1
I0603 22:38:51.247663  4647 layer_factory.hpp:77] Creating layer fc1_voc12_res075
I0603 22:38:51.247673  4647 net.cpp:106] Creating Layer fc1_voc12_res075
I0603 22:38:51.247678  4647 net.cpp:454] fc1_voc12_res075 <- fc1_voc12_res075_c0
I0603 22:38:51.247683  4647 net.cpp:454] fc1_voc12_res075 <- fc1_voc12_res075_c1
I0603 22:38:51.247686  4647 net.cpp:454] fc1_voc12_res075 <- fc1_voc12_res075_c2
I0603 22:38:51.247690  4647 net.cpp:454] fc1_voc12_res075 <- fc1_voc12_res075_c3
I0603 22:38:51.247710  4647 net.cpp:411] fc1_voc12_res075 -> fc1_voc12_res075
I0603 22:38:51.247743  4647 net.cpp:150] Setting up fc1_voc12_res075
I0603 22:38:51.247750  4647 net.cpp:157] Top shape: 1 21 49 49 (50421)
I0603 22:38:51.247752  4647 net.cpp:165] Memory required for data: 10372506312
I0603 22:38:51.247756  4647 layer_factory.hpp:77] Creating layer fc1_voc12_res05_interp
I0603 22:38:51.247761  4647 net.cpp:106] Creating Layer fc1_voc12_res05_interp
I0603 22:38:51.247766  4647 net.cpp:454] fc1_voc12_res05_interp <- fc1_voc12_res05
I0603 22:38:51.247771  4647 net.cpp:411] fc1_voc12_res05_interp -> fc1_voc12_res05_interp
I0603 22:38:51.247798  4647 net.cpp:150] Setting up fc1_voc12_res05_interp
I0603 22:38:51.247803  4647 net.cpp:157] Top shape: 1 21 65 65 (88725)
I0603 22:38:51.247807  4647 net.cpp:165] Memory required for data: 10372861212
I0603 22:38:51.247809  4647 layer_factory.hpp:77] Creating layer fc1_voc12_res075_interp
I0603 22:38:51.247815  4647 net.cpp:106] Creating Layer fc1_voc12_res075_interp
I0603 22:38:51.247819  4647 net.cpp:454] fc1_voc12_res075_interp <- fc1_voc12_res075
I0603 22:38:51.247825  4647 net.cpp:411] fc1_voc12_res075_interp -> fc1_voc12_res075_interp
I0603 22:38:51.247848  4647 net.cpp:150] Setting up fc1_voc12_res075_interp
I0603 22:38:51.247854  4647 net.cpp:157] Top shape: 1 21 65 65 (88725)
I0603 22:38:51.247858  4647 net.cpp:165] Memory required for data: 10373216112
I0603 22:38:51.247860  4647 layer_factory.hpp:77] Creating layer fc_fusion
I0603 22:38:51.247866  4647 net.cpp:106] Creating Layer fc_fusion
I0603 22:38:51.247870  4647 net.cpp:454] fc_fusion <- fc1_voc12
I0603 22:38:51.247874  4647 net.cpp:454] fc_fusion <- fc1_voc12_res075_interp
I0603 22:38:51.265074  4647 net.cpp:454] fc_fusion <- fc1_voc12_res05_interp
I0603 22:38:51.265087  4647 net.cpp:411] fc_fusion -> fc_fusion
I0603 22:38:51.265177  4647 net.cpp:150] Setting up fc_fusion
I0603 22:38:51.265183  4647 net.cpp:157] Top shape: 1 21 65 65 (88725)
I0603 22:38:51.265187  4647 net.cpp:165] Memory required for data: 10373571012
I0603 22:38:51.265189  4647 layer_factory.hpp:77] Creating layer fc1_interp
I0603 22:38:51.265194  4647 net.cpp:106] Creating Layer fc1_interp
I0603 22:38:51.265198  4647 net.cpp:454] fc1_interp <- fc_fusion
I0603 22:38:51.265203  4647 net.cpp:411] fc1_interp -> fc1_interp
I0603 22:38:51.265872  4647 net.cpp:150] Setting up fc1_interp
I0603 22:38:51.265882  4647 net.cpp:157] Top shape: 1 21 513 513 (5526549)
I0603 22:38:51.265885  4647 net.cpp:165] Memory required for data: 10395677208
I0603 22:38:51.265888  4647 layer_factory.hpp:77] Creating layer accuracy
I0603 22:38:51.265897  4647 net.cpp:106] Creating Layer accuracy
I0603 22:38:51.265900  4647 net.cpp:454] accuracy <- fc1_interp
I0603 22:38:51.265904  4647 net.cpp:454] accuracy <- label_data_1_split_0
I0603 22:38:51.265909  4647 net.cpp:411] accuracy -> fc1_accuracy
I0603 22:38:51.265944  4647 net.cpp:150] Setting up accuracy
I0603 22:38:51.265949  4647 net.cpp:157] Top shape: 1 1 1 3 (3)
I0603 22:38:51.265951  4647 net.cpp:165] Memory required for data: 10395677220
I0603 22:38:51.265954  4647 layer_factory.hpp:77] Creating layer silence
I0603 22:38:51.265959  4647 net.cpp:106] Creating Layer silence
I0603 22:38:51.265961  4647 net.cpp:454] silence <- label_data_1_split_1
I0603 22:38:51.265965  4647 net.cpp:454] silence <- data_dim
I0603 22:38:51.265969  4647 net.cpp:150] Setting up silence
…
